// -----// IR Dump Before TritonTLXFixup: triton-tlx-fixup{cluster-dims={1,1,1} num-ctas=1 num-warps=4 target=cuda:100 threads-per-warp=32} ('builtin.module' operation) //----- //
#loc = loc("/projects/kzhou6/hwu27/triton-beta-3-paper-solver-wt/third_party/tlx/tools/sched2tlx/examples/case4_FA_bwd/handwritten_nows.py":31:1)
#loc60 = loc("Q"(#loc))
#loc61 = loc("K"(#loc))
#loc62 = loc("V"(#loc))
#loc63 = loc("dO"(#loc))
#loc64 = loc("dQ"(#loc))
#loc65 = loc("dK"(#loc))
#loc66 = loc("dV"(#loc))
#loc67 = loc("M"(#loc))
#loc68 = loc("D"(#loc))
#loc69 = loc("stride_m"(#loc))
#loc70 = loc("stride_n"(#loc))
#loc71 = loc("N_CTX"(#loc))
module {
  tt.func public @fa_bwd_dkdv_5mma(%Q: !tt.ptr<f16> {tt.divisibility = 16 : i32} loc("Q"(#loc)), %K: !tt.ptr<f16> {tt.divisibility = 16 : i32} loc("K"(#loc)), %V: !tt.ptr<f16> {tt.divisibility = 16 : i32} loc("V"(#loc)), %dO: !tt.ptr<f16> {tt.divisibility = 16 : i32} loc("dO"(#loc)), %dQ: !tt.ptr<f16> {tt.divisibility = 16 : i32} loc("dQ"(#loc)), %dK: !tt.ptr<f16> {tt.divisibility = 16 : i32} loc("dK"(#loc)), %dV: !tt.ptr<f16> {tt.divisibility = 16 : i32} loc("dV"(#loc)), %M: !tt.ptr<f32> {tt.divisibility = 16 : i32} loc("M"(#loc)), %D: !tt.ptr<f32> {tt.divisibility = 16 : i32} loc("D"(#loc)), %stride_m: i32 {tt.divisibility = 16 : i32} loc("stride_m"(#loc)), %stride_n: i32 {tt.divisibility = 16 : i32} loc("stride_n"(#loc)), %N_CTX: i32 {tt.divisibility = 16 : i32} loc("N_CTX"(#loc))) attributes {noinline = false} {
    %pid_n = tt.get_program_id x : i32 loc(#loc72)
    %off_hz = tt.get_program_id y : i32 loc(#loc73)
    %base = arith.muli %off_hz, %N_CTX : i32 loc(#loc74)
    %base_0 = arith.constant 128 : i32 loc(#loc74)
    %base_1 = arith.constant 128 : i32 loc(#loc74)
    %base_2 = arith.muli %base, %base_1 : i32 loc(#loc74)
    %start_n = arith.constant 128 : i32 loc(#loc75)
    %start_n_3 = arith.constant 128 : i32 loc(#loc75)
    %start_n_4 = arith.muli %pid_n, %start_n_3 : i32 loc(#loc75)
    %k_desc = tt.addptr %K, %base_2 : !tt.ptr<f16>, i32 loc(#loc76)
    %k_desc_5 = arith.constant 128 : i32 loc(#loc77)
    %k_desc_6 = arith.extsi %stride_n : i32 to i64 loc(#loc77)
    %k_desc_7 = arith.constant 1 : i64 loc(#loc77)
    %k_desc_8 = tt.make_tensor_descriptor %k_desc, [%N_CTX, %k_desc_5], [%k_desc_6, %k_desc_7] : !tt.ptr<f16>, !tt.tensordesc<128x128xf16> loc(#loc77)
    %v_desc = tt.addptr %V, %base_2 : !tt.ptr<f16>, i32 loc(#loc78)
    %v_desc_9 = arith.constant 128 : i32 loc(#loc79)
    %v_desc_10 = arith.extsi %stride_n : i32 to i64 loc(#loc79)
    %v_desc_11 = arith.constant 1 : i64 loc(#loc79)
    %v_desc_12 = tt.make_tensor_descriptor %v_desc, [%N_CTX, %v_desc_9], [%v_desc_10, %v_desc_11] : !tt.ptr<f16>, !tt.tensordesc<128x128xf16> loc(#loc79)
    %q_desc = tt.addptr %Q, %base_2 : !tt.ptr<f16>, i32 loc(#loc80)
    %q_desc_13 = arith.constant 128 : i32 loc(#loc81)
    %q_desc_14 = arith.extsi %stride_m : i32 to i64 loc(#loc81)
    %q_desc_15 = arith.constant 1 : i64 loc(#loc81)
    %q_desc_16 = tt.make_tensor_descriptor %q_desc, [%N_CTX, %q_desc_13], [%q_desc_14, %q_desc_15] : !tt.ptr<f16>, !tt.tensordesc<64x128xf16> loc(#loc81)
    %do_desc = tt.addptr %dO, %base_2 : !tt.ptr<f16>, i32 loc(#loc82)
    %do_desc_17 = arith.constant 128 : i32 loc(#loc83)
    %do_desc_18 = arith.extsi %stride_m : i32 to i64 loc(#loc83)
    %do_desc_19 = arith.constant 1 : i64 loc(#loc83)
    %do_desc_20 = tt.make_tensor_descriptor %do_desc, [%N_CTX, %do_desc_17], [%do_desc_18, %do_desc_19] : !tt.ptr<f16>, !tt.tensordesc<64x128xf16> loc(#loc83)
    %dq_desc = tt.addptr %dQ, %base_2 : !tt.ptr<f16>, i32 loc(#loc84)
    %dq_desc_21 = arith.constant 128 : i32 loc(#loc85)
    %dq_desc_22 = arith.extsi %stride_m : i32 to i64 loc(#loc85)
    %dq_desc_23 = arith.constant 1 : i64 loc(#loc85)
    %dq_desc_24 = tt.make_tensor_descriptor %dq_desc, [%N_CTX, %dq_desc_21], [%dq_desc_22, %dq_desc_23] : !tt.ptr<f16>, !tt.tensordesc<64x128xf16> loc(#loc85)
    %k = arith.constant 0 : i32 loc(#loc86)
    %k_25 = tt.descriptor_load %k_desc_8[%start_n_4, %k] : !tt.tensordesc<128x128xf16> -> tensor<128x128xf16> loc(#loc86)
    %v = arith.constant 0 : i32 loc(#loc87)
    %v_26 = tt.descriptor_load %v_desc_12[%start_n_4, %v] : !tt.tensordesc<128x128xf16> -> tensor<128x128xf16> loc(#loc87)
    %dk_acc = tt.call @"triton.language.standard.zeros____(0, 0)cconstexpr_128__(0, 1)cconstexpr_128__(1,)cconstexpr_fp32_"() : () -> tensor<128x128xf32> loc(#loc88)
    %dv_acc = tt.call @"triton.language.standard.zeros____(0, 0)cconstexpr_128__(0, 1)cconstexpr_128__(1,)cconstexpr_fp32_"() : () -> tensor<128x128xf32> loc(#loc89)
    %m_base = arith.muli %off_hz, %N_CTX : i32 loc(#loc90)
    %c0_i32 = arith.constant 0 : i32 loc(#loc20)
    %c64_i32 = arith.constant 64 : i32 loc(#loc20)
    %0 = arith.bitcast %c0_i32 : i32 to i32 loc(#loc20)
    %1 = arith.bitcast %N_CTX : i32 to i32 loc(#loc20)
    %2 = arith.bitcast %c64_i32 : i32 to i32 loc(#loc20)
    %3 = ub.poison : i32 loc(#loc20)
    %dv_acc_27:2 = scf.for %start_m = %0 to %1 step %2 iter_args(%dk_acc_38 = %dk_acc, %dv_acc_39 = %dv_acc) -> (tensor<128x128xf32>, tensor<128x128xf32>)  : i32 {
      %q = arith.constant 0 : i32 loc(#loc92)
      %q_40 = tt.descriptor_load %q_desc_16[%start_m, %q] : !tt.tensordesc<64x128xf16> -> tensor<64x128xf16> loc(#loc92)
      %do = arith.constant 0 : i32 loc(#loc93)
      %do_41 = tt.descriptor_load %do_desc_20[%start_m, %do] : !tt.tensordesc<64x128xf16> -> tensor<64x128xf16> loc(#loc93)
      %offs_m = tt.make_range {end = 64 : i32, start = 0 : i32} : tensor<64xi32> loc(#loc94)
      %offs_m_42 = tt.splat %start_m : i32 -> tensor<64xi32> loc(#loc95)
      %offs_m_43 = arith.addi %offs_m_42, %offs_m : tensor<64xi32> loc(#loc95)
      %m = tt.addptr %M, %m_base : !tt.ptr<f32>, i32 loc(#loc96)
      %m_44 = tt.splat %m : !tt.ptr<f32> -> tensor<64x!tt.ptr<f32>> loc(#loc96)
      %m_45 = tt.addptr %m_44, %offs_m_43 : tensor<64x!tt.ptr<f32>>, tensor<64xi32> loc(#loc96)
      %m_46 = tt.load %m_45 : tensor<64x!tt.ptr<f32>> loc(#loc97)
      %Di = tt.addptr %D, %m_base : !tt.ptr<f32>, i32 loc(#loc98)
      %Di_47 = tt.splat %Di : !tt.ptr<f32> -> tensor<64x!tt.ptr<f32>> loc(#loc98)
      %Di_48 = tt.addptr %Di_47, %offs_m_43 : tensor<64x!tt.ptr<f32>>, tensor<64xi32> loc(#loc98)
      %Di_49 = tt.load %Di_48 : tensor<64x!tt.ptr<f32>> loc(#loc99)
      %qkT = tt.trans %q_40 {order = array<i32: 1, 0>} : tensor<64x128xf16> -> tensor<128x64xf16> loc(#loc100)
      %qkT_50 = arith.constant 0.000000e+00 : f32 loc(#loc101)
      %qkT_51 = arith.constant dense<0.000000e+00> : tensor<128x64xf32> loc(#loc101)
      %qkT_52 = tt.dot %k_25, %qkT, %qkT_51, inputPrecision = tf32 : tensor<128x128xf16> * tensor<128x64xf16> -> tensor<128x64xf32> loc(#loc101)
      %pT = arith.constant 1.44269502 : f32 loc(#loc102)
      %pT_53 = arith.constant 1.44269502 : f32 loc(#loc102)
      %pT_54 = arith.constant dense<1.44269502> : tensor<128x64xf32> loc(#loc102)
      %pT_55 = arith.mulf %qkT_52, %pT_54 : tensor<128x64xf32> loc(#loc102)
      %pT_56 = tt.expand_dims %m_46 {axis = 0 : i32} : tensor<64xf32> -> tensor<1x64xf32> loc(#loc103)
      %pT_57 = tt.broadcast %pT_56 : tensor<1x64xf32> -> tensor<128x64xf32> loc(#loc102)
      %pT_58 = arith.subf %pT_55, %pT_57 : tensor<128x64xf32> loc(#loc102)
      %pT_59 = math.exp2 %pT_58 : tensor<128x64xf32> loc(#loc104)
      %ppT = arith.truncf %pT_59 : tensor<128x64xf32> to tensor<128x64xf16> loc(#loc105)
      %dpT = tt.trans %do_41 {order = array<i32: 1, 0>} : tensor<64x128xf16> -> tensor<128x64xf16> loc(#loc106)
      %dpT_60 = arith.constant 0.000000e+00 : f32 loc(#loc107)
      %dpT_61 = arith.constant dense<0.000000e+00> : tensor<128x64xf32> loc(#loc107)
      %dpT_62 = tt.dot %v_26, %dpT, %dpT_61, inputPrecision = tf32 : tensor<128x128xf16> * tensor<128x64xf16> -> tensor<128x64xf32> loc(#loc107)
      %dv_acc_63 = arith.constant 0.000000e+00 : f32 loc(#loc108)
      %dv_acc_64 = arith.constant dense<0.000000e+00> : tensor<128x128xf32> loc(#loc108)
      %dv_acc_65 = tt.dot %ppT, %do_41, %dv_acc_64, inputPrecision = tf32 : tensor<128x64xf16> * tensor<64x128xf16> -> tensor<128x128xf32> loc(#loc108)
      %dv_acc_66 = arith.addf %dv_acc_39, %dv_acc_65 : tensor<128x128xf32> loc(#loc109)
      %dsT = tt.expand_dims %Di_49 {axis = 0 : i32} : tensor<64xf32> -> tensor<1x64xf32> loc(#loc110)
      %dsT_67 = tt.broadcast %dsT : tensor<1x64xf32> -> tensor<128x64xf32> loc(#loc111)
      %dsT_68 = arith.subf %dpT_62, %dsT_67 : tensor<128x64xf32> loc(#loc111)
      %dsT_69 = arith.mulf %pT_59, %dsT_68 : tensor<128x64xf32> loc(#loc112)
      %dsT_70 = arith.truncf %dsT_69 : tensor<128x64xf32> to tensor<128x64xf16> loc(#loc113)
      %dq_partial = tt.trans %dsT_70 {order = array<i32: 1, 0>} : tensor<128x64xf16> -> tensor<64x128xf16> loc(#loc114)
      %dq_partial_71 = arith.constant 0.000000e+00 : f32 loc(#loc115)
      %dq_partial_72 = arith.constant dense<0.000000e+00> : tensor<64x128xf32> loc(#loc115)
      %dq_partial_73 = tt.dot %dq_partial, %k_25, %dq_partial_72, inputPrecision = tf32 : tensor<64x128xf16> * tensor<128x128xf16> -> tensor<64x128xf32> loc(#loc115)
      %6 = arith.truncf %dq_partial_73 : tensor<64x128xf32> to tensor<64x128xf16> loc(#loc45)
      %c0_i32_74 = arith.constant 0 : i32 loc(#loc46)
      tt.descriptor_reduce add, %dq_desc_24[%start_m, %c0_i32_74], %6 : !tt.tensordesc<64x128xf16>, tensor<64x128xf16> loc(#loc46)
      %dk_acc_75 = arith.constant 0.000000e+00 : f32 loc(#loc116)
      %dk_acc_76 = arith.constant dense<0.000000e+00> : tensor<128x128xf32> loc(#loc116)
      %dk_acc_77 = tt.dot %dsT_70, %q_40, %dk_acc_76, inputPrecision = tf32 : tensor<128x64xf16> * tensor<64x128xf16> -> tensor<128x128xf32> loc(#loc116)
      %dk_acc_78 = arith.addf %dk_acc_38, %dk_acc_77 : tensor<128x128xf32> loc(#loc117)
      scf.yield %dk_acc_78, %dv_acc_66 : tensor<128x128xf32>, tensor<128x128xf32> loc(#loc20)
    } {tt.warp_specialize} loc(#loc122)
    %dk_desc = tt.addptr %dK, %base_2 : !tt.ptr<f16>, i32 loc(#loc118)
    %dk_desc_28 = arith.constant 128 : i32 loc(#loc119)
    %dk_desc_29 = arith.extsi %stride_n : i32 to i64 loc(#loc119)
    %dk_desc_30 = arith.constant 1 : i64 loc(#loc119)
    %dk_desc_31 = tt.make_tensor_descriptor %dk_desc, [%N_CTX, %dk_desc_28], [%dk_desc_29, %dk_desc_30] : !tt.ptr<f16>, !tt.tensordesc<128x128xf16> loc(#loc119)
    %dv_desc = tt.addptr %dV, %base_2 : !tt.ptr<f16>, i32 loc(#loc120)
    %dv_desc_32 = arith.constant 128 : i32 loc(#loc121)
    %dv_desc_33 = arith.extsi %stride_n : i32 to i64 loc(#loc121)
    %dv_desc_34 = arith.constant 1 : i64 loc(#loc121)
    %dv_desc_35 = tt.make_tensor_descriptor %dv_desc, [%N_CTX, %dv_desc_32], [%dv_desc_33, %dv_desc_34] : !tt.ptr<f16>, !tt.tensordesc<128x128xf16> loc(#loc121)
    %4 = arith.truncf %dv_acc_27#0 : tensor<128x128xf32> to tensor<128x128xf16> loc(#loc53)
    %c0_i32_36 = arith.constant 0 : i32 loc(#loc54)
    tt.descriptor_store %dk_desc_31[%start_n_4, %c0_i32_36], %4 : !tt.tensordesc<128x128xf16>, tensor<128x128xf16> loc(#loc54)
    %5 = arith.truncf %dv_acc_27#1 : tensor<128x128xf32> to tensor<128x128xf16> loc(#loc55)
    %c0_i32_37 = arith.constant 0 : i32 loc(#loc56)
    tt.descriptor_store %dv_desc_35[%start_n_4, %c0_i32_37], %5 : !tt.tensordesc<128x128xf16>, tensor<128x128xf16> loc(#loc56)
    tt.return loc(#loc)
  } loc(#loc)
  tt.func private @"triton.language.standard.zeros____(0, 0)cconstexpr_128__(0, 1)cconstexpr_128__(1,)cconstexpr_fp32_"() -> tensor<128x128xf32> attributes {noinline = false} {
    %cst = arith.constant 0.000000e+00 : f32 loc(#loc58)
    %cst_0 = arith.constant dense<0.000000e+00> : tensor<128x128xf32> loc(#loc58)
    tt.return %cst_0 : tensor<128x128xf32> loc(#loc59)
  ^bb1:  // no predecessors
    %0 = ub.poison : tensor<128x128xf32> loc(#loc57)
    tt.return %0 : tensor<128x128xf32> loc(#loc57)
  } loc(#loc57)
} loc(#loc)
#loc1 = loc("/projects/kzhou6/hwu27/triton-beta-3-paper-solver-wt/third_party/tlx/tools/sched2tlx/examples/case4_FA_bwd/handwritten_nows.py":49:13)
#loc2 = loc("/projects/kzhou6/hwu27/triton-beta-3-paper-solver-wt/third_party/tlx/tools/sched2tlx/examples/case4_FA_bwd/handwritten_nows.py":50:14)
#loc3 = loc("/projects/kzhou6/hwu27/triton-beta-3-paper-solver-wt/third_party/tlx/tools/sched2tlx/examples/case4_FA_bwd/handwritten_nows.py":52:12)
#loc4 = loc("/projects/kzhou6/hwu27/triton-beta-3-paper-solver-wt/third_party/tlx/tools/sched2tlx/examples/case4_FA_bwd/handwritten_nows.py":53:15)
#loc5 = loc("/projects/kzhou6/hwu27/triton-beta-3-paper-solver-wt/third_party/tlx/tools/sched2tlx/examples/case4_FA_bwd/handwritten_nows.py":56:9)
#loc6 = loc("/projects/kzhou6/hwu27/triton-beta-3-paper-solver-wt/third_party/tlx/tools/sched2tlx/examples/case4_FA_bwd/handwritten_nows.py":55:14)
#loc7 = loc("/projects/kzhou6/hwu27/triton-beta-3-paper-solver-wt/third_party/tlx/tools/sched2tlx/examples/case4_FA_bwd/handwritten_nows.py":59:9)
#loc8 = loc("/projects/kzhou6/hwu27/triton-beta-3-paper-solver-wt/third_party/tlx/tools/sched2tlx/examples/case4_FA_bwd/handwritten_nows.py":58:14)
#loc9 = loc("/projects/kzhou6/hwu27/triton-beta-3-paper-solver-wt/third_party/tlx/tools/sched2tlx/examples/case4_FA_bwd/handwritten_nows.py":62:9)
#loc10 = loc("/projects/kzhou6/hwu27/triton-beta-3-paper-solver-wt/third_party/tlx/tools/sched2tlx/examples/case4_FA_bwd/handwritten_nows.py":61:14)
#loc11 = loc("/projects/kzhou6/hwu27/triton-beta-3-paper-solver-wt/third_party/tlx/tools/sched2tlx/examples/case4_FA_bwd/handwritten_nows.py":65:9)
#loc12 = loc("/projects/kzhou6/hwu27/triton-beta-3-paper-solver-wt/third_party/tlx/tools/sched2tlx/examples/case4_FA_bwd/handwritten_nows.py":64:15)
#loc13 = loc("/projects/kzhou6/hwu27/triton-beta-3-paper-solver-wt/third_party/tlx/tools/sched2tlx/examples/case4_FA_bwd/handwritten_nows.py":68:9)
#loc14 = loc("/projects/kzhou6/hwu27/triton-beta-3-paper-solver-wt/third_party/tlx/tools/sched2tlx/examples/case4_FA_bwd/handwritten_nows.py":67:15)
#loc15 = loc("/projects/kzhou6/hwu27/triton-beta-3-paper-solver-wt/third_party/tlx/tools/sched2tlx/examples/case4_FA_bwd/handwritten_nows.py":71:9)
#loc16 = loc("/projects/kzhou6/hwu27/triton-beta-3-paper-solver-wt/third_party/tlx/tools/sched2tlx/examples/case4_FA_bwd/handwritten_nows.py":72:9)
#loc17 = loc("/projects/kzhou6/hwu27/triton-beta-3-paper-solver-wt/third_party/tlx/tools/sched2tlx/examples/case4_FA_bwd/handwritten_nows.py":74:14)
#loc18 = loc("/projects/kzhou6/hwu27/triton-beta-3-paper-solver-wt/third_party/tlx/tools/sched2tlx/examples/case4_FA_bwd/handwritten_nows.py":75:14)
#loc19 = loc("/projects/kzhou6/hwu27/triton-beta-3-paper-solver-wt/third_party/tlx/tools/sched2tlx/examples/case4_FA_bwd/handwritten_nows.py":77:14)
#loc20 = loc("/projects/kzhou6/hwu27/triton-beta-3-paper-solver-wt/third_party/tlx/tools/sched2tlx/examples/case4_FA_bwd/handwritten_nows.py":79:5)
#loc21 = loc("/projects/kzhou6/hwu27/triton-beta-3-paper-solver-wt/third_party/tlx/tools/sched2tlx/examples/case4_FA_bwd/handwritten_nows.py":80:13)
#loc22 = loc("/projects/kzhou6/hwu27/triton-beta-3-paper-solver-wt/third_party/tlx/tools/sched2tlx/examples/case4_FA_bwd/handwritten_nows.py":81:14)
#loc23 = loc("/projects/kzhou6/hwu27/triton-beta-3-paper-solver-wt/third_party/tlx/tools/sched2tlx/examples/case4_FA_bwd/handwritten_nows.py":83:28)
#loc24 = loc("/projects/kzhou6/hwu27/triton-beta-3-paper-solver-wt/third_party/tlx/tools/sched2tlx/examples/case4_FA_bwd/handwritten_nows.py":83:18)
#loc25 = loc("/projects/kzhou6/hwu27/triton-beta-3-paper-solver-wt/third_party/tlx/tools/sched2tlx/examples/case4_FA_bwd/handwritten_nows.py":84:21)
#loc26 = loc("/projects/kzhou6/hwu27/triton-beta-3-paper-solver-wt/third_party/tlx/tools/sched2tlx/examples/case4_FA_bwd/handwritten_nows.py":84:13)
#loc27 = loc("/projects/kzhou6/hwu27/triton-beta-3-paper-solver-wt/third_party/tlx/tools/sched2tlx/examples/case4_FA_bwd/handwritten_nows.py":85:22)
#loc28 = loc("/projects/kzhou6/hwu27/triton-beta-3-paper-solver-wt/third_party/tlx/tools/sched2tlx/examples/case4_FA_bwd/handwritten_nows.py":85:14)
#loc29 = loc("/projects/kzhou6/hwu27/triton-beta-3-paper-solver-wt/third_party/tlx/tools/sched2tlx/examples/case4_FA_bwd/handwritten_nows.py":87:25)
#loc30 = loc("/projects/kzhou6/hwu27/triton-beta-3-paper-solver-wt/third_party/tlx/tools/sched2tlx/examples/case4_FA_bwd/handwritten_nows.py":87:15)
#loc31 = loc("/projects/kzhou6/hwu27/triton-beta-3-paper-solver-wt/third_party/tlx/tools/sched2tlx/examples/case4_FA_bwd/handwritten_nows.py":90:27)
#loc32 = loc("/projects/kzhou6/hwu27/triton-beta-3-paper-solver-wt/third_party/tlx/tools/sched2tlx/examples/case4_FA_bwd/handwritten_nows.py":90:54)
#loc33 = loc("/projects/kzhou6/hwu27/triton-beta-3-paper-solver-wt/third_party/tlx/tools/sched2tlx/examples/case4_FA_bwd/handwritten_nows.py":90:14)
#loc34 = loc("/projects/kzhou6/hwu27/triton-beta-3-paper-solver-wt/third_party/tlx/tools/sched2tlx/examples/case4_FA_bwd/handwritten_nows.py":91:15)
#loc35 = loc("/projects/kzhou6/hwu27/triton-beta-3-paper-solver-wt/third_party/tlx/tools/sched2tlx/examples/case4_FA_bwd/handwritten_nows.py":92:25)
#loc36 = loc("/projects/kzhou6/hwu27/triton-beta-3-paper-solver-wt/third_party/tlx/tools/sched2tlx/examples/case4_FA_bwd/handwritten_nows.py":92:15)
#loc37 = loc("/projects/kzhou6/hwu27/triton-beta-3-paper-solver-wt/third_party/tlx/tools/sched2tlx/examples/case4_FA_bwd/handwritten_nows.py":93:19)
#loc38 = loc("/projects/kzhou6/hwu27/triton-beta-3-paper-solver-wt/third_party/tlx/tools/sched2tlx/examples/case4_FA_bwd/handwritten_nows.py":93:9)
#loc39 = loc("/projects/kzhou6/hwu27/triton-beta-3-paper-solver-wt/third_party/tlx/tools/sched2tlx/examples/case4_FA_bwd/handwritten_nows.py":94:28)
#loc40 = loc("/projects/kzhou6/hwu27/triton-beta-3-paper-solver-wt/third_party/tlx/tools/sched2tlx/examples/case4_FA_bwd/handwritten_nows.py":94:22)
#loc41 = loc("/projects/kzhou6/hwu27/triton-beta-3-paper-solver-wt/third_party/tlx/tools/sched2tlx/examples/case4_FA_bwd/handwritten_nows.py":94:16)
#loc42 = loc("/projects/kzhou6/hwu27/triton-beta-3-paper-solver-wt/third_party/tlx/tools/sched2tlx/examples/case4_FA_bwd/handwritten_nows.py":94:15)
#loc43 = loc("/projects/kzhou6/hwu27/triton-beta-3-paper-solver-wt/third_party/tlx/tools/sched2tlx/examples/case4_FA_bwd/handwritten_nows.py":95:29)
#loc44 = loc("/projects/kzhou6/hwu27/triton-beta-3-paper-solver-wt/third_party/tlx/tools/sched2tlx/examples/case4_FA_bwd/handwritten_nows.py":95:22)
#loc45 = loc("/projects/kzhou6/hwu27/triton-beta-3-paper-solver-wt/third_party/tlx/tools/sched2tlx/examples/case4_FA_bwd/handwritten_nows.py":96:42)
#loc46 = loc("/projects/kzhou6/hwu27/triton-beta-3-paper-solver-wt/third_party/tlx/tools/sched2tlx/examples/case4_FA_bwd/handwritten_nows.py":96:9)
#loc47 = loc("/projects/kzhou6/hwu27/triton-beta-3-paper-solver-wt/third_party/tlx/tools/sched2tlx/examples/case4_FA_bwd/handwritten_nows.py":97:19)
#loc48 = loc("/projects/kzhou6/hwu27/triton-beta-3-paper-solver-wt/third_party/tlx/tools/sched2tlx/examples/case4_FA_bwd/handwritten_nows.py":97:9)
#loc49 = loc("/projects/kzhou6/hwu27/triton-beta-3-paper-solver-wt/third_party/tlx/tools/sched2tlx/examples/case4_FA_bwd/handwritten_nows.py":100:9)
#loc50 = loc("/projects/kzhou6/hwu27/triton-beta-3-paper-solver-wt/third_party/tlx/tools/sched2tlx/examples/case4_FA_bwd/handwritten_nows.py":99:15)
#loc51 = loc("/projects/kzhou6/hwu27/triton-beta-3-paper-solver-wt/third_party/tlx/tools/sched2tlx/examples/case4_FA_bwd/handwritten_nows.py":103:9)
#loc52 = loc("/projects/kzhou6/hwu27/triton-beta-3-paper-solver-wt/third_party/tlx/tools/sched2tlx/examples/case4_FA_bwd/handwritten_nows.py":102:15)
#loc53 = loc("/projects/kzhou6/hwu27/triton-beta-3-paper-solver-wt/third_party/tlx/tools/sched2tlx/examples/case4_FA_bwd/handwritten_nows.py":105:33)
#loc54 = loc("/projects/kzhou6/hwu27/triton-beta-3-paper-solver-wt/third_party/tlx/tools/sched2tlx/examples/case4_FA_bwd/handwritten_nows.py":105:5)
#loc55 = loc("/projects/kzhou6/hwu27/triton-beta-3-paper-solver-wt/third_party/tlx/tools/sched2tlx/examples/case4_FA_bwd/handwritten_nows.py":106:33)
#loc56 = loc("/projects/kzhou6/hwu27/triton-beta-3-paper-solver-wt/third_party/tlx/tools/sched2tlx/examples/case4_FA_bwd/handwritten_nows.py":106:5)
#loc57 = loc("/projects/kzhou6/hwu27/triton-beta-3-paper-solver-wt/python/triton/language/standard.py":120:1)
#loc58 = loc("/projects/kzhou6/hwu27/triton-beta-3-paper-solver-wt/python/triton/language/standard.py":129:12)
#loc59 = loc("/projects/kzhou6/hwu27/triton-beta-3-paper-solver-wt/python/triton/language/standard.py":129:5)
#loc72 = loc("pid_n"(#loc1))
#loc73 = loc("off_hz"(#loc2))
#loc74 = loc("base"(#loc3))
#loc75 = loc("start_n"(#loc4))
#loc76 = loc("k_desc"(#loc5))
#loc77 = loc("k_desc"(#loc6))
#loc78 = loc("v_desc"(#loc7))
#loc79 = loc("v_desc"(#loc8))
#loc80 = loc("q_desc"(#loc9))
#loc81 = loc("q_desc"(#loc10))
#loc82 = loc("do_desc"(#loc11))
#loc83 = loc("do_desc"(#loc12))
#loc84 = loc("dq_desc"(#loc13))
#loc85 = loc("dq_desc"(#loc14))
#loc86 = loc("k"(#loc15))
#loc87 = loc("v"(#loc16))
#loc88 = loc("dk_acc"(#loc17))
#loc89 = loc("dv_acc"(#loc18))
#loc90 = loc("m_base"(#loc19))
#loc91 = loc("dk_acc"(#loc20))
#loc92 = loc("q"(#loc21))
#loc93 = loc("do"(#loc22))
#loc94 = loc("offs_m"(#loc23))
#loc95 = loc("offs_m"(#loc24))
#loc96 = loc("m"(#loc25))
#loc97 = loc("m"(#loc26))
#loc98 = loc("Di"(#loc27))
#loc99 = loc("Di"(#loc28))
#loc100 = loc("qkT"(#loc29))
#loc101 = loc("qkT"(#loc30))
#loc102 = loc("pT"(#loc31))
#loc103 = loc("pT"(#loc32))
#loc104 = loc("pT"(#loc33))
#loc105 = loc("ppT"(#loc34))
#loc106 = loc("dpT"(#loc35))
#loc107 = loc("dpT"(#loc36))
#loc108 = loc("dv_acc"(#loc37))
#loc109 = loc("dv_acc"(#loc38))
#loc110 = loc("dsT"(#loc39))
#loc111 = loc("dsT"(#loc40))
#loc112 = loc("dsT"(#loc41))
#loc113 = loc("dsT"(#loc42))
#loc114 = loc("dq_partial"(#loc43))
#loc115 = loc("dq_partial"(#loc44))
#loc116 = loc("dk_acc"(#loc47))
#loc117 = loc("dk_acc"(#loc48))
#loc118 = loc("dk_desc"(#loc49))
#loc119 = loc("dk_desc"(#loc50))
#loc120 = loc("dv_desc"(#loc51))
#loc121 = loc("dv_desc"(#loc52))
#loc122 = loc("dv_acc"(#loc91))


// -----// IR Dump Before InlinerPass: inline{default-pipeline=canonicalize inlining-threshold=4294967295 max-iterations=4 } ('builtin.module' operation) //----- //
#loc = loc("/projects/kzhou6/hwu27/triton-beta-3-paper-solver-wt/third_party/tlx/tools/sched2tlx/examples/case4_FA_bwd/handwritten_nows.py":31:1)
#loc60 = loc("Q"(#loc))
#loc61 = loc("K"(#loc))
#loc62 = loc("V"(#loc))
#loc63 = loc("dO"(#loc))
#loc64 = loc("dQ"(#loc))
#loc65 = loc("dK"(#loc))
#loc66 = loc("dV"(#loc))
#loc67 = loc("M"(#loc))
#loc68 = loc("D"(#loc))
#loc69 = loc("stride_m"(#loc))
#loc70 = loc("stride_n"(#loc))
#loc71 = loc("N_CTX"(#loc))
module {
  tt.func public @fa_bwd_dkdv_5mma(%Q: !tt.ptr<f16> {tt.divisibility = 16 : i32} loc("Q"(#loc)), %K: !tt.ptr<f16> {tt.divisibility = 16 : i32} loc("K"(#loc)), %V: !tt.ptr<f16> {tt.divisibility = 16 : i32} loc("V"(#loc)), %dO: !tt.ptr<f16> {tt.divisibility = 16 : i32} loc("dO"(#loc)), %dQ: !tt.ptr<f16> {tt.divisibility = 16 : i32} loc("dQ"(#loc)), %dK: !tt.ptr<f16> {tt.divisibility = 16 : i32} loc("dK"(#loc)), %dV: !tt.ptr<f16> {tt.divisibility = 16 : i32} loc("dV"(#loc)), %M: !tt.ptr<f32> {tt.divisibility = 16 : i32} loc("M"(#loc)), %D: !tt.ptr<f32> {tt.divisibility = 16 : i32} loc("D"(#loc)), %stride_m: i32 {tt.divisibility = 16 : i32} loc("stride_m"(#loc)), %stride_n: i32 {tt.divisibility = 16 : i32} loc("stride_n"(#loc)), %N_CTX: i32 {tt.divisibility = 16 : i32} loc("N_CTX"(#loc))) attributes {noinline = false} {
    %pid_n = tt.get_program_id x : i32 loc(#loc72)
    %off_hz = tt.get_program_id y : i32 loc(#loc73)
    %base = arith.muli %off_hz, %N_CTX : i32 loc(#loc74)
    %base_0 = arith.constant 128 : i32 loc(#loc74)
    %base_1 = arith.constant 128 : i32 loc(#loc74)
    %base_2 = arith.muli %base, %base_1 : i32 loc(#loc74)
    %start_n = arith.constant 128 : i32 loc(#loc75)
    %start_n_3 = arith.constant 128 : i32 loc(#loc75)
    %start_n_4 = arith.muli %pid_n, %start_n_3 : i32 loc(#loc75)
    %k_desc = tt.addptr %K, %base_2 : !tt.ptr<f16>, i32 loc(#loc76)
    %k_desc_5 = arith.constant 128 : i32 loc(#loc77)
    %k_desc_6 = arith.extsi %stride_n : i32 to i64 loc(#loc77)
    %k_desc_7 = arith.constant 1 : i64 loc(#loc77)
    %k_desc_8 = tt.make_tensor_descriptor %k_desc, [%N_CTX, %k_desc_5], [%k_desc_6, %k_desc_7] : !tt.ptr<f16>, !tt.tensordesc<128x128xf16> loc(#loc77)
    %v_desc = tt.addptr %V, %base_2 : !tt.ptr<f16>, i32 loc(#loc78)
    %v_desc_9 = arith.constant 128 : i32 loc(#loc79)
    %v_desc_10 = arith.extsi %stride_n : i32 to i64 loc(#loc79)
    %v_desc_11 = arith.constant 1 : i64 loc(#loc79)
    %v_desc_12 = tt.make_tensor_descriptor %v_desc, [%N_CTX, %v_desc_9], [%v_desc_10, %v_desc_11] : !tt.ptr<f16>, !tt.tensordesc<128x128xf16> loc(#loc79)
    %q_desc = tt.addptr %Q, %base_2 : !tt.ptr<f16>, i32 loc(#loc80)
    %q_desc_13 = arith.constant 128 : i32 loc(#loc81)
    %q_desc_14 = arith.extsi %stride_m : i32 to i64 loc(#loc81)
    %q_desc_15 = arith.constant 1 : i64 loc(#loc81)
    %q_desc_16 = tt.make_tensor_descriptor %q_desc, [%N_CTX, %q_desc_13], [%q_desc_14, %q_desc_15] : !tt.ptr<f16>, !tt.tensordesc<64x128xf16> loc(#loc81)
    %do_desc = tt.addptr %dO, %base_2 : !tt.ptr<f16>, i32 loc(#loc82)
    %do_desc_17 = arith.constant 128 : i32 loc(#loc83)
    %do_desc_18 = arith.extsi %stride_m : i32 to i64 loc(#loc83)
    %do_desc_19 = arith.constant 1 : i64 loc(#loc83)
    %do_desc_20 = tt.make_tensor_descriptor %do_desc, [%N_CTX, %do_desc_17], [%do_desc_18, %do_desc_19] : !tt.ptr<f16>, !tt.tensordesc<64x128xf16> loc(#loc83)
    %dq_desc = tt.addptr %dQ, %base_2 : !tt.ptr<f16>, i32 loc(#loc84)
    %dq_desc_21 = arith.constant 128 : i32 loc(#loc85)
    %dq_desc_22 = arith.extsi %stride_m : i32 to i64 loc(#loc85)
    %dq_desc_23 = arith.constant 1 : i64 loc(#loc85)
    %dq_desc_24 = tt.make_tensor_descriptor %dq_desc, [%N_CTX, %dq_desc_21], [%dq_desc_22, %dq_desc_23] : !tt.ptr<f16>, !tt.tensordesc<64x128xf16> loc(#loc85)
    %k = arith.constant 0 : i32 loc(#loc86)
    %k_25 = tt.descriptor_load %k_desc_8[%start_n_4, %k] : !tt.tensordesc<128x128xf16> -> tensor<128x128xf16> loc(#loc86)
    %v = arith.constant 0 : i32 loc(#loc87)
    %v_26 = tt.descriptor_load %v_desc_12[%start_n_4, %v] : !tt.tensordesc<128x128xf16> -> tensor<128x128xf16> loc(#loc87)
    %dk_acc = tt.call @"triton.language.standard.zeros____(0, 0)cconstexpr_128__(0, 1)cconstexpr_128__(1,)cconstexpr_fp32_"() : () -> tensor<128x128xf32> loc(#loc88)
    %dv_acc = tt.call @"triton.language.standard.zeros____(0, 0)cconstexpr_128__(0, 1)cconstexpr_128__(1,)cconstexpr_fp32_"() : () -> tensor<128x128xf32> loc(#loc89)
    %m_base = arith.muli %off_hz, %N_CTX : i32 loc(#loc90)
    %c0_i32 = arith.constant 0 : i32 loc(#loc20)
    %c64_i32 = arith.constant 64 : i32 loc(#loc20)
    %0 = arith.bitcast %c0_i32 : i32 to i32 loc(#loc20)
    %1 = arith.bitcast %N_CTX : i32 to i32 loc(#loc20)
    %2 = arith.bitcast %c64_i32 : i32 to i32 loc(#loc20)
    %3 = ub.poison : i32 loc(#loc20)
    %dv_acc_27:2 = scf.for %start_m = %0 to %1 step %2 iter_args(%dk_acc_38 = %dk_acc, %dv_acc_39 = %dv_acc) -> (tensor<128x128xf32>, tensor<128x128xf32>)  : i32 {
      %q = arith.constant 0 : i32 loc(#loc92)
      %q_40 = tt.descriptor_load %q_desc_16[%start_m, %q] : !tt.tensordesc<64x128xf16> -> tensor<64x128xf16> loc(#loc92)
      %do = arith.constant 0 : i32 loc(#loc93)
      %do_41 = tt.descriptor_load %do_desc_20[%start_m, %do] : !tt.tensordesc<64x128xf16> -> tensor<64x128xf16> loc(#loc93)
      %offs_m = tt.make_range {end = 64 : i32, start = 0 : i32} : tensor<64xi32> loc(#loc94)
      %offs_m_42 = tt.splat %start_m : i32 -> tensor<64xi32> loc(#loc95)
      %offs_m_43 = arith.addi %offs_m_42, %offs_m : tensor<64xi32> loc(#loc95)
      %m = tt.addptr %M, %m_base : !tt.ptr<f32>, i32 loc(#loc96)
      %m_44 = tt.splat %m : !tt.ptr<f32> -> tensor<64x!tt.ptr<f32>> loc(#loc96)
      %m_45 = tt.addptr %m_44, %offs_m_43 : tensor<64x!tt.ptr<f32>>, tensor<64xi32> loc(#loc96)
      %m_46 = tt.load %m_45 : tensor<64x!tt.ptr<f32>> loc(#loc97)
      %Di = tt.addptr %D, %m_base : !tt.ptr<f32>, i32 loc(#loc98)
      %Di_47 = tt.splat %Di : !tt.ptr<f32> -> tensor<64x!tt.ptr<f32>> loc(#loc98)
      %Di_48 = tt.addptr %Di_47, %offs_m_43 : tensor<64x!tt.ptr<f32>>, tensor<64xi32> loc(#loc98)
      %Di_49 = tt.load %Di_48 : tensor<64x!tt.ptr<f32>> loc(#loc99)
      %qkT = tt.trans %q_40 {order = array<i32: 1, 0>} : tensor<64x128xf16> -> tensor<128x64xf16> loc(#loc100)
      %qkT_50 = arith.constant 0.000000e+00 : f32 loc(#loc101)
      %qkT_51 = arith.constant dense<0.000000e+00> : tensor<128x64xf32> loc(#loc101)
      %qkT_52 = tt.dot %k_25, %qkT, %qkT_51, inputPrecision = tf32 : tensor<128x128xf16> * tensor<128x64xf16> -> tensor<128x64xf32> loc(#loc101)
      %pT = arith.constant 1.44269502 : f32 loc(#loc102)
      %pT_53 = arith.constant 1.44269502 : f32 loc(#loc102)
      %pT_54 = arith.constant dense<1.44269502> : tensor<128x64xf32> loc(#loc102)
      %pT_55 = arith.mulf %qkT_52, %pT_54 : tensor<128x64xf32> loc(#loc102)
      %pT_56 = tt.expand_dims %m_46 {axis = 0 : i32} : tensor<64xf32> -> tensor<1x64xf32> loc(#loc103)
      %pT_57 = tt.broadcast %pT_56 : tensor<1x64xf32> -> tensor<128x64xf32> loc(#loc102)
      %pT_58 = arith.subf %pT_55, %pT_57 : tensor<128x64xf32> loc(#loc102)
      %pT_59 = math.exp2 %pT_58 : tensor<128x64xf32> loc(#loc104)
      %ppT = arith.truncf %pT_59 : tensor<128x64xf32> to tensor<128x64xf16> loc(#loc105)
      %dpT = tt.trans %do_41 {order = array<i32: 1, 0>} : tensor<64x128xf16> -> tensor<128x64xf16> loc(#loc106)
      %dpT_60 = arith.constant 0.000000e+00 : f32 loc(#loc107)
      %dpT_61 = arith.constant dense<0.000000e+00> : tensor<128x64xf32> loc(#loc107)
      %dpT_62 = tt.dot %v_26, %dpT, %dpT_61, inputPrecision = tf32 : tensor<128x128xf16> * tensor<128x64xf16> -> tensor<128x64xf32> loc(#loc107)
      %dv_acc_63 = arith.constant 0.000000e+00 : f32 loc(#loc108)
      %dv_acc_64 = arith.constant dense<0.000000e+00> : tensor<128x128xf32> loc(#loc108)
      %dv_acc_65 = tt.dot %ppT, %do_41, %dv_acc_64, inputPrecision = tf32 : tensor<128x64xf16> * tensor<64x128xf16> -> tensor<128x128xf32> loc(#loc108)
      %dv_acc_66 = arith.addf %dv_acc_39, %dv_acc_65 : tensor<128x128xf32> loc(#loc109)
      %dsT = tt.expand_dims %Di_49 {axis = 0 : i32} : tensor<64xf32> -> tensor<1x64xf32> loc(#loc110)
      %dsT_67 = tt.broadcast %dsT : tensor<1x64xf32> -> tensor<128x64xf32> loc(#loc111)
      %dsT_68 = arith.subf %dpT_62, %dsT_67 : tensor<128x64xf32> loc(#loc111)
      %dsT_69 = arith.mulf %pT_59, %dsT_68 : tensor<128x64xf32> loc(#loc112)
      %dsT_70 = arith.truncf %dsT_69 : tensor<128x64xf32> to tensor<128x64xf16> loc(#loc113)
      %dq_partial = tt.trans %dsT_70 {order = array<i32: 1, 0>} : tensor<128x64xf16> -> tensor<64x128xf16> loc(#loc114)
      %dq_partial_71 = arith.constant 0.000000e+00 : f32 loc(#loc115)
      %dq_partial_72 = arith.constant dense<0.000000e+00> : tensor<64x128xf32> loc(#loc115)
      %dq_partial_73 = tt.dot %dq_partial, %k_25, %dq_partial_72, inputPrecision = tf32 : tensor<64x128xf16> * tensor<128x128xf16> -> tensor<64x128xf32> loc(#loc115)
      %6 = arith.truncf %dq_partial_73 : tensor<64x128xf32> to tensor<64x128xf16> loc(#loc45)
      %c0_i32_74 = arith.constant 0 : i32 loc(#loc46)
      tt.descriptor_reduce add, %dq_desc_24[%start_m, %c0_i32_74], %6 : !tt.tensordesc<64x128xf16>, tensor<64x128xf16> loc(#loc46)
      %dk_acc_75 = arith.constant 0.000000e+00 : f32 loc(#loc116)
      %dk_acc_76 = arith.constant dense<0.000000e+00> : tensor<128x128xf32> loc(#loc116)
      %dk_acc_77 = tt.dot %dsT_70, %q_40, %dk_acc_76, inputPrecision = tf32 : tensor<128x64xf16> * tensor<64x128xf16> -> tensor<128x128xf32> loc(#loc116)
      %dk_acc_78 = arith.addf %dk_acc_38, %dk_acc_77 : tensor<128x128xf32> loc(#loc117)
      scf.yield %dk_acc_78, %dv_acc_66 : tensor<128x128xf32>, tensor<128x128xf32> loc(#loc20)
    } {tt.warp_specialize} loc(#loc122)
    %dk_desc = tt.addptr %dK, %base_2 : !tt.ptr<f16>, i32 loc(#loc118)
    %dk_desc_28 = arith.constant 128 : i32 loc(#loc119)
    %dk_desc_29 = arith.extsi %stride_n : i32 to i64 loc(#loc119)
    %dk_desc_30 = arith.constant 1 : i64 loc(#loc119)
    %dk_desc_31 = tt.make_tensor_descriptor %dk_desc, [%N_CTX, %dk_desc_28], [%dk_desc_29, %dk_desc_30] : !tt.ptr<f16>, !tt.tensordesc<128x128xf16> loc(#loc119)
    %dv_desc = tt.addptr %dV, %base_2 : !tt.ptr<f16>, i32 loc(#loc120)
    %dv_desc_32 = arith.constant 128 : i32 loc(#loc121)
    %dv_desc_33 = arith.extsi %stride_n : i32 to i64 loc(#loc121)
    %dv_desc_34 = arith.constant 1 : i64 loc(#loc121)
    %dv_desc_35 = tt.make_tensor_descriptor %dv_desc, [%N_CTX, %dv_desc_32], [%dv_desc_33, %dv_desc_34] : !tt.ptr<f16>, !tt.tensordesc<128x128xf16> loc(#loc121)
    %4 = arith.truncf %dv_acc_27#0 : tensor<128x128xf32> to tensor<128x128xf16> loc(#loc53)
    %c0_i32_36 = arith.constant 0 : i32 loc(#loc54)
    tt.descriptor_store %dk_desc_31[%start_n_4, %c0_i32_36], %4 : !tt.tensordesc<128x128xf16>, tensor<128x128xf16> loc(#loc54)
    %5 = arith.truncf %dv_acc_27#1 : tensor<128x128xf32> to tensor<128x128xf16> loc(#loc55)
    %c0_i32_37 = arith.constant 0 : i32 loc(#loc56)
    tt.descriptor_store %dv_desc_35[%start_n_4, %c0_i32_37], %5 : !tt.tensordesc<128x128xf16>, tensor<128x128xf16> loc(#loc56)
    tt.return loc(#loc)
  } loc(#loc)
  tt.func private @"triton.language.standard.zeros____(0, 0)cconstexpr_128__(0, 1)cconstexpr_128__(1,)cconstexpr_fp32_"() -> tensor<128x128xf32> attributes {noinline = false} {
    %cst = arith.constant 0.000000e+00 : f32 loc(#loc58)
    %cst_0 = arith.constant dense<0.000000e+00> : tensor<128x128xf32> loc(#loc58)
    tt.return %cst_0 : tensor<128x128xf32> loc(#loc59)
  ^bb1:  // no predecessors
    %0 = ub.poison : tensor<128x128xf32> loc(#loc57)
    tt.return %0 : tensor<128x128xf32> loc(#loc57)
  } loc(#loc57)
} loc(#loc)
#loc1 = loc("/projects/kzhou6/hwu27/triton-beta-3-paper-solver-wt/third_party/tlx/tools/sched2tlx/examples/case4_FA_bwd/handwritten_nows.py":49:13)
#loc2 = loc("/projects/kzhou6/hwu27/triton-beta-3-paper-solver-wt/third_party/tlx/tools/sched2tlx/examples/case4_FA_bwd/handwritten_nows.py":50:14)
#loc3 = loc("/projects/kzhou6/hwu27/triton-beta-3-paper-solver-wt/third_party/tlx/tools/sched2tlx/examples/case4_FA_bwd/handwritten_nows.py":52:12)
#loc4 = loc("/projects/kzhou6/hwu27/triton-beta-3-paper-solver-wt/third_party/tlx/tools/sched2tlx/examples/case4_FA_bwd/handwritten_nows.py":53:15)
#loc5 = loc("/projects/kzhou6/hwu27/triton-beta-3-paper-solver-wt/third_party/tlx/tools/sched2tlx/examples/case4_FA_bwd/handwritten_nows.py":56:9)
#loc6 = loc("/projects/kzhou6/hwu27/triton-beta-3-paper-solver-wt/third_party/tlx/tools/sched2tlx/examples/case4_FA_bwd/handwritten_nows.py":55:14)
#loc7 = loc("/projects/kzhou6/hwu27/triton-beta-3-paper-solver-wt/third_party/tlx/tools/sched2tlx/examples/case4_FA_bwd/handwritten_nows.py":59:9)
#loc8 = loc("/projects/kzhou6/hwu27/triton-beta-3-paper-solver-wt/third_party/tlx/tools/sched2tlx/examples/case4_FA_bwd/handwritten_nows.py":58:14)
#loc9 = loc("/projects/kzhou6/hwu27/triton-beta-3-paper-solver-wt/third_party/tlx/tools/sched2tlx/examples/case4_FA_bwd/handwritten_nows.py":62:9)
#loc10 = loc("/projects/kzhou6/hwu27/triton-beta-3-paper-solver-wt/third_party/tlx/tools/sched2tlx/examples/case4_FA_bwd/handwritten_nows.py":61:14)
#loc11 = loc("/projects/kzhou6/hwu27/triton-beta-3-paper-solver-wt/third_party/tlx/tools/sched2tlx/examples/case4_FA_bwd/handwritten_nows.py":65:9)
#loc12 = loc("/projects/kzhou6/hwu27/triton-beta-3-paper-solver-wt/third_party/tlx/tools/sched2tlx/examples/case4_FA_bwd/handwritten_nows.py":64:15)
#loc13 = loc("/projects/kzhou6/hwu27/triton-beta-3-paper-solver-wt/third_party/tlx/tools/sched2tlx/examples/case4_FA_bwd/handwritten_nows.py":68:9)
#loc14 = loc("/projects/kzhou6/hwu27/triton-beta-3-paper-solver-wt/third_party/tlx/tools/sched2tlx/examples/case4_FA_bwd/handwritten_nows.py":67:15)
#loc15 = loc("/projects/kzhou6/hwu27/triton-beta-3-paper-solver-wt/third_party/tlx/tools/sched2tlx/examples/case4_FA_bwd/handwritten_nows.py":71:9)
#loc16 = loc("/projects/kzhou6/hwu27/triton-beta-3-paper-solver-wt/third_party/tlx/tools/sched2tlx/examples/case4_FA_bwd/handwritten_nows.py":72:9)
#loc17 = loc("/projects/kzhou6/hwu27/triton-beta-3-paper-solver-wt/third_party/tlx/tools/sched2tlx/examples/case4_FA_bwd/handwritten_nows.py":74:14)
#loc18 = loc("/projects/kzhou6/hwu27/triton-beta-3-paper-solver-wt/third_party/tlx/tools/sched2tlx/examples/case4_FA_bwd/handwritten_nows.py":75:14)
#loc19 = loc("/projects/kzhou6/hwu27/triton-beta-3-paper-solver-wt/third_party/tlx/tools/sched2tlx/examples/case4_FA_bwd/handwritten_nows.py":77:14)
#loc20 = loc("/projects/kzhou6/hwu27/triton-beta-3-paper-solver-wt/third_party/tlx/tools/sched2tlx/examples/case4_FA_bwd/handwritten_nows.py":79:5)
#loc21 = loc("/projects/kzhou6/hwu27/triton-beta-3-paper-solver-wt/third_party/tlx/tools/sched2tlx/examples/case4_FA_bwd/handwritten_nows.py":80:13)
#loc22 = loc("/projects/kzhou6/hwu27/triton-beta-3-paper-solver-wt/third_party/tlx/tools/sched2tlx/examples/case4_FA_bwd/handwritten_nows.py":81:14)
#loc23 = loc("/projects/kzhou6/hwu27/triton-beta-3-paper-solver-wt/third_party/tlx/tools/sched2tlx/examples/case4_FA_bwd/handwritten_nows.py":83:28)
#loc24 = loc("/projects/kzhou6/hwu27/triton-beta-3-paper-solver-wt/third_party/tlx/tools/sched2tlx/examples/case4_FA_bwd/handwritten_nows.py":83:18)
#loc25 = loc("/projects/kzhou6/hwu27/triton-beta-3-paper-solver-wt/third_party/tlx/tools/sched2tlx/examples/case4_FA_bwd/handwritten_nows.py":84:21)
#loc26 = loc("/projects/kzhou6/hwu27/triton-beta-3-paper-solver-wt/third_party/tlx/tools/sched2tlx/examples/case4_FA_bwd/handwritten_nows.py":84:13)
#loc27 = loc("/projects/kzhou6/hwu27/triton-beta-3-paper-solver-wt/third_party/tlx/tools/sched2tlx/examples/case4_FA_bwd/handwritten_nows.py":85:22)
#loc28 = loc("/projects/kzhou6/hwu27/triton-beta-3-paper-solver-wt/third_party/tlx/tools/sched2tlx/examples/case4_FA_bwd/handwritten_nows.py":85:14)
#loc29 = loc("/projects/kzhou6/hwu27/triton-beta-3-paper-solver-wt/third_party/tlx/tools/sched2tlx/examples/case4_FA_bwd/handwritten_nows.py":87:25)
#loc30 = loc("/projects/kzhou6/hwu27/triton-beta-3-paper-solver-wt/third_party/tlx/tools/sched2tlx/examples/case4_FA_bwd/handwritten_nows.py":87:15)
#loc31 = loc("/projects/kzhou6/hwu27/triton-beta-3-paper-solver-wt/third_party/tlx/tools/sched2tlx/examples/case4_FA_bwd/handwritten_nows.py":90:27)
#loc32 = loc("/projects/kzhou6/hwu27/triton-beta-3-paper-solver-wt/third_party/tlx/tools/sched2tlx/examples/case4_FA_bwd/handwritten_nows.py":90:54)
#loc33 = loc("/projects/kzhou6/hwu27/triton-beta-3-paper-solver-wt/third_party/tlx/tools/sched2tlx/examples/case4_FA_bwd/handwritten_nows.py":90:14)
#loc34 = loc("/projects/kzhou6/hwu27/triton-beta-3-paper-solver-wt/third_party/tlx/tools/sched2tlx/examples/case4_FA_bwd/handwritten_nows.py":91:15)
#loc35 = loc("/projects/kzhou6/hwu27/triton-beta-3-paper-solver-wt/third_party/tlx/tools/sched2tlx/examples/case4_FA_bwd/handwritten_nows.py":92:25)
#loc36 = loc("/projects/kzhou6/hwu27/triton-beta-3-paper-solver-wt/third_party/tlx/tools/sched2tlx/examples/case4_FA_bwd/handwritten_nows.py":92:15)
#loc37 = loc("/projects/kzhou6/hwu27/triton-beta-3-paper-solver-wt/third_party/tlx/tools/sched2tlx/examples/case4_FA_bwd/handwritten_nows.py":93:19)
#loc38 = loc("/projects/kzhou6/hwu27/triton-beta-3-paper-solver-wt/third_party/tlx/tools/sched2tlx/examples/case4_FA_bwd/handwritten_nows.py":93:9)
#loc39 = loc("/projects/kzhou6/hwu27/triton-beta-3-paper-solver-wt/third_party/tlx/tools/sched2tlx/examples/case4_FA_bwd/handwritten_nows.py":94:28)
#loc40 = loc("/projects/kzhou6/hwu27/triton-beta-3-paper-solver-wt/third_party/tlx/tools/sched2tlx/examples/case4_FA_bwd/handwritten_nows.py":94:22)
#loc41 = loc("/projects/kzhou6/hwu27/triton-beta-3-paper-solver-wt/third_party/tlx/tools/sched2tlx/examples/case4_FA_bwd/handwritten_nows.py":94:16)
#loc42 = loc("/projects/kzhou6/hwu27/triton-beta-3-paper-solver-wt/third_party/tlx/tools/sched2tlx/examples/case4_FA_bwd/handwritten_nows.py":94:15)
#loc43 = loc("/projects/kzhou6/hwu27/triton-beta-3-paper-solver-wt/third_party/tlx/tools/sched2tlx/examples/case4_FA_bwd/handwritten_nows.py":95:29)
#loc44 = loc("/projects/kzhou6/hwu27/triton-beta-3-paper-solver-wt/third_party/tlx/tools/sched2tlx/examples/case4_FA_bwd/handwritten_nows.py":95:22)
#loc45 = loc("/projects/kzhou6/hwu27/triton-beta-3-paper-solver-wt/third_party/tlx/tools/sched2tlx/examples/case4_FA_bwd/handwritten_nows.py":96:42)
#loc46 = loc("/projects/kzhou6/hwu27/triton-beta-3-paper-solver-wt/third_party/tlx/tools/sched2tlx/examples/case4_FA_bwd/handwritten_nows.py":96:9)
#loc47 = loc("/projects/kzhou6/hwu27/triton-beta-3-paper-solver-wt/third_party/tlx/tools/sched2tlx/examples/case4_FA_bwd/handwritten_nows.py":97:19)
#loc48 = loc("/projects/kzhou6/hwu27/triton-beta-3-paper-solver-wt/third_party/tlx/tools/sched2tlx/examples/case4_FA_bwd/handwritten_nows.py":97:9)
#loc49 = loc("/projects/kzhou6/hwu27/triton-beta-3-paper-solver-wt/third_party/tlx/tools/sched2tlx/examples/case4_FA_bwd/handwritten_nows.py":100:9)
#loc50 = loc("/projects/kzhou6/hwu27/triton-beta-3-paper-solver-wt/third_party/tlx/tools/sched2tlx/examples/case4_FA_bwd/handwritten_nows.py":99:15)
#loc51 = loc("/projects/kzhou6/hwu27/triton-beta-3-paper-solver-wt/third_party/tlx/tools/sched2tlx/examples/case4_FA_bwd/handwritten_nows.py":103:9)
#loc52 = loc("/projects/kzhou6/hwu27/triton-beta-3-paper-solver-wt/third_party/tlx/tools/sched2tlx/examples/case4_FA_bwd/handwritten_nows.py":102:15)
#loc53 = loc("/projects/kzhou6/hwu27/triton-beta-3-paper-solver-wt/third_party/tlx/tools/sched2tlx/examples/case4_FA_bwd/handwritten_nows.py":105:33)
#loc54 = loc("/projects/kzhou6/hwu27/triton-beta-3-paper-solver-wt/third_party/tlx/tools/sched2tlx/examples/case4_FA_bwd/handwritten_nows.py":105:5)
#loc55 = loc("/projects/kzhou6/hwu27/triton-beta-3-paper-solver-wt/third_party/tlx/tools/sched2tlx/examples/case4_FA_bwd/handwritten_nows.py":106:33)
#loc56 = loc("/projects/kzhou6/hwu27/triton-beta-3-paper-solver-wt/third_party/tlx/tools/sched2tlx/examples/case4_FA_bwd/handwritten_nows.py":106:5)
#loc57 = loc("/projects/kzhou6/hwu27/triton-beta-3-paper-solver-wt/python/triton/language/standard.py":120:1)
#loc58 = loc("/projects/kzhou6/hwu27/triton-beta-3-paper-solver-wt/python/triton/language/standard.py":129:12)
#loc59 = loc("/projects/kzhou6/hwu27/triton-beta-3-paper-solver-wt/python/triton/language/standard.py":129:5)
#loc72 = loc("pid_n"(#loc1))
#loc73 = loc("off_hz"(#loc2))
#loc74 = loc("base"(#loc3))
#loc75 = loc("start_n"(#loc4))
#loc76 = loc("k_desc"(#loc5))
#loc77 = loc("k_desc"(#loc6))
#loc78 = loc("v_desc"(#loc7))
#loc79 = loc("v_desc"(#loc8))
#loc80 = loc("q_desc"(#loc9))
#loc81 = loc("q_desc"(#loc10))
#loc82 = loc("do_desc"(#loc11))
#loc83 = loc("do_desc"(#loc12))
#loc84 = loc("dq_desc"(#loc13))
#loc85 = loc("dq_desc"(#loc14))
#loc86 = loc("k"(#loc15))
#loc87 = loc("v"(#loc16))
#loc88 = loc("dk_acc"(#loc17))
#loc89 = loc("dv_acc"(#loc18))
#loc90 = loc("m_base"(#loc19))
#loc91 = loc("dk_acc"(#loc20))
#loc92 = loc("q"(#loc21))
#loc93 = loc("do"(#loc22))
#loc94 = loc("offs_m"(#loc23))
#loc95 = loc("offs_m"(#loc24))
#loc96 = loc("m"(#loc25))
#loc97 = loc("m"(#loc26))
#loc98 = loc("Di"(#loc27))
#loc99 = loc("Di"(#loc28))
#loc100 = loc("qkT"(#loc29))
#loc101 = loc("qkT"(#loc30))
#loc102 = loc("pT"(#loc31))
#loc103 = loc("pT"(#loc32))
#loc104 = loc("pT"(#loc33))
#loc105 = loc("ppT"(#loc34))
#loc106 = loc("dpT"(#loc35))
#loc107 = loc("dpT"(#loc36))
#loc108 = loc("dv_acc"(#loc37))
#loc109 = loc("dv_acc"(#loc38))
#loc110 = loc("dsT"(#loc39))
#loc111 = loc("dsT"(#loc40))
#loc112 = loc("dsT"(#loc41))
#loc113 = loc("dsT"(#loc42))
#loc114 = loc("dq_partial"(#loc43))
#loc115 = loc("dq_partial"(#loc44))
#loc116 = loc("dk_acc"(#loc47))
#loc117 = loc("dk_acc"(#loc48))
#loc118 = loc("dk_desc"(#loc49))
#loc119 = loc("dk_desc"(#loc50))
#loc120 = loc("dv_desc"(#loc51))
#loc121 = loc("dv_desc"(#loc52))
#loc122 = loc("dv_acc"(#loc91))


// -----// IR Dump Before CanonicalizerPass: canonicalize{cse-between-iterations=false    max-iterations=10 max-num-rewrites=-1 region-simplify=normal test-convergence=false top-down=true} ('tt.func' operation: @fa_bwd_dkdv_5mma) //----- //
#loc = loc("/projects/kzhou6/hwu27/triton-beta-3-paper-solver-wt/third_party/tlx/tools/sched2tlx/examples/case4_FA_bwd/handwritten_nows.py":31:1)
#loc60 = loc("Q"(#loc))
#loc61 = loc("K"(#loc))
#loc62 = loc("V"(#loc))
#loc63 = loc("dO"(#loc))
#loc64 = loc("dQ"(#loc))
#loc65 = loc("dK"(#loc))
#loc66 = loc("dV"(#loc))
#loc67 = loc("M"(#loc))
#loc68 = loc("D"(#loc))
#loc69 = loc("stride_m"(#loc))
#loc70 = loc("stride_n"(#loc))
#loc71 = loc("N_CTX"(#loc))
module {
  tt.func public @fa_bwd_dkdv_5mma(%Q: !tt.ptr<f16> {tt.divisibility = 16 : i32} loc("Q"(#loc)), %K: !tt.ptr<f16> {tt.divisibility = 16 : i32} loc("K"(#loc)), %V: !tt.ptr<f16> {tt.divisibility = 16 : i32} loc("V"(#loc)), %dO: !tt.ptr<f16> {tt.divisibility = 16 : i32} loc("dO"(#loc)), %dQ: !tt.ptr<f16> {tt.divisibility = 16 : i32} loc("dQ"(#loc)), %dK: !tt.ptr<f16> {tt.divisibility = 16 : i32} loc("dK"(#loc)), %dV: !tt.ptr<f16> {tt.divisibility = 16 : i32} loc("dV"(#loc)), %M: !tt.ptr<f32> {tt.divisibility = 16 : i32} loc("M"(#loc)), %D: !tt.ptr<f32> {tt.divisibility = 16 : i32} loc("D"(#loc)), %stride_m: i32 {tt.divisibility = 16 : i32} loc("stride_m"(#loc)), %stride_n: i32 {tt.divisibility = 16 : i32} loc("stride_n"(#loc)), %N_CTX: i32 {tt.divisibility = 16 : i32} loc("N_CTX"(#loc))) attributes {noinline = false} {
    %pid_n = tt.get_program_id x : i32 loc(#loc72)
    %off_hz = tt.get_program_id y : i32 loc(#loc73)
    %base = arith.muli %off_hz, %N_CTX : i32 loc(#loc74)
    %base_0 = arith.constant 128 : i32 loc(#loc74)
    %base_1 = arith.constant 128 : i32 loc(#loc74)
    %base_2 = arith.muli %base, %base_1 : i32 loc(#loc74)
    %start_n = arith.constant 128 : i32 loc(#loc75)
    %start_n_3 = arith.constant 128 : i32 loc(#loc75)
    %start_n_4 = arith.muli %pid_n, %start_n_3 : i32 loc(#loc75)
    %k_desc = tt.addptr %K, %base_2 : !tt.ptr<f16>, i32 loc(#loc76)
    %k_desc_5 = arith.constant 128 : i32 loc(#loc77)
    %k_desc_6 = arith.extsi %stride_n : i32 to i64 loc(#loc77)
    %k_desc_7 = arith.constant 1 : i64 loc(#loc77)
    %k_desc_8 = tt.make_tensor_descriptor %k_desc, [%N_CTX, %k_desc_5], [%k_desc_6, %k_desc_7] : !tt.ptr<f16>, !tt.tensordesc<128x128xf16> loc(#loc77)
    %v_desc = tt.addptr %V, %base_2 : !tt.ptr<f16>, i32 loc(#loc78)
    %v_desc_9 = arith.constant 128 : i32 loc(#loc79)
    %v_desc_10 = arith.extsi %stride_n : i32 to i64 loc(#loc79)
    %v_desc_11 = arith.constant 1 : i64 loc(#loc79)
    %v_desc_12 = tt.make_tensor_descriptor %v_desc, [%N_CTX, %v_desc_9], [%v_desc_10, %v_desc_11] : !tt.ptr<f16>, !tt.tensordesc<128x128xf16> loc(#loc79)
    %q_desc = tt.addptr %Q, %base_2 : !tt.ptr<f16>, i32 loc(#loc80)
    %q_desc_13 = arith.constant 128 : i32 loc(#loc81)
    %q_desc_14 = arith.extsi %stride_m : i32 to i64 loc(#loc81)
    %q_desc_15 = arith.constant 1 : i64 loc(#loc81)
    %q_desc_16 = tt.make_tensor_descriptor %q_desc, [%N_CTX, %q_desc_13], [%q_desc_14, %q_desc_15] : !tt.ptr<f16>, !tt.tensordesc<64x128xf16> loc(#loc81)
    %do_desc = tt.addptr %dO, %base_2 : !tt.ptr<f16>, i32 loc(#loc82)
    %do_desc_17 = arith.constant 128 : i32 loc(#loc83)
    %do_desc_18 = arith.extsi %stride_m : i32 to i64 loc(#loc83)
    %do_desc_19 = arith.constant 1 : i64 loc(#loc83)
    %do_desc_20 = tt.make_tensor_descriptor %do_desc, [%N_CTX, %do_desc_17], [%do_desc_18, %do_desc_19] : !tt.ptr<f16>, !tt.tensordesc<64x128xf16> loc(#loc83)
    %dq_desc = tt.addptr %dQ, %base_2 : !tt.ptr<f16>, i32 loc(#loc84)
    %dq_desc_21 = arith.constant 128 : i32 loc(#loc85)
    %dq_desc_22 = arith.extsi %stride_m : i32 to i64 loc(#loc85)
    %dq_desc_23 = arith.constant 1 : i64 loc(#loc85)
    %dq_desc_24 = tt.make_tensor_descriptor %dq_desc, [%N_CTX, %dq_desc_21], [%dq_desc_22, %dq_desc_23] : !tt.ptr<f16>, !tt.tensordesc<64x128xf16> loc(#loc85)
    %k = arith.constant 0 : i32 loc(#loc86)
    %k_25 = tt.descriptor_load %k_desc_8[%start_n_4, %k] : !tt.tensordesc<128x128xf16> -> tensor<128x128xf16> loc(#loc86)
    %v = arith.constant 0 : i32 loc(#loc87)
    %v_26 = tt.descriptor_load %v_desc_12[%start_n_4, %v] : !tt.tensordesc<128x128xf16> -> tensor<128x128xf16> loc(#loc87)
    %dk_acc = tt.call @"triton.language.standard.zeros____(0, 0)cconstexpr_128__(0, 1)cconstexpr_128__(1,)cconstexpr_fp32_"() : () -> tensor<128x128xf32> loc(#loc88)
    %dv_acc = tt.call @"triton.language.standard.zeros____(0, 0)cconstexpr_128__(0, 1)cconstexpr_128__(1,)cconstexpr_fp32_"() : () -> tensor<128x128xf32> loc(#loc89)
    %m_base = arith.muli %off_hz, %N_CTX : i32 loc(#loc90)
    %c0_i32 = arith.constant 0 : i32 loc(#loc20)
    %c64_i32 = arith.constant 64 : i32 loc(#loc20)
    %0 = arith.bitcast %c0_i32 : i32 to i32 loc(#loc20)
    %1 = arith.bitcast %N_CTX : i32 to i32 loc(#loc20)
    %2 = arith.bitcast %c64_i32 : i32 to i32 loc(#loc20)
    %3 = ub.poison : i32 loc(#loc20)
    %dv_acc_27:2 = scf.for %start_m = %0 to %1 step %2 iter_args(%dk_acc_38 = %dk_acc, %dv_acc_39 = %dv_acc) -> (tensor<128x128xf32>, tensor<128x128xf32>)  : i32 {
      %q = arith.constant 0 : i32 loc(#loc92)
      %q_40 = tt.descriptor_load %q_desc_16[%start_m, %q] : !tt.tensordesc<64x128xf16> -> tensor<64x128xf16> loc(#loc92)
      %do = arith.constant 0 : i32 loc(#loc93)
      %do_41 = tt.descriptor_load %do_desc_20[%start_m, %do] : !tt.tensordesc<64x128xf16> -> tensor<64x128xf16> loc(#loc93)
      %offs_m = tt.make_range {end = 64 : i32, start = 0 : i32} : tensor<64xi32> loc(#loc94)
      %offs_m_42 = tt.splat %start_m : i32 -> tensor<64xi32> loc(#loc95)
      %offs_m_43 = arith.addi %offs_m_42, %offs_m : tensor<64xi32> loc(#loc95)
      %m = tt.addptr %M, %m_base : !tt.ptr<f32>, i32 loc(#loc96)
      %m_44 = tt.splat %m : !tt.ptr<f32> -> tensor<64x!tt.ptr<f32>> loc(#loc96)
      %m_45 = tt.addptr %m_44, %offs_m_43 : tensor<64x!tt.ptr<f32>>, tensor<64xi32> loc(#loc96)
      %m_46 = tt.load %m_45 : tensor<64x!tt.ptr<f32>> loc(#loc97)
      %Di = tt.addptr %D, %m_base : !tt.ptr<f32>, i32 loc(#loc98)
      %Di_47 = tt.splat %Di : !tt.ptr<f32> -> tensor<64x!tt.ptr<f32>> loc(#loc98)
      %Di_48 = tt.addptr %Di_47, %offs_m_43 : tensor<64x!tt.ptr<f32>>, tensor<64xi32> loc(#loc98)
      %Di_49 = tt.load %Di_48 : tensor<64x!tt.ptr<f32>> loc(#loc99)
      %qkT = tt.trans %q_40 {order = array<i32: 1, 0>} : tensor<64x128xf16> -> tensor<128x64xf16> loc(#loc100)
      %qkT_50 = arith.constant 0.000000e+00 : f32 loc(#loc101)
      %qkT_51 = arith.constant dense<0.000000e+00> : tensor<128x64xf32> loc(#loc101)
      %qkT_52 = tt.dot %k_25, %qkT, %qkT_51, inputPrecision = tf32 : tensor<128x128xf16> * tensor<128x64xf16> -> tensor<128x64xf32> loc(#loc101)
      %pT = arith.constant 1.44269502 : f32 loc(#loc102)
      %pT_53 = arith.constant 1.44269502 : f32 loc(#loc102)
      %pT_54 = arith.constant dense<1.44269502> : tensor<128x64xf32> loc(#loc102)
      %pT_55 = arith.mulf %qkT_52, %pT_54 : tensor<128x64xf32> loc(#loc102)
      %pT_56 = tt.expand_dims %m_46 {axis = 0 : i32} : tensor<64xf32> -> tensor<1x64xf32> loc(#loc103)
      %pT_57 = tt.broadcast %pT_56 : tensor<1x64xf32> -> tensor<128x64xf32> loc(#loc102)
      %pT_58 = arith.subf %pT_55, %pT_57 : tensor<128x64xf32> loc(#loc102)
      %pT_59 = math.exp2 %pT_58 : tensor<128x64xf32> loc(#loc104)
      %ppT = arith.truncf %pT_59 : tensor<128x64xf32> to tensor<128x64xf16> loc(#loc105)
      %dpT = tt.trans %do_41 {order = array<i32: 1, 0>} : tensor<64x128xf16> -> tensor<128x64xf16> loc(#loc106)
      %dpT_60 = arith.constant 0.000000e+00 : f32 loc(#loc107)
      %dpT_61 = arith.constant dense<0.000000e+00> : tensor<128x64xf32> loc(#loc107)
      %dpT_62 = tt.dot %v_26, %dpT, %dpT_61, inputPrecision = tf32 : tensor<128x128xf16> * tensor<128x64xf16> -> tensor<128x64xf32> loc(#loc107)
      %dv_acc_63 = arith.constant 0.000000e+00 : f32 loc(#loc108)
      %dv_acc_64 = arith.constant dense<0.000000e+00> : tensor<128x128xf32> loc(#loc108)
      %dv_acc_65 = tt.dot %ppT, %do_41, %dv_acc_64, inputPrecision = tf32 : tensor<128x64xf16> * tensor<64x128xf16> -> tensor<128x128xf32> loc(#loc108)
      %dv_acc_66 = arith.addf %dv_acc_39, %dv_acc_65 : tensor<128x128xf32> loc(#loc109)
      %dsT = tt.expand_dims %Di_49 {axis = 0 : i32} : tensor<64xf32> -> tensor<1x64xf32> loc(#loc110)
      %dsT_67 = tt.broadcast %dsT : tensor<1x64xf32> -> tensor<128x64xf32> loc(#loc111)
      %dsT_68 = arith.subf %dpT_62, %dsT_67 : tensor<128x64xf32> loc(#loc111)
      %dsT_69 = arith.mulf %pT_59, %dsT_68 : tensor<128x64xf32> loc(#loc112)
      %dsT_70 = arith.truncf %dsT_69 : tensor<128x64xf32> to tensor<128x64xf16> loc(#loc113)
      %dq_partial = tt.trans %dsT_70 {order = array<i32: 1, 0>} : tensor<128x64xf16> -> tensor<64x128xf16> loc(#loc114)
      %dq_partial_71 = arith.constant 0.000000e+00 : f32 loc(#loc115)
      %dq_partial_72 = arith.constant dense<0.000000e+00> : tensor<64x128xf32> loc(#loc115)
      %dq_partial_73 = tt.dot %dq_partial, %k_25, %dq_partial_72, inputPrecision = tf32 : tensor<64x128xf16> * tensor<128x128xf16> -> tensor<64x128xf32> loc(#loc115)
      %6 = arith.truncf %dq_partial_73 : tensor<64x128xf32> to tensor<64x128xf16> loc(#loc45)
      %c0_i32_74 = arith.constant 0 : i32 loc(#loc46)
      tt.descriptor_reduce add, %dq_desc_24[%start_m, %c0_i32_74], %6 : !tt.tensordesc<64x128xf16>, tensor<64x128xf16> loc(#loc46)
      %dk_acc_75 = arith.constant 0.000000e+00 : f32 loc(#loc116)
      %dk_acc_76 = arith.constant dense<0.000000e+00> : tensor<128x128xf32> loc(#loc116)
      %dk_acc_77 = tt.dot %dsT_70, %q_40, %dk_acc_76, inputPrecision = tf32 : tensor<128x64xf16> * tensor<64x128xf16> -> tensor<128x128xf32> loc(#loc116)
      %dk_acc_78 = arith.addf %dk_acc_38, %dk_acc_77 : tensor<128x128xf32> loc(#loc117)
      scf.yield %dk_acc_78, %dv_acc_66 : tensor<128x128xf32>, tensor<128x128xf32> loc(#loc20)
    } {tt.warp_specialize} loc(#loc122)
    %dk_desc = tt.addptr %dK, %base_2 : !tt.ptr<f16>, i32 loc(#loc118)
    %dk_desc_28 = arith.constant 128 : i32 loc(#loc119)
    %dk_desc_29 = arith.extsi %stride_n : i32 to i64 loc(#loc119)
    %dk_desc_30 = arith.constant 1 : i64 loc(#loc119)
    %dk_desc_31 = tt.make_tensor_descriptor %dk_desc, [%N_CTX, %dk_desc_28], [%dk_desc_29, %dk_desc_30] : !tt.ptr<f16>, !tt.tensordesc<128x128xf16> loc(#loc119)
    %dv_desc = tt.addptr %dV, %base_2 : !tt.ptr<f16>, i32 loc(#loc120)
    %dv_desc_32 = arith.constant 128 : i32 loc(#loc121)
    %dv_desc_33 = arith.extsi %stride_n : i32 to i64 loc(#loc121)
    %dv_desc_34 = arith.constant 1 : i64 loc(#loc121)
    %dv_desc_35 = tt.make_tensor_descriptor %dv_desc, [%N_CTX, %dv_desc_32], [%dv_desc_33, %dv_desc_34] : !tt.ptr<f16>, !tt.tensordesc<128x128xf16> loc(#loc121)
    %4 = arith.truncf %dv_acc_27#0 : tensor<128x128xf32> to tensor<128x128xf16> loc(#loc53)
    %c0_i32_36 = arith.constant 0 : i32 loc(#loc54)
    tt.descriptor_store %dk_desc_31[%start_n_4, %c0_i32_36], %4 : !tt.tensordesc<128x128xf16>, tensor<128x128xf16> loc(#loc54)
    %5 = arith.truncf %dv_acc_27#1 : tensor<128x128xf32> to tensor<128x128xf16> loc(#loc55)
    %c0_i32_37 = arith.constant 0 : i32 loc(#loc56)
    tt.descriptor_store %dv_desc_35[%start_n_4, %c0_i32_37], %5 : !tt.tensordesc<128x128xf16>, tensor<128x128xf16> loc(#loc56)
    tt.return loc(#loc)
  } loc(#loc)
  tt.func private @"triton.language.standard.zeros____(0, 0)cconstexpr_128__(0, 1)cconstexpr_128__(1,)cconstexpr_fp32_"() -> tensor<128x128xf32> attributes {noinline = false} {
    %cst = arith.constant dense<0.000000e+00> : tensor<128x128xf32> loc(#loc58)
    tt.return %cst : tensor<128x128xf32> loc(#loc59)
  } loc(#loc57)
} loc(#loc)
#loc1 = loc("/projects/kzhou6/hwu27/triton-beta-3-paper-solver-wt/third_party/tlx/tools/sched2tlx/examples/case4_FA_bwd/handwritten_nows.py":49:13)
#loc2 = loc("/projects/kzhou6/hwu27/triton-beta-3-paper-solver-wt/third_party/tlx/tools/sched2tlx/examples/case4_FA_bwd/handwritten_nows.py":50:14)
#loc3 = loc("/projects/kzhou6/hwu27/triton-beta-3-paper-solver-wt/third_party/tlx/tools/sched2tlx/examples/case4_FA_bwd/handwritten_nows.py":52:12)
#loc4 = loc("/projects/kzhou6/hwu27/triton-beta-3-paper-solver-wt/third_party/tlx/tools/sched2tlx/examples/case4_FA_bwd/handwritten_nows.py":53:15)
#loc5 = loc("/projects/kzhou6/hwu27/triton-beta-3-paper-solver-wt/third_party/tlx/tools/sched2tlx/examples/case4_FA_bwd/handwritten_nows.py":56:9)
#loc6 = loc("/projects/kzhou6/hwu27/triton-beta-3-paper-solver-wt/third_party/tlx/tools/sched2tlx/examples/case4_FA_bwd/handwritten_nows.py":55:14)
#loc7 = loc("/projects/kzhou6/hwu27/triton-beta-3-paper-solver-wt/third_party/tlx/tools/sched2tlx/examples/case4_FA_bwd/handwritten_nows.py":59:9)
#loc8 = loc("/projects/kzhou6/hwu27/triton-beta-3-paper-solver-wt/third_party/tlx/tools/sched2tlx/examples/case4_FA_bwd/handwritten_nows.py":58:14)
#loc9 = loc("/projects/kzhou6/hwu27/triton-beta-3-paper-solver-wt/third_party/tlx/tools/sched2tlx/examples/case4_FA_bwd/handwritten_nows.py":62:9)
#loc10 = loc("/projects/kzhou6/hwu27/triton-beta-3-paper-solver-wt/third_party/tlx/tools/sched2tlx/examples/case4_FA_bwd/handwritten_nows.py":61:14)
#loc11 = loc("/projects/kzhou6/hwu27/triton-beta-3-paper-solver-wt/third_party/tlx/tools/sched2tlx/examples/case4_FA_bwd/handwritten_nows.py":65:9)
#loc12 = loc("/projects/kzhou6/hwu27/triton-beta-3-paper-solver-wt/third_party/tlx/tools/sched2tlx/examples/case4_FA_bwd/handwritten_nows.py":64:15)
#loc13 = loc("/projects/kzhou6/hwu27/triton-beta-3-paper-solver-wt/third_party/tlx/tools/sched2tlx/examples/case4_FA_bwd/handwritten_nows.py":68:9)
#loc14 = loc("/projects/kzhou6/hwu27/triton-beta-3-paper-solver-wt/third_party/tlx/tools/sched2tlx/examples/case4_FA_bwd/handwritten_nows.py":67:15)
#loc15 = loc("/projects/kzhou6/hwu27/triton-beta-3-paper-solver-wt/third_party/tlx/tools/sched2tlx/examples/case4_FA_bwd/handwritten_nows.py":71:9)
#loc16 = loc("/projects/kzhou6/hwu27/triton-beta-3-paper-solver-wt/third_party/tlx/tools/sched2tlx/examples/case4_FA_bwd/handwritten_nows.py":72:9)
#loc17 = loc("/projects/kzhou6/hwu27/triton-beta-3-paper-solver-wt/third_party/tlx/tools/sched2tlx/examples/case4_FA_bwd/handwritten_nows.py":74:14)
#loc18 = loc("/projects/kzhou6/hwu27/triton-beta-3-paper-solver-wt/third_party/tlx/tools/sched2tlx/examples/case4_FA_bwd/handwritten_nows.py":75:14)
#loc19 = loc("/projects/kzhou6/hwu27/triton-beta-3-paper-solver-wt/third_party/tlx/tools/sched2tlx/examples/case4_FA_bwd/handwritten_nows.py":77:14)
#loc20 = loc("/projects/kzhou6/hwu27/triton-beta-3-paper-solver-wt/third_party/tlx/tools/sched2tlx/examples/case4_FA_bwd/handwritten_nows.py":79:5)
#loc21 = loc("/projects/kzhou6/hwu27/triton-beta-3-paper-solver-wt/third_party/tlx/tools/sched2tlx/examples/case4_FA_bwd/handwritten_nows.py":80:13)
#loc22 = loc("/projects/kzhou6/hwu27/triton-beta-3-paper-solver-wt/third_party/tlx/tools/sched2tlx/examples/case4_FA_bwd/handwritten_nows.py":81:14)
#loc23 = loc("/projects/kzhou6/hwu27/triton-beta-3-paper-solver-wt/third_party/tlx/tools/sched2tlx/examples/case4_FA_bwd/handwritten_nows.py":83:28)
#loc24 = loc("/projects/kzhou6/hwu27/triton-beta-3-paper-solver-wt/third_party/tlx/tools/sched2tlx/examples/case4_FA_bwd/handwritten_nows.py":83:18)
#loc25 = loc("/projects/kzhou6/hwu27/triton-beta-3-paper-solver-wt/third_party/tlx/tools/sched2tlx/examples/case4_FA_bwd/handwritten_nows.py":84:21)
#loc26 = loc("/projects/kzhou6/hwu27/triton-beta-3-paper-solver-wt/third_party/tlx/tools/sched2tlx/examples/case4_FA_bwd/handwritten_nows.py":84:13)
#loc27 = loc("/projects/kzhou6/hwu27/triton-beta-3-paper-solver-wt/third_party/tlx/tools/sched2tlx/examples/case4_FA_bwd/handwritten_nows.py":85:22)
#loc28 = loc("/projects/kzhou6/hwu27/triton-beta-3-paper-solver-wt/third_party/tlx/tools/sched2tlx/examples/case4_FA_bwd/handwritten_nows.py":85:14)
#loc29 = loc("/projects/kzhou6/hwu27/triton-beta-3-paper-solver-wt/third_party/tlx/tools/sched2tlx/examples/case4_FA_bwd/handwritten_nows.py":87:25)
#loc30 = loc("/projects/kzhou6/hwu27/triton-beta-3-paper-solver-wt/third_party/tlx/tools/sched2tlx/examples/case4_FA_bwd/handwritten_nows.py":87:15)
#loc31 = loc("/projects/kzhou6/hwu27/triton-beta-3-paper-solver-wt/third_party/tlx/tools/sched2tlx/examples/case4_FA_bwd/handwritten_nows.py":90:27)
#loc32 = loc("/projects/kzhou6/hwu27/triton-beta-3-paper-solver-wt/third_party/tlx/tools/sched2tlx/examples/case4_FA_bwd/handwritten_nows.py":90:54)
#loc33 = loc("/projects/kzhou6/hwu27/triton-beta-3-paper-solver-wt/third_party/tlx/tools/sched2tlx/examples/case4_FA_bwd/handwritten_nows.py":90:14)
#loc34 = loc("/projects/kzhou6/hwu27/triton-beta-3-paper-solver-wt/third_party/tlx/tools/sched2tlx/examples/case4_FA_bwd/handwritten_nows.py":91:15)
#loc35 = loc("/projects/kzhou6/hwu27/triton-beta-3-paper-solver-wt/third_party/tlx/tools/sched2tlx/examples/case4_FA_bwd/handwritten_nows.py":92:25)
#loc36 = loc("/projects/kzhou6/hwu27/triton-beta-3-paper-solver-wt/third_party/tlx/tools/sched2tlx/examples/case4_FA_bwd/handwritten_nows.py":92:15)
#loc37 = loc("/projects/kzhou6/hwu27/triton-beta-3-paper-solver-wt/third_party/tlx/tools/sched2tlx/examples/case4_FA_bwd/handwritten_nows.py":93:19)
#loc38 = loc("/projects/kzhou6/hwu27/triton-beta-3-paper-solver-wt/third_party/tlx/tools/sched2tlx/examples/case4_FA_bwd/handwritten_nows.py":93:9)
#loc39 = loc("/projects/kzhou6/hwu27/triton-beta-3-paper-solver-wt/third_party/tlx/tools/sched2tlx/examples/case4_FA_bwd/handwritten_nows.py":94:28)
#loc40 = loc("/projects/kzhou6/hwu27/triton-beta-3-paper-solver-wt/third_party/tlx/tools/sched2tlx/examples/case4_FA_bwd/handwritten_nows.py":94:22)
#loc41 = loc("/projects/kzhou6/hwu27/triton-beta-3-paper-solver-wt/third_party/tlx/tools/sched2tlx/examples/case4_FA_bwd/handwritten_nows.py":94:16)
#loc42 = loc("/projects/kzhou6/hwu27/triton-beta-3-paper-solver-wt/third_party/tlx/tools/sched2tlx/examples/case4_FA_bwd/handwritten_nows.py":94:15)
#loc43 = loc("/projects/kzhou6/hwu27/triton-beta-3-paper-solver-wt/third_party/tlx/tools/sched2tlx/examples/case4_FA_bwd/handwritten_nows.py":95:29)
#loc44 = loc("/projects/kzhou6/hwu27/triton-beta-3-paper-solver-wt/third_party/tlx/tools/sched2tlx/examples/case4_FA_bwd/handwritten_nows.py":95:22)
#loc45 = loc("/projects/kzhou6/hwu27/triton-beta-3-paper-solver-wt/third_party/tlx/tools/sched2tlx/examples/case4_FA_bwd/handwritten_nows.py":96:42)
#loc46 = loc("/projects/kzhou6/hwu27/triton-beta-3-paper-solver-wt/third_party/tlx/tools/sched2tlx/examples/case4_FA_bwd/handwritten_nows.py":96:9)
#loc47 = loc("/projects/kzhou6/hwu27/triton-beta-3-paper-solver-wt/third_party/tlx/tools/sched2tlx/examples/case4_FA_bwd/handwritten_nows.py":97:19)
#loc48 = loc("/projects/kzhou6/hwu27/triton-beta-3-paper-solver-wt/third_party/tlx/tools/sched2tlx/examples/case4_FA_bwd/handwritten_nows.py":97:9)
#loc49 = loc("/projects/kzhou6/hwu27/triton-beta-3-paper-solver-wt/third_party/tlx/tools/sched2tlx/examples/case4_FA_bwd/handwritten_nows.py":100:9)
#loc50 = loc("/projects/kzhou6/hwu27/triton-beta-3-paper-solver-wt/third_party/tlx/tools/sched2tlx/examples/case4_FA_bwd/handwritten_nows.py":99:15)
#loc51 = loc("/projects/kzhou6/hwu27/triton-beta-3-paper-solver-wt/third_party/tlx/tools/sched2tlx/examples/case4_FA_bwd/handwritten_nows.py":103:9)
#loc52 = loc("/projects/kzhou6/hwu27/triton-beta-3-paper-solver-wt/third_party/tlx/tools/sched2tlx/examples/case4_FA_bwd/handwritten_nows.py":102:15)
#loc53 = loc("/projects/kzhou6/hwu27/triton-beta-3-paper-solver-wt/third_party/tlx/tools/sched2tlx/examples/case4_FA_bwd/handwritten_nows.py":105:33)
#loc54 = loc("/projects/kzhou6/hwu27/triton-beta-3-paper-solver-wt/third_party/tlx/tools/sched2tlx/examples/case4_FA_bwd/handwritten_nows.py":105:5)
#loc55 = loc("/projects/kzhou6/hwu27/triton-beta-3-paper-solver-wt/third_party/tlx/tools/sched2tlx/examples/case4_FA_bwd/handwritten_nows.py":106:33)
#loc56 = loc("/projects/kzhou6/hwu27/triton-beta-3-paper-solver-wt/third_party/tlx/tools/sched2tlx/examples/case4_FA_bwd/handwritten_nows.py":106:5)
#loc57 = loc("/projects/kzhou6/hwu27/triton-beta-3-paper-solver-wt/python/triton/language/standard.py":120:1)
#loc58 = loc("/projects/kzhou6/hwu27/triton-beta-3-paper-solver-wt/python/triton/language/standard.py":129:12)
#loc59 = loc("/projects/kzhou6/hwu27/triton-beta-3-paper-solver-wt/python/triton/language/standard.py":129:5)
#loc72 = loc("pid_n"(#loc1))
#loc73 = loc("off_hz"(#loc2))
#loc74 = loc("base"(#loc3))
#loc75 = loc("start_n"(#loc4))
#loc76 = loc("k_desc"(#loc5))
#loc77 = loc("k_desc"(#loc6))
#loc78 = loc("v_desc"(#loc7))
#loc79 = loc("v_desc"(#loc8))
#loc80 = loc("q_desc"(#loc9))
#loc81 = loc("q_desc"(#loc10))
#loc82 = loc("do_desc"(#loc11))
#loc83 = loc("do_desc"(#loc12))
#loc84 = loc("dq_desc"(#loc13))
#loc85 = loc("dq_desc"(#loc14))
#loc86 = loc("k"(#loc15))
#loc87 = loc("v"(#loc16))
#loc88 = loc("dk_acc"(#loc17))
#loc89 = loc("dv_acc"(#loc18))
#loc90 = loc("m_base"(#loc19))
#loc91 = loc("dk_acc"(#loc20))
#loc92 = loc("q"(#loc21))
#loc93 = loc("do"(#loc22))
#loc94 = loc("offs_m"(#loc23))
#loc95 = loc("offs_m"(#loc24))
#loc96 = loc("m"(#loc25))
#loc97 = loc("m"(#loc26))
#loc98 = loc("Di"(#loc27))
#loc99 = loc("Di"(#loc28))
#loc100 = loc("qkT"(#loc29))
#loc101 = loc("qkT"(#loc30))
#loc102 = loc("pT"(#loc31))
#loc103 = loc("pT"(#loc32))
#loc104 = loc("pT"(#loc33))
#loc105 = loc("ppT"(#loc34))
#loc106 = loc("dpT"(#loc35))
#loc107 = loc("dpT"(#loc36))
#loc108 = loc("dv_acc"(#loc37))
#loc109 = loc("dv_acc"(#loc38))
#loc110 = loc("dsT"(#loc39))
#loc111 = loc("dsT"(#loc40))
#loc112 = loc("dsT"(#loc41))
#loc113 = loc("dsT"(#loc42))
#loc114 = loc("dq_partial"(#loc43))
#loc115 = loc("dq_partial"(#loc44))
#loc116 = loc("dk_acc"(#loc47))
#loc117 = loc("dk_acc"(#loc48))
#loc118 = loc("dk_desc"(#loc49))
#loc119 = loc("dk_desc"(#loc50))
#loc120 = loc("dv_desc"(#loc51))
#loc121 = loc("dv_desc"(#loc52))
#loc122 = loc("dv_acc"(#loc91))


// -----// IR Dump Before CanonicalizerPass: canonicalize{cse-between-iterations=false    max-iterations=10 max-num-rewrites=-1 region-simplify=normal test-convergence=false top-down=true} ('tt.func' operation: @fa_bwd_dkdv_5mma) //----- //
#loc = loc("/projects/kzhou6/hwu27/triton-beta-3-paper-solver-wt/third_party/tlx/tools/sched2tlx/examples/case4_FA_bwd/handwritten_nows.py":31:1)
#loc60 = loc("Q"(#loc))
#loc61 = loc("K"(#loc))
#loc62 = loc("V"(#loc))
#loc63 = loc("dO"(#loc))
#loc64 = loc("dQ"(#loc))
#loc65 = loc("dK"(#loc))
#loc66 = loc("dV"(#loc))
#loc67 = loc("M"(#loc))
#loc68 = loc("D"(#loc))
#loc69 = loc("stride_m"(#loc))
#loc70 = loc("stride_n"(#loc))
#loc71 = loc("N_CTX"(#loc))
module {
  tt.func public @fa_bwd_dkdv_5mma(%Q: !tt.ptr<f16> {tt.divisibility = 16 : i32} loc("Q"(#loc)), %K: !tt.ptr<f16> {tt.divisibility = 16 : i32} loc("K"(#loc)), %V: !tt.ptr<f16> {tt.divisibility = 16 : i32} loc("V"(#loc)), %dO: !tt.ptr<f16> {tt.divisibility = 16 : i32} loc("dO"(#loc)), %dQ: !tt.ptr<f16> {tt.divisibility = 16 : i32} loc("dQ"(#loc)), %dK: !tt.ptr<f16> {tt.divisibility = 16 : i32} loc("dK"(#loc)), %dV: !tt.ptr<f16> {tt.divisibility = 16 : i32} loc("dV"(#loc)), %M: !tt.ptr<f32> {tt.divisibility = 16 : i32} loc("M"(#loc)), %D: !tt.ptr<f32> {tt.divisibility = 16 : i32} loc("D"(#loc)), %stride_m: i32 {tt.divisibility = 16 : i32} loc("stride_m"(#loc)), %stride_n: i32 {tt.divisibility = 16 : i32} loc("stride_n"(#loc)), %N_CTX: i32 {tt.divisibility = 16 : i32} loc("N_CTX"(#loc))) attributes {noinline = false} {
    %c64_i32 = arith.constant 64 : i32 loc(#loc1)
    %cst = arith.constant dense<0.000000e+00> : tensor<64x128xf32> loc(#loc2)
    %cst_0 = arith.constant dense<0.000000e+00> : tensor<128x128xf32> loc(#loc2)
    %cst_1 = arith.constant dense<1.44269502> : tensor<128x64xf32> loc(#loc2)
    %cst_2 = arith.constant dense<0.000000e+00> : tensor<128x64xf32> loc(#loc2)
    %c0_i32 = arith.constant 0 : i32 loc(#loc2)
    %c1_i64 = arith.constant 1 : i64 loc(#loc2)
    %c128_i32 = arith.constant 128 : i32 loc(#loc2)
    %pid_n = tt.get_program_id x : i32 loc(#loc72)
    %off_hz = tt.get_program_id y : i32 loc(#loc73)
    %base = arith.muli %off_hz, %N_CTX : i32 loc(#loc74)
    %base_3 = arith.muli %base, %c128_i32 : i32 loc(#loc74)
    %start_n = arith.muli %pid_n, %c128_i32 : i32 loc(#loc75)
    %k_desc = tt.addptr %K, %base_3 : !tt.ptr<f16>, i32 loc(#loc76)
    %k_desc_4 = arith.extsi %stride_n : i32 to i64 loc(#loc77)
    %k_desc_5 = tt.make_tensor_descriptor %k_desc, [%N_CTX, %c128_i32], [%k_desc_4, %c1_i64] : !tt.ptr<f16>, !tt.tensordesc<128x128xf16> loc(#loc77)
    %v_desc = tt.addptr %V, %base_3 : !tt.ptr<f16>, i32 loc(#loc78)
    %v_desc_6 = arith.extsi %stride_n : i32 to i64 loc(#loc79)
    %v_desc_7 = tt.make_tensor_descriptor %v_desc, [%N_CTX, %c128_i32], [%v_desc_6, %c1_i64] : !tt.ptr<f16>, !tt.tensordesc<128x128xf16> loc(#loc79)
    %q_desc = tt.addptr %Q, %base_3 : !tt.ptr<f16>, i32 loc(#loc80)
    %q_desc_8 = arith.extsi %stride_m : i32 to i64 loc(#loc81)
    %q_desc_9 = tt.make_tensor_descriptor %q_desc, [%N_CTX, %c128_i32], [%q_desc_8, %c1_i64] : !tt.ptr<f16>, !tt.tensordesc<64x128xf16> loc(#loc81)
    %do_desc = tt.addptr %dO, %base_3 : !tt.ptr<f16>, i32 loc(#loc82)
    %do_desc_10 = arith.extsi %stride_m : i32 to i64 loc(#loc83)
    %do_desc_11 = tt.make_tensor_descriptor %do_desc, [%N_CTX, %c128_i32], [%do_desc_10, %c1_i64] : !tt.ptr<f16>, !tt.tensordesc<64x128xf16> loc(#loc83)
    %dq_desc = tt.addptr %dQ, %base_3 : !tt.ptr<f16>, i32 loc(#loc84)
    %dq_desc_12 = arith.extsi %stride_m : i32 to i64 loc(#loc85)
    %dq_desc_13 = tt.make_tensor_descriptor %dq_desc, [%N_CTX, %c128_i32], [%dq_desc_12, %c1_i64] : !tt.ptr<f16>, !tt.tensordesc<64x128xf16> loc(#loc85)
    %k = tt.descriptor_load %k_desc_5[%start_n, %c0_i32] : !tt.tensordesc<128x128xf16> -> tensor<128x128xf16> loc(#loc86)
    %v = tt.descriptor_load %v_desc_7[%start_n, %c0_i32] : !tt.tensordesc<128x128xf16> -> tensor<128x128xf16> loc(#loc87)
    %dk_acc = arith.constant dense<0.000000e+00> : tensor<128x128xf32> loc(#loc122)
    %dv_acc = arith.constant dense<0.000000e+00> : tensor<128x128xf32> loc(#loc123)
    %m_base = arith.muli %off_hz, %N_CTX : i32 loc(#loc90)
    %dv_acc_14:2 = scf.for %start_m = %c0_i32 to %N_CTX step %c64_i32 iter_args(%dk_acc_19 = %dk_acc, %dv_acc_20 = %dv_acc) -> (tensor<128x128xf32>, tensor<128x128xf32>)  : i32 {
      %q = tt.descriptor_load %q_desc_9[%start_m, %c0_i32] : !tt.tensordesc<64x128xf16> -> tensor<64x128xf16> loc(#loc92)
      %do = tt.descriptor_load %do_desc_11[%start_m, %c0_i32] : !tt.tensordesc<64x128xf16> -> tensor<64x128xf16> loc(#loc93)
      %offs_m = tt.make_range {end = 64 : i32, start = 0 : i32} : tensor<64xi32> loc(#loc94)
      %offs_m_21 = tt.splat %start_m : i32 -> tensor<64xi32> loc(#loc95)
      %offs_m_22 = arith.addi %offs_m_21, %offs_m : tensor<64xi32> loc(#loc95)
      %m = tt.addptr %M, %m_base : !tt.ptr<f32>, i32 loc(#loc96)
      %m_23 = tt.splat %m : !tt.ptr<f32> -> tensor<64x!tt.ptr<f32>> loc(#loc96)
      %m_24 = tt.addptr %m_23, %offs_m_22 : tensor<64x!tt.ptr<f32>>, tensor<64xi32> loc(#loc96)
      %m_25 = tt.load %m_24 : tensor<64x!tt.ptr<f32>> loc(#loc97)
      %Di = tt.addptr %D, %m_base : !tt.ptr<f32>, i32 loc(#loc98)
      %Di_26 = tt.splat %Di : !tt.ptr<f32> -> tensor<64x!tt.ptr<f32>> loc(#loc98)
      %Di_27 = tt.addptr %Di_26, %offs_m_22 : tensor<64x!tt.ptr<f32>>, tensor<64xi32> loc(#loc98)
      %Di_28 = tt.load %Di_27 : tensor<64x!tt.ptr<f32>> loc(#loc99)
      %qkT = tt.trans %q {order = array<i32: 1, 0>} : tensor<64x128xf16> -> tensor<128x64xf16> loc(#loc100)
      %qkT_29 = tt.dot %k, %qkT, %cst_2, inputPrecision = tf32 : tensor<128x128xf16> * tensor<128x64xf16> -> tensor<128x64xf32> loc(#loc101)
      %pT = arith.mulf %qkT_29, %cst_1 : tensor<128x64xf32> loc(#loc102)
      %pT_30 = tt.expand_dims %m_25 {axis = 0 : i32} : tensor<64xf32> -> tensor<1x64xf32> loc(#loc103)
      %pT_31 = tt.broadcast %pT_30 : tensor<1x64xf32> -> tensor<128x64xf32> loc(#loc102)
      %pT_32 = arith.subf %pT, %pT_31 : tensor<128x64xf32> loc(#loc102)
      %pT_33 = math.exp2 %pT_32 : tensor<128x64xf32> loc(#loc104)
      %ppT = arith.truncf %pT_33 : tensor<128x64xf32> to tensor<128x64xf16> loc(#loc105)
      %dpT = tt.trans %do {order = array<i32: 1, 0>} : tensor<64x128xf16> -> tensor<128x64xf16> loc(#loc106)
      %dpT_34 = tt.dot %v, %dpT, %cst_2, inputPrecision = tf32 : tensor<128x128xf16> * tensor<128x64xf16> -> tensor<128x64xf32> loc(#loc107)
      %dv_acc_35 = tt.dot %ppT, %do, %cst_0, inputPrecision = tf32 : tensor<128x64xf16> * tensor<64x128xf16> -> tensor<128x128xf32> loc(#loc108)
      %dv_acc_36 = arith.addf %dv_acc_20, %dv_acc_35 : tensor<128x128xf32> loc(#loc109)
      %dsT = tt.expand_dims %Di_28 {axis = 0 : i32} : tensor<64xf32> -> tensor<1x64xf32> loc(#loc110)
      %dsT_37 = tt.broadcast %dsT : tensor<1x64xf32> -> tensor<128x64xf32> loc(#loc111)
      %dsT_38 = arith.subf %dpT_34, %dsT_37 : tensor<128x64xf32> loc(#loc111)
      %dsT_39 = arith.mulf %pT_33, %dsT_38 : tensor<128x64xf32> loc(#loc112)
      %dsT_40 = arith.truncf %dsT_39 : tensor<128x64xf32> to tensor<128x64xf16> loc(#loc113)
      %dq_partial = tt.trans %dsT_40 {order = array<i32: 1, 0>} : tensor<128x64xf16> -> tensor<64x128xf16> loc(#loc114)
      %dq_partial_41 = tt.dot %dq_partial, %k, %cst, inputPrecision = tf32 : tensor<64x128xf16> * tensor<128x128xf16> -> tensor<64x128xf32> loc(#loc115)
      %2 = arith.truncf %dq_partial_41 : tensor<64x128xf32> to tensor<64x128xf16> loc(#loc47)
      tt.descriptor_reduce add, %dq_desc_13[%start_m, %c0_i32], %2 : !tt.tensordesc<64x128xf16>, tensor<64x128xf16> loc(#loc48)
      %dk_acc_42 = tt.dot %dsT_40, %q, %cst_0, inputPrecision = tf32 : tensor<128x64xf16> * tensor<64x128xf16> -> tensor<128x128xf32> loc(#loc116)
      %dk_acc_43 = arith.addf %dk_acc_19, %dk_acc_42 : tensor<128x128xf32> loc(#loc117)
      scf.yield %dk_acc_43, %dv_acc_36 : tensor<128x128xf32>, tensor<128x128xf32> loc(#loc1)
    } {tt.warp_specialize} loc(#loc124)
    %dk_desc = tt.addptr %dK, %base_3 : !tt.ptr<f16>, i32 loc(#loc118)
    %dk_desc_15 = arith.extsi %stride_n : i32 to i64 loc(#loc119)
    %dk_desc_16 = tt.make_tensor_descriptor %dk_desc, [%N_CTX, %c128_i32], [%dk_desc_15, %c1_i64] : !tt.ptr<f16>, !tt.tensordesc<128x128xf16> loc(#loc119)
    %dv_desc = tt.addptr %dV, %base_3 : !tt.ptr<f16>, i32 loc(#loc120)
    %dv_desc_17 = arith.extsi %stride_n : i32 to i64 loc(#loc121)
    %dv_desc_18 = tt.make_tensor_descriptor %dv_desc, [%N_CTX, %c128_i32], [%dv_desc_17, %c1_i64] : !tt.ptr<f16>, !tt.tensordesc<128x128xf16> loc(#loc121)
    %0 = arith.truncf %dv_acc_14#0 : tensor<128x128xf32> to tensor<128x128xf16> loc(#loc55)
    tt.descriptor_store %dk_desc_16[%start_n, %c0_i32], %0 : !tt.tensordesc<128x128xf16>, tensor<128x128xf16> loc(#loc56)
    %1 = arith.truncf %dv_acc_14#1 : tensor<128x128xf32> to tensor<128x128xf16> loc(#loc57)
    tt.descriptor_store %dv_desc_18[%start_n, %c0_i32], %1 : !tt.tensordesc<128x128xf16>, tensor<128x128xf16> loc(#loc58)
    tt.return loc(#loc)
  } loc(#loc)
  tt.func private @"triton.language.standard.zeros____(0, 0)cconstexpr_128__(0, 1)cconstexpr_128__(1,)cconstexpr_fp32_"() -> tensor<128x128xf32> attributes {noinline = false} loc(#loc59)
} loc(#loc)
#loc1 = loc("/projects/kzhou6/hwu27/triton-beta-3-paper-solver-wt/third_party/tlx/tools/sched2tlx/examples/case4_FA_bwd/handwritten_nows.py":79:5)
#loc2 = loc(unknown)
#loc3 = loc("/projects/kzhou6/hwu27/triton-beta-3-paper-solver-wt/third_party/tlx/tools/sched2tlx/examples/case4_FA_bwd/handwritten_nows.py":49:13)
#loc4 = loc("/projects/kzhou6/hwu27/triton-beta-3-paper-solver-wt/third_party/tlx/tools/sched2tlx/examples/case4_FA_bwd/handwritten_nows.py":50:14)
#loc5 = loc("/projects/kzhou6/hwu27/triton-beta-3-paper-solver-wt/third_party/tlx/tools/sched2tlx/examples/case4_FA_bwd/handwritten_nows.py":52:12)
#loc6 = loc("/projects/kzhou6/hwu27/triton-beta-3-paper-solver-wt/third_party/tlx/tools/sched2tlx/examples/case4_FA_bwd/handwritten_nows.py":53:15)
#loc7 = loc("/projects/kzhou6/hwu27/triton-beta-3-paper-solver-wt/third_party/tlx/tools/sched2tlx/examples/case4_FA_bwd/handwritten_nows.py":56:9)
#loc8 = loc("/projects/kzhou6/hwu27/triton-beta-3-paper-solver-wt/third_party/tlx/tools/sched2tlx/examples/case4_FA_bwd/handwritten_nows.py":55:14)
#loc9 = loc("/projects/kzhou6/hwu27/triton-beta-3-paper-solver-wt/third_party/tlx/tools/sched2tlx/examples/case4_FA_bwd/handwritten_nows.py":59:9)
#loc10 = loc("/projects/kzhou6/hwu27/triton-beta-3-paper-solver-wt/third_party/tlx/tools/sched2tlx/examples/case4_FA_bwd/handwritten_nows.py":58:14)
#loc11 = loc("/projects/kzhou6/hwu27/triton-beta-3-paper-solver-wt/third_party/tlx/tools/sched2tlx/examples/case4_FA_bwd/handwritten_nows.py":62:9)
#loc12 = loc("/projects/kzhou6/hwu27/triton-beta-3-paper-solver-wt/third_party/tlx/tools/sched2tlx/examples/case4_FA_bwd/handwritten_nows.py":61:14)
#loc13 = loc("/projects/kzhou6/hwu27/triton-beta-3-paper-solver-wt/third_party/tlx/tools/sched2tlx/examples/case4_FA_bwd/handwritten_nows.py":65:9)
#loc14 = loc("/projects/kzhou6/hwu27/triton-beta-3-paper-solver-wt/third_party/tlx/tools/sched2tlx/examples/case4_FA_bwd/handwritten_nows.py":64:15)
#loc15 = loc("/projects/kzhou6/hwu27/triton-beta-3-paper-solver-wt/third_party/tlx/tools/sched2tlx/examples/case4_FA_bwd/handwritten_nows.py":68:9)
#loc16 = loc("/projects/kzhou6/hwu27/triton-beta-3-paper-solver-wt/third_party/tlx/tools/sched2tlx/examples/case4_FA_bwd/handwritten_nows.py":67:15)
#loc17 = loc("/projects/kzhou6/hwu27/triton-beta-3-paper-solver-wt/third_party/tlx/tools/sched2tlx/examples/case4_FA_bwd/handwritten_nows.py":71:9)
#loc18 = loc("/projects/kzhou6/hwu27/triton-beta-3-paper-solver-wt/third_party/tlx/tools/sched2tlx/examples/case4_FA_bwd/handwritten_nows.py":72:9)
#loc19 = loc("/projects/kzhou6/hwu27/triton-beta-3-paper-solver-wt/python/triton/language/standard.py":129:12)
#loc20 = loc("/projects/kzhou6/hwu27/triton-beta-3-paper-solver-wt/third_party/tlx/tools/sched2tlx/examples/case4_FA_bwd/handwritten_nows.py":74:14)
#loc21 = loc("/projects/kzhou6/hwu27/triton-beta-3-paper-solver-wt/third_party/tlx/tools/sched2tlx/examples/case4_FA_bwd/handwritten_nows.py":75:14)
#loc22 = loc("/projects/kzhou6/hwu27/triton-beta-3-paper-solver-wt/third_party/tlx/tools/sched2tlx/examples/case4_FA_bwd/handwritten_nows.py":77:14)
#loc23 = loc("/projects/kzhou6/hwu27/triton-beta-3-paper-solver-wt/third_party/tlx/tools/sched2tlx/examples/case4_FA_bwd/handwritten_nows.py":80:13)
#loc24 = loc("/projects/kzhou6/hwu27/triton-beta-3-paper-solver-wt/third_party/tlx/tools/sched2tlx/examples/case4_FA_bwd/handwritten_nows.py":81:14)
#loc25 = loc("/projects/kzhou6/hwu27/triton-beta-3-paper-solver-wt/third_party/tlx/tools/sched2tlx/examples/case4_FA_bwd/handwritten_nows.py":83:28)
#loc26 = loc("/projects/kzhou6/hwu27/triton-beta-3-paper-solver-wt/third_party/tlx/tools/sched2tlx/examples/case4_FA_bwd/handwritten_nows.py":83:18)
#loc27 = loc("/projects/kzhou6/hwu27/triton-beta-3-paper-solver-wt/third_party/tlx/tools/sched2tlx/examples/case4_FA_bwd/handwritten_nows.py":84:21)
#loc28 = loc("/projects/kzhou6/hwu27/triton-beta-3-paper-solver-wt/third_party/tlx/tools/sched2tlx/examples/case4_FA_bwd/handwritten_nows.py":84:13)
#loc29 = loc("/projects/kzhou6/hwu27/triton-beta-3-paper-solver-wt/third_party/tlx/tools/sched2tlx/examples/case4_FA_bwd/handwritten_nows.py":85:22)
#loc30 = loc("/projects/kzhou6/hwu27/triton-beta-3-paper-solver-wt/third_party/tlx/tools/sched2tlx/examples/case4_FA_bwd/handwritten_nows.py":85:14)
#loc31 = loc("/projects/kzhou6/hwu27/triton-beta-3-paper-solver-wt/third_party/tlx/tools/sched2tlx/examples/case4_FA_bwd/handwritten_nows.py":87:25)
#loc32 = loc("/projects/kzhou6/hwu27/triton-beta-3-paper-solver-wt/third_party/tlx/tools/sched2tlx/examples/case4_FA_bwd/handwritten_nows.py":87:15)
#loc33 = loc("/projects/kzhou6/hwu27/triton-beta-3-paper-solver-wt/third_party/tlx/tools/sched2tlx/examples/case4_FA_bwd/handwritten_nows.py":90:27)
#loc34 = loc("/projects/kzhou6/hwu27/triton-beta-3-paper-solver-wt/third_party/tlx/tools/sched2tlx/examples/case4_FA_bwd/handwritten_nows.py":90:54)
#loc35 = loc("/projects/kzhou6/hwu27/triton-beta-3-paper-solver-wt/third_party/tlx/tools/sched2tlx/examples/case4_FA_bwd/handwritten_nows.py":90:14)
#loc36 = loc("/projects/kzhou6/hwu27/triton-beta-3-paper-solver-wt/third_party/tlx/tools/sched2tlx/examples/case4_FA_bwd/handwritten_nows.py":91:15)
#loc37 = loc("/projects/kzhou6/hwu27/triton-beta-3-paper-solver-wt/third_party/tlx/tools/sched2tlx/examples/case4_FA_bwd/handwritten_nows.py":92:25)
#loc38 = loc("/projects/kzhou6/hwu27/triton-beta-3-paper-solver-wt/third_party/tlx/tools/sched2tlx/examples/case4_FA_bwd/handwritten_nows.py":92:15)
#loc39 = loc("/projects/kzhou6/hwu27/triton-beta-3-paper-solver-wt/third_party/tlx/tools/sched2tlx/examples/case4_FA_bwd/handwritten_nows.py":93:19)
#loc40 = loc("/projects/kzhou6/hwu27/triton-beta-3-paper-solver-wt/third_party/tlx/tools/sched2tlx/examples/case4_FA_bwd/handwritten_nows.py":93:9)
#loc41 = loc("/projects/kzhou6/hwu27/triton-beta-3-paper-solver-wt/third_party/tlx/tools/sched2tlx/examples/case4_FA_bwd/handwritten_nows.py":94:28)
#loc42 = loc("/projects/kzhou6/hwu27/triton-beta-3-paper-solver-wt/third_party/tlx/tools/sched2tlx/examples/case4_FA_bwd/handwritten_nows.py":94:22)
#loc43 = loc("/projects/kzhou6/hwu27/triton-beta-3-paper-solver-wt/third_party/tlx/tools/sched2tlx/examples/case4_FA_bwd/handwritten_nows.py":94:16)
#loc44 = loc("/projects/kzhou6/hwu27/triton-beta-3-paper-solver-wt/third_party/tlx/tools/sched2tlx/examples/case4_FA_bwd/handwritten_nows.py":94:15)
#loc45 = loc("/projects/kzhou6/hwu27/triton-beta-3-paper-solver-wt/third_party/tlx/tools/sched2tlx/examples/case4_FA_bwd/handwritten_nows.py":95:29)
#loc46 = loc("/projects/kzhou6/hwu27/triton-beta-3-paper-solver-wt/third_party/tlx/tools/sched2tlx/examples/case4_FA_bwd/handwritten_nows.py":95:22)
#loc47 = loc("/projects/kzhou6/hwu27/triton-beta-3-paper-solver-wt/third_party/tlx/tools/sched2tlx/examples/case4_FA_bwd/handwritten_nows.py":96:42)
#loc48 = loc("/projects/kzhou6/hwu27/triton-beta-3-paper-solver-wt/third_party/tlx/tools/sched2tlx/examples/case4_FA_bwd/handwritten_nows.py":96:9)
#loc49 = loc("/projects/kzhou6/hwu27/triton-beta-3-paper-solver-wt/third_party/tlx/tools/sched2tlx/examples/case4_FA_bwd/handwritten_nows.py":97:19)
#loc50 = loc("/projects/kzhou6/hwu27/triton-beta-3-paper-solver-wt/third_party/tlx/tools/sched2tlx/examples/case4_FA_bwd/handwritten_nows.py":97:9)
#loc51 = loc("/projects/kzhou6/hwu27/triton-beta-3-paper-solver-wt/third_party/tlx/tools/sched2tlx/examples/case4_FA_bwd/handwritten_nows.py":100:9)
#loc52 = loc("/projects/kzhou6/hwu27/triton-beta-3-paper-solver-wt/third_party/tlx/tools/sched2tlx/examples/case4_FA_bwd/handwritten_nows.py":99:15)
#loc53 = loc("/projects/kzhou6/hwu27/triton-beta-3-paper-solver-wt/third_party/tlx/tools/sched2tlx/examples/case4_FA_bwd/handwritten_nows.py":103:9)
#loc54 = loc("/projects/kzhou6/hwu27/triton-beta-3-paper-solver-wt/third_party/tlx/tools/sched2tlx/examples/case4_FA_bwd/handwritten_nows.py":102:15)
#loc55 = loc("/projects/kzhou6/hwu27/triton-beta-3-paper-solver-wt/third_party/tlx/tools/sched2tlx/examples/case4_FA_bwd/handwritten_nows.py":105:33)
#loc56 = loc("/projects/kzhou6/hwu27/triton-beta-3-paper-solver-wt/third_party/tlx/tools/sched2tlx/examples/case4_FA_bwd/handwritten_nows.py":105:5)
#loc57 = loc("/projects/kzhou6/hwu27/triton-beta-3-paper-solver-wt/third_party/tlx/tools/sched2tlx/examples/case4_FA_bwd/handwritten_nows.py":106:33)
#loc58 = loc("/projects/kzhou6/hwu27/triton-beta-3-paper-solver-wt/third_party/tlx/tools/sched2tlx/examples/case4_FA_bwd/handwritten_nows.py":106:5)
#loc59 = loc("/projects/kzhou6/hwu27/triton-beta-3-paper-solver-wt/python/triton/language/standard.py":120:1)
#loc72 = loc("pid_n"(#loc3))
#loc73 = loc("off_hz"(#loc4))
#loc74 = loc("base"(#loc5))
#loc75 = loc("start_n"(#loc6))
#loc76 = loc("k_desc"(#loc7))
#loc77 = loc("k_desc"(#loc8))
#loc78 = loc("v_desc"(#loc9))
#loc79 = loc("v_desc"(#loc10))
#loc80 = loc("q_desc"(#loc11))
#loc81 = loc("q_desc"(#loc12))
#loc82 = loc("do_desc"(#loc13))
#loc83 = loc("do_desc"(#loc14))
#loc84 = loc("dq_desc"(#loc15))
#loc85 = loc("dq_desc"(#loc16))
#loc86 = loc("k"(#loc17))
#loc87 = loc("v"(#loc18))
#loc88 = loc("dk_acc"(#loc20))
#loc89 = loc("dv_acc"(#loc21))
#loc90 = loc("m_base"(#loc22))
#loc91 = loc("dk_acc"(#loc1))
#loc92 = loc("q"(#loc23))
#loc93 = loc("do"(#loc24))
#loc94 = loc("offs_m"(#loc25))
#loc95 = loc("offs_m"(#loc26))
#loc96 = loc("m"(#loc27))
#loc97 = loc("m"(#loc28))
#loc98 = loc("Di"(#loc29))
#loc99 = loc("Di"(#loc30))
#loc100 = loc("qkT"(#loc31))
#loc101 = loc("qkT"(#loc32))
#loc102 = loc("pT"(#loc33))
#loc103 = loc("pT"(#loc34))
#loc104 = loc("pT"(#loc35))
#loc105 = loc("ppT"(#loc36))
#loc106 = loc("dpT"(#loc37))
#loc107 = loc("dpT"(#loc38))
#loc108 = loc("dv_acc"(#loc39))
#loc109 = loc("dv_acc"(#loc40))
#loc110 = loc("dsT"(#loc41))
#loc111 = loc("dsT"(#loc42))
#loc112 = loc("dsT"(#loc43))
#loc113 = loc("dsT"(#loc44))
#loc114 = loc("dq_partial"(#loc45))
#loc115 = loc("dq_partial"(#loc46))
#loc116 = loc("dk_acc"(#loc49))
#loc117 = loc("dk_acc"(#loc50))
#loc118 = loc("dk_desc"(#loc51))
#loc119 = loc("dk_desc"(#loc52))
#loc120 = loc("dv_desc"(#loc53))
#loc121 = loc("dv_desc"(#loc54))
#loc122 = loc(callsite(#loc19 at #loc88))
#loc123 = loc(callsite(#loc19 at #loc89))
#loc124 = loc("dv_acc"(#loc91))


// -----// IR Dump Before CanonicalizerPass: canonicalize{cse-between-iterations=false    max-iterations=10 max-num-rewrites=-1 region-simplify=normal test-convergence=false top-down=true} ('builtin.module' operation) //----- //
#loc = loc("/projects/kzhou6/hwu27/triton-beta-3-paper-solver-wt/third_party/tlx/tools/sched2tlx/examples/case4_FA_bwd/handwritten_nows.py":31:1)
#loc56 = loc("Q"(#loc))
#loc57 = loc("K"(#loc))
#loc58 = loc("V"(#loc))
#loc59 = loc("dO"(#loc))
#loc60 = loc("dQ"(#loc))
#loc61 = loc("dK"(#loc))
#loc62 = loc("dV"(#loc))
#loc63 = loc("M"(#loc))
#loc64 = loc("D"(#loc))
#loc65 = loc("stride_m"(#loc))
#loc66 = loc("stride_n"(#loc))
#loc67 = loc("N_CTX"(#loc))
module {
  tt.func public @fa_bwd_dkdv_5mma(%Q: !tt.ptr<f16> {tt.divisibility = 16 : i32} loc("Q"(#loc)), %K: !tt.ptr<f16> {tt.divisibility = 16 : i32} loc("K"(#loc)), %V: !tt.ptr<f16> {tt.divisibility = 16 : i32} loc("V"(#loc)), %dO: !tt.ptr<f16> {tt.divisibility = 16 : i32} loc("dO"(#loc)), %dQ: !tt.ptr<f16> {tt.divisibility = 16 : i32} loc("dQ"(#loc)), %dK: !tt.ptr<f16> {tt.divisibility = 16 : i32} loc("dK"(#loc)), %dV: !tt.ptr<f16> {tt.divisibility = 16 : i32} loc("dV"(#loc)), %M: !tt.ptr<f32> {tt.divisibility = 16 : i32} loc("M"(#loc)), %D: !tt.ptr<f32> {tt.divisibility = 16 : i32} loc("D"(#loc)), %stride_m: i32 {tt.divisibility = 16 : i32} loc("stride_m"(#loc)), %stride_n: i32 {tt.divisibility = 16 : i32} loc("stride_n"(#loc)), %N_CTX: i32 {tt.divisibility = 16 : i32} loc("N_CTX"(#loc))) attributes {noinline = false} {
    %c64_i32 = arith.constant 64 : i32 loc(#loc1)
    %cst = arith.constant dense<0.000000e+00> : tensor<64x128xf32> loc(#loc2)
    %cst_0 = arith.constant dense<0.000000e+00> : tensor<128x128xf32> loc(#loc2)
    %cst_1 = arith.constant dense<1.44269502> : tensor<128x64xf32> loc(#loc2)
    %cst_2 = arith.constant dense<0.000000e+00> : tensor<128x64xf32> loc(#loc2)
    %c0_i32 = arith.constant 0 : i32 loc(#loc2)
    %c1_i64 = arith.constant 1 : i64 loc(#loc2)
    %c128_i32 = arith.constant 128 : i32 loc(#loc2)
    %pid_n = tt.get_program_id x : i32 loc(#loc68)
    %off_hz = tt.get_program_id y : i32 loc(#loc69)
    %base = arith.muli %off_hz, %N_CTX : i32 loc(#loc70)
    %base_3 = arith.muli %base, %c128_i32 : i32 loc(#loc70)
    %start_n = arith.muli %pid_n, %c128_i32 : i32 loc(#loc71)
    %k_desc = tt.addptr %K, %base_3 : !tt.ptr<f16>, i32 loc(#loc72)
    %k_desc_4 = arith.extsi %stride_n : i32 to i64 loc(#loc73)
    %k_desc_5 = tt.make_tensor_descriptor %k_desc, [%N_CTX, %c128_i32], [%k_desc_4, %c1_i64] : !tt.ptr<f16>, !tt.tensordesc<128x128xf16> loc(#loc73)
    %v_desc = tt.addptr %V, %base_3 : !tt.ptr<f16>, i32 loc(#loc74)
    %v_desc_6 = arith.extsi %stride_n : i32 to i64 loc(#loc75)
    %v_desc_7 = tt.make_tensor_descriptor %v_desc, [%N_CTX, %c128_i32], [%v_desc_6, %c1_i64] : !tt.ptr<f16>, !tt.tensordesc<128x128xf16> loc(#loc75)
    %q_desc = tt.addptr %Q, %base_3 : !tt.ptr<f16>, i32 loc(#loc76)
    %q_desc_8 = arith.extsi %stride_m : i32 to i64 loc(#loc77)
    %q_desc_9 = tt.make_tensor_descriptor %q_desc, [%N_CTX, %c128_i32], [%q_desc_8, %c1_i64] : !tt.ptr<f16>, !tt.tensordesc<64x128xf16> loc(#loc77)
    %do_desc = tt.addptr %dO, %base_3 : !tt.ptr<f16>, i32 loc(#loc78)
    %do_desc_10 = arith.extsi %stride_m : i32 to i64 loc(#loc79)
    %do_desc_11 = tt.make_tensor_descriptor %do_desc, [%N_CTX, %c128_i32], [%do_desc_10, %c1_i64] : !tt.ptr<f16>, !tt.tensordesc<64x128xf16> loc(#loc79)
    %dq_desc = tt.addptr %dQ, %base_3 : !tt.ptr<f16>, i32 loc(#loc80)
    %dq_desc_12 = arith.extsi %stride_m : i32 to i64 loc(#loc81)
    %dq_desc_13 = tt.make_tensor_descriptor %dq_desc, [%N_CTX, %c128_i32], [%dq_desc_12, %c1_i64] : !tt.ptr<f16>, !tt.tensordesc<64x128xf16> loc(#loc81)
    %k = tt.descriptor_load %k_desc_5[%start_n, %c0_i32] : !tt.tensordesc<128x128xf16> -> tensor<128x128xf16> loc(#loc82)
    %v = tt.descriptor_load %v_desc_7[%start_n, %c0_i32] : !tt.tensordesc<128x128xf16> -> tensor<128x128xf16> loc(#loc83)
    %m_base = arith.muli %off_hz, %N_CTX : i32 loc(#loc84)
    %dv_acc:2 = scf.for %start_m = %c0_i32 to %N_CTX step %c64_i32 iter_args(%dk_acc = %cst_0, %dv_acc_18 = %cst_0) -> (tensor<128x128xf32>, tensor<128x128xf32>)  : i32 {
      %q = tt.descriptor_load %q_desc_9[%start_m, %c0_i32] : !tt.tensordesc<64x128xf16> -> tensor<64x128xf16> loc(#loc86)
      %do = tt.descriptor_load %do_desc_11[%start_m, %c0_i32] : !tt.tensordesc<64x128xf16> -> tensor<64x128xf16> loc(#loc87)
      %offs_m = tt.make_range {end = 64 : i32, start = 0 : i32} : tensor<64xi32> loc(#loc88)
      %offs_m_19 = tt.splat %start_m : i32 -> tensor<64xi32> loc(#loc89)
      %offs_m_20 = arith.addi %offs_m_19, %offs_m : tensor<64xi32> loc(#loc89)
      %m = tt.addptr %M, %m_base : !tt.ptr<f32>, i32 loc(#loc90)
      %m_21 = tt.splat %m : !tt.ptr<f32> -> tensor<64x!tt.ptr<f32>> loc(#loc90)
      %m_22 = tt.addptr %m_21, %offs_m_20 : tensor<64x!tt.ptr<f32>>, tensor<64xi32> loc(#loc90)
      %m_23 = tt.load %m_22 : tensor<64x!tt.ptr<f32>> loc(#loc91)
      %Di = tt.addptr %D, %m_base : !tt.ptr<f32>, i32 loc(#loc92)
      %Di_24 = tt.splat %Di : !tt.ptr<f32> -> tensor<64x!tt.ptr<f32>> loc(#loc92)
      %Di_25 = tt.addptr %Di_24, %offs_m_20 : tensor<64x!tt.ptr<f32>>, tensor<64xi32> loc(#loc92)
      %Di_26 = tt.load %Di_25 : tensor<64x!tt.ptr<f32>> loc(#loc93)
      %qkT = tt.trans %q {order = array<i32: 1, 0>} : tensor<64x128xf16> -> tensor<128x64xf16> loc(#loc94)
      %qkT_27 = tt.dot %k, %qkT, %cst_2, inputPrecision = tf32 : tensor<128x128xf16> * tensor<128x64xf16> -> tensor<128x64xf32> loc(#loc95)
      %pT = arith.mulf %qkT_27, %cst_1 : tensor<128x64xf32> loc(#loc96)
      %pT_28 = tt.expand_dims %m_23 {axis = 0 : i32} : tensor<64xf32> -> tensor<1x64xf32> loc(#loc97)
      %pT_29 = tt.broadcast %pT_28 : tensor<1x64xf32> -> tensor<128x64xf32> loc(#loc96)
      %pT_30 = arith.subf %pT, %pT_29 : tensor<128x64xf32> loc(#loc96)
      %pT_31 = math.exp2 %pT_30 : tensor<128x64xf32> loc(#loc98)
      %ppT = arith.truncf %pT_31 : tensor<128x64xf32> to tensor<128x64xf16> loc(#loc99)
      %dpT = tt.trans %do {order = array<i32: 1, 0>} : tensor<64x128xf16> -> tensor<128x64xf16> loc(#loc100)
      %dpT_32 = tt.dot %v, %dpT, %cst_2, inputPrecision = tf32 : tensor<128x128xf16> * tensor<128x64xf16> -> tensor<128x64xf32> loc(#loc101)
      %dv_acc_33 = tt.dot %ppT, %do, %cst_0, inputPrecision = tf32 : tensor<128x64xf16> * tensor<64x128xf16> -> tensor<128x128xf32> loc(#loc102)
      %dv_acc_34 = arith.addf %dv_acc_18, %dv_acc_33 : tensor<128x128xf32> loc(#loc103)
      %dsT = tt.expand_dims %Di_26 {axis = 0 : i32} : tensor<64xf32> -> tensor<1x64xf32> loc(#loc104)
      %dsT_35 = tt.broadcast %dsT : tensor<1x64xf32> -> tensor<128x64xf32> loc(#loc105)
      %dsT_36 = arith.subf %dpT_32, %dsT_35 : tensor<128x64xf32> loc(#loc105)
      %dsT_37 = arith.mulf %pT_31, %dsT_36 : tensor<128x64xf32> loc(#loc106)
      %dsT_38 = arith.truncf %dsT_37 : tensor<128x64xf32> to tensor<128x64xf16> loc(#loc107)
      %dq_partial = tt.trans %dsT_38 {order = array<i32: 1, 0>} : tensor<128x64xf16> -> tensor<64x128xf16> loc(#loc108)
      %dq_partial_39 = tt.dot %dq_partial, %k, %cst, inputPrecision = tf32 : tensor<64x128xf16> * tensor<128x128xf16> -> tensor<64x128xf32> loc(#loc109)
      %2 = arith.truncf %dq_partial_39 : tensor<64x128xf32> to tensor<64x128xf16> loc(#loc44)
      tt.descriptor_reduce add, %dq_desc_13[%start_m, %c0_i32], %2 : !tt.tensordesc<64x128xf16>, tensor<64x128xf16> loc(#loc45)
      %dk_acc_40 = tt.dot %dsT_38, %q, %cst_0, inputPrecision = tf32 : tensor<128x64xf16> * tensor<64x128xf16> -> tensor<128x128xf32> loc(#loc110)
      %dk_acc_41 = arith.addf %dk_acc, %dk_acc_40 : tensor<128x128xf32> loc(#loc111)
      scf.yield %dk_acc_41, %dv_acc_34 : tensor<128x128xf32>, tensor<128x128xf32> loc(#loc1)
    } {tt.warp_specialize} loc(#loc116)
    %dk_desc = tt.addptr %dK, %base_3 : !tt.ptr<f16>, i32 loc(#loc112)
    %dk_desc_14 = arith.extsi %stride_n : i32 to i64 loc(#loc113)
    %dk_desc_15 = tt.make_tensor_descriptor %dk_desc, [%N_CTX, %c128_i32], [%dk_desc_14, %c1_i64] : !tt.ptr<f16>, !tt.tensordesc<128x128xf16> loc(#loc113)
    %dv_desc = tt.addptr %dV, %base_3 : !tt.ptr<f16>, i32 loc(#loc114)
    %dv_desc_16 = arith.extsi %stride_n : i32 to i64 loc(#loc115)
    %dv_desc_17 = tt.make_tensor_descriptor %dv_desc, [%N_CTX, %c128_i32], [%dv_desc_16, %c1_i64] : !tt.ptr<f16>, !tt.tensordesc<128x128xf16> loc(#loc115)
    %0 = arith.truncf %dv_acc#0 : tensor<128x128xf32> to tensor<128x128xf16> loc(#loc52)
    tt.descriptor_store %dk_desc_15[%start_n, %c0_i32], %0 : !tt.tensordesc<128x128xf16>, tensor<128x128xf16> loc(#loc53)
    %1 = arith.truncf %dv_acc#1 : tensor<128x128xf32> to tensor<128x128xf16> loc(#loc54)
    tt.descriptor_store %dv_desc_17[%start_n, %c0_i32], %1 : !tt.tensordesc<128x128xf16>, tensor<128x128xf16> loc(#loc55)
    tt.return loc(#loc)
  } loc(#loc)
} loc(#loc)
#loc1 = loc("/projects/kzhou6/hwu27/triton-beta-3-paper-solver-wt/third_party/tlx/tools/sched2tlx/examples/case4_FA_bwd/handwritten_nows.py":79:5)
#loc2 = loc(unknown)
#loc3 = loc("/projects/kzhou6/hwu27/triton-beta-3-paper-solver-wt/third_party/tlx/tools/sched2tlx/examples/case4_FA_bwd/handwritten_nows.py":49:13)
#loc4 = loc("/projects/kzhou6/hwu27/triton-beta-3-paper-solver-wt/third_party/tlx/tools/sched2tlx/examples/case4_FA_bwd/handwritten_nows.py":50:14)
#loc5 = loc("/projects/kzhou6/hwu27/triton-beta-3-paper-solver-wt/third_party/tlx/tools/sched2tlx/examples/case4_FA_bwd/handwritten_nows.py":52:12)
#loc6 = loc("/projects/kzhou6/hwu27/triton-beta-3-paper-solver-wt/third_party/tlx/tools/sched2tlx/examples/case4_FA_bwd/handwritten_nows.py":53:15)
#loc7 = loc("/projects/kzhou6/hwu27/triton-beta-3-paper-solver-wt/third_party/tlx/tools/sched2tlx/examples/case4_FA_bwd/handwritten_nows.py":56:9)
#loc8 = loc("/projects/kzhou6/hwu27/triton-beta-3-paper-solver-wt/third_party/tlx/tools/sched2tlx/examples/case4_FA_bwd/handwritten_nows.py":55:14)
#loc9 = loc("/projects/kzhou6/hwu27/triton-beta-3-paper-solver-wt/third_party/tlx/tools/sched2tlx/examples/case4_FA_bwd/handwritten_nows.py":59:9)
#loc10 = loc("/projects/kzhou6/hwu27/triton-beta-3-paper-solver-wt/third_party/tlx/tools/sched2tlx/examples/case4_FA_bwd/handwritten_nows.py":58:14)
#loc11 = loc("/projects/kzhou6/hwu27/triton-beta-3-paper-solver-wt/third_party/tlx/tools/sched2tlx/examples/case4_FA_bwd/handwritten_nows.py":62:9)
#loc12 = loc("/projects/kzhou6/hwu27/triton-beta-3-paper-solver-wt/third_party/tlx/tools/sched2tlx/examples/case4_FA_bwd/handwritten_nows.py":61:14)
#loc13 = loc("/projects/kzhou6/hwu27/triton-beta-3-paper-solver-wt/third_party/tlx/tools/sched2tlx/examples/case4_FA_bwd/handwritten_nows.py":65:9)
#loc14 = loc("/projects/kzhou6/hwu27/triton-beta-3-paper-solver-wt/third_party/tlx/tools/sched2tlx/examples/case4_FA_bwd/handwritten_nows.py":64:15)
#loc15 = loc("/projects/kzhou6/hwu27/triton-beta-3-paper-solver-wt/third_party/tlx/tools/sched2tlx/examples/case4_FA_bwd/handwritten_nows.py":68:9)
#loc16 = loc("/projects/kzhou6/hwu27/triton-beta-3-paper-solver-wt/third_party/tlx/tools/sched2tlx/examples/case4_FA_bwd/handwritten_nows.py":67:15)
#loc17 = loc("/projects/kzhou6/hwu27/triton-beta-3-paper-solver-wt/third_party/tlx/tools/sched2tlx/examples/case4_FA_bwd/handwritten_nows.py":71:9)
#loc18 = loc("/projects/kzhou6/hwu27/triton-beta-3-paper-solver-wt/third_party/tlx/tools/sched2tlx/examples/case4_FA_bwd/handwritten_nows.py":72:9)
#loc19 = loc("/projects/kzhou6/hwu27/triton-beta-3-paper-solver-wt/third_party/tlx/tools/sched2tlx/examples/case4_FA_bwd/handwritten_nows.py":77:14)
#loc20 = loc("/projects/kzhou6/hwu27/triton-beta-3-paper-solver-wt/third_party/tlx/tools/sched2tlx/examples/case4_FA_bwd/handwritten_nows.py":80:13)
#loc21 = loc("/projects/kzhou6/hwu27/triton-beta-3-paper-solver-wt/third_party/tlx/tools/sched2tlx/examples/case4_FA_bwd/handwritten_nows.py":81:14)
#loc22 = loc("/projects/kzhou6/hwu27/triton-beta-3-paper-solver-wt/third_party/tlx/tools/sched2tlx/examples/case4_FA_bwd/handwritten_nows.py":83:28)
#loc23 = loc("/projects/kzhou6/hwu27/triton-beta-3-paper-solver-wt/third_party/tlx/tools/sched2tlx/examples/case4_FA_bwd/handwritten_nows.py":83:18)
#loc24 = loc("/projects/kzhou6/hwu27/triton-beta-3-paper-solver-wt/third_party/tlx/tools/sched2tlx/examples/case4_FA_bwd/handwritten_nows.py":84:21)
#loc25 = loc("/projects/kzhou6/hwu27/triton-beta-3-paper-solver-wt/third_party/tlx/tools/sched2tlx/examples/case4_FA_bwd/handwritten_nows.py":84:13)
#loc26 = loc("/projects/kzhou6/hwu27/triton-beta-3-paper-solver-wt/third_party/tlx/tools/sched2tlx/examples/case4_FA_bwd/handwritten_nows.py":85:22)
#loc27 = loc("/projects/kzhou6/hwu27/triton-beta-3-paper-solver-wt/third_party/tlx/tools/sched2tlx/examples/case4_FA_bwd/handwritten_nows.py":85:14)
#loc28 = loc("/projects/kzhou6/hwu27/triton-beta-3-paper-solver-wt/third_party/tlx/tools/sched2tlx/examples/case4_FA_bwd/handwritten_nows.py":87:25)
#loc29 = loc("/projects/kzhou6/hwu27/triton-beta-3-paper-solver-wt/third_party/tlx/tools/sched2tlx/examples/case4_FA_bwd/handwritten_nows.py":87:15)
#loc30 = loc("/projects/kzhou6/hwu27/triton-beta-3-paper-solver-wt/third_party/tlx/tools/sched2tlx/examples/case4_FA_bwd/handwritten_nows.py":90:27)
#loc31 = loc("/projects/kzhou6/hwu27/triton-beta-3-paper-solver-wt/third_party/tlx/tools/sched2tlx/examples/case4_FA_bwd/handwritten_nows.py":90:54)
#loc32 = loc("/projects/kzhou6/hwu27/triton-beta-3-paper-solver-wt/third_party/tlx/tools/sched2tlx/examples/case4_FA_bwd/handwritten_nows.py":90:14)
#loc33 = loc("/projects/kzhou6/hwu27/triton-beta-3-paper-solver-wt/third_party/tlx/tools/sched2tlx/examples/case4_FA_bwd/handwritten_nows.py":91:15)
#loc34 = loc("/projects/kzhou6/hwu27/triton-beta-3-paper-solver-wt/third_party/tlx/tools/sched2tlx/examples/case4_FA_bwd/handwritten_nows.py":92:25)
#loc35 = loc("/projects/kzhou6/hwu27/triton-beta-3-paper-solver-wt/third_party/tlx/tools/sched2tlx/examples/case4_FA_bwd/handwritten_nows.py":92:15)
#loc36 = loc("/projects/kzhou6/hwu27/triton-beta-3-paper-solver-wt/third_party/tlx/tools/sched2tlx/examples/case4_FA_bwd/handwritten_nows.py":93:19)
#loc37 = loc("/projects/kzhou6/hwu27/triton-beta-3-paper-solver-wt/third_party/tlx/tools/sched2tlx/examples/case4_FA_bwd/handwritten_nows.py":93:9)
#loc38 = loc("/projects/kzhou6/hwu27/triton-beta-3-paper-solver-wt/third_party/tlx/tools/sched2tlx/examples/case4_FA_bwd/handwritten_nows.py":94:28)
#loc39 = loc("/projects/kzhou6/hwu27/triton-beta-3-paper-solver-wt/third_party/tlx/tools/sched2tlx/examples/case4_FA_bwd/handwritten_nows.py":94:22)
#loc40 = loc("/projects/kzhou6/hwu27/triton-beta-3-paper-solver-wt/third_party/tlx/tools/sched2tlx/examples/case4_FA_bwd/handwritten_nows.py":94:16)
#loc41 = loc("/projects/kzhou6/hwu27/triton-beta-3-paper-solver-wt/third_party/tlx/tools/sched2tlx/examples/case4_FA_bwd/handwritten_nows.py":94:15)
#loc42 = loc("/projects/kzhou6/hwu27/triton-beta-3-paper-solver-wt/third_party/tlx/tools/sched2tlx/examples/case4_FA_bwd/handwritten_nows.py":95:29)
#loc43 = loc("/projects/kzhou6/hwu27/triton-beta-3-paper-solver-wt/third_party/tlx/tools/sched2tlx/examples/case4_FA_bwd/handwritten_nows.py":95:22)
#loc44 = loc("/projects/kzhou6/hwu27/triton-beta-3-paper-solver-wt/third_party/tlx/tools/sched2tlx/examples/case4_FA_bwd/handwritten_nows.py":96:42)
#loc45 = loc("/projects/kzhou6/hwu27/triton-beta-3-paper-solver-wt/third_party/tlx/tools/sched2tlx/examples/case4_FA_bwd/handwritten_nows.py":96:9)
#loc46 = loc("/projects/kzhou6/hwu27/triton-beta-3-paper-solver-wt/third_party/tlx/tools/sched2tlx/examples/case4_FA_bwd/handwritten_nows.py":97:19)
#loc47 = loc("/projects/kzhou6/hwu27/triton-beta-3-paper-solver-wt/third_party/tlx/tools/sched2tlx/examples/case4_FA_bwd/handwritten_nows.py":97:9)
#loc48 = loc("/projects/kzhou6/hwu27/triton-beta-3-paper-solver-wt/third_party/tlx/tools/sched2tlx/examples/case4_FA_bwd/handwritten_nows.py":100:9)
#loc49 = loc("/projects/kzhou6/hwu27/triton-beta-3-paper-solver-wt/third_party/tlx/tools/sched2tlx/examples/case4_FA_bwd/handwritten_nows.py":99:15)
#loc50 = loc("/projects/kzhou6/hwu27/triton-beta-3-paper-solver-wt/third_party/tlx/tools/sched2tlx/examples/case4_FA_bwd/handwritten_nows.py":103:9)
#loc51 = loc("/projects/kzhou6/hwu27/triton-beta-3-paper-solver-wt/third_party/tlx/tools/sched2tlx/examples/case4_FA_bwd/handwritten_nows.py":102:15)
#loc52 = loc("/projects/kzhou6/hwu27/triton-beta-3-paper-solver-wt/third_party/tlx/tools/sched2tlx/examples/case4_FA_bwd/handwritten_nows.py":105:33)
#loc53 = loc("/projects/kzhou6/hwu27/triton-beta-3-paper-solver-wt/third_party/tlx/tools/sched2tlx/examples/case4_FA_bwd/handwritten_nows.py":105:5)
#loc54 = loc("/projects/kzhou6/hwu27/triton-beta-3-paper-solver-wt/third_party/tlx/tools/sched2tlx/examples/case4_FA_bwd/handwritten_nows.py":106:33)
#loc55 = loc("/projects/kzhou6/hwu27/triton-beta-3-paper-solver-wt/third_party/tlx/tools/sched2tlx/examples/case4_FA_bwd/handwritten_nows.py":106:5)
#loc68 = loc("pid_n"(#loc3))
#loc69 = loc("off_hz"(#loc4))
#loc70 = loc("base"(#loc5))
#loc71 = loc("start_n"(#loc6))
#loc72 = loc("k_desc"(#loc7))
#loc73 = loc("k_desc"(#loc8))
#loc74 = loc("v_desc"(#loc9))
#loc75 = loc("v_desc"(#loc10))
#loc76 = loc("q_desc"(#loc11))
#loc77 = loc("q_desc"(#loc12))
#loc78 = loc("do_desc"(#loc13))
#loc79 = loc("do_desc"(#loc14))
#loc80 = loc("dq_desc"(#loc15))
#loc81 = loc("dq_desc"(#loc16))
#loc82 = loc("k"(#loc17))
#loc83 = loc("v"(#loc18))
#loc84 = loc("m_base"(#loc19))
#loc85 = loc("dk_acc"(#loc1))
#loc86 = loc("q"(#loc20))
#loc87 = loc("do"(#loc21))
#loc88 = loc("offs_m"(#loc22))
#loc89 = loc("offs_m"(#loc23))
#loc90 = loc("m"(#loc24))
#loc91 = loc("m"(#loc25))
#loc92 = loc("Di"(#loc26))
#loc93 = loc("Di"(#loc27))
#loc94 = loc("qkT"(#loc28))
#loc95 = loc("qkT"(#loc29))
#loc96 = loc("pT"(#loc30))
#loc97 = loc("pT"(#loc31))
#loc98 = loc("pT"(#loc32))
#loc99 = loc("ppT"(#loc33))
#loc100 = loc("dpT"(#loc34))
#loc101 = loc("dpT"(#loc35))
#loc102 = loc("dv_acc"(#loc36))
#loc103 = loc("dv_acc"(#loc37))
#loc104 = loc("dsT"(#loc38))
#loc105 = loc("dsT"(#loc39))
#loc106 = loc("dsT"(#loc40))
#loc107 = loc("dsT"(#loc41))
#loc108 = loc("dq_partial"(#loc42))
#loc109 = loc("dq_partial"(#loc43))
#loc110 = loc("dk_acc"(#loc46))
#loc111 = loc("dk_acc"(#loc47))
#loc112 = loc("dk_desc"(#loc48))
#loc113 = loc("dk_desc"(#loc49))
#loc114 = loc("dv_desc"(#loc50))
#loc115 = loc("dv_desc"(#loc51))
#loc116 = loc("dv_acc"(#loc85))


// -----// IR Dump Before TritonSimplifySingleTripWhile: triton-simplify-single-trip-while ('builtin.module' operation) //----- //
#loc = loc("/projects/kzhou6/hwu27/triton-beta-3-paper-solver-wt/third_party/tlx/tools/sched2tlx/examples/case4_FA_bwd/handwritten_nows.py":31:1)
#loc56 = loc("Q"(#loc))
#loc57 = loc("K"(#loc))
#loc58 = loc("V"(#loc))
#loc59 = loc("dO"(#loc))
#loc60 = loc("dQ"(#loc))
#loc61 = loc("dK"(#loc))
#loc62 = loc("dV"(#loc))
#loc63 = loc("M"(#loc))
#loc64 = loc("D"(#loc))
#loc65 = loc("stride_m"(#loc))
#loc66 = loc("stride_n"(#loc))
#loc67 = loc("N_CTX"(#loc))
module {
  tt.func public @fa_bwd_dkdv_5mma(%Q: !tt.ptr<f16> {tt.divisibility = 16 : i32} loc("Q"(#loc)), %K: !tt.ptr<f16> {tt.divisibility = 16 : i32} loc("K"(#loc)), %V: !tt.ptr<f16> {tt.divisibility = 16 : i32} loc("V"(#loc)), %dO: !tt.ptr<f16> {tt.divisibility = 16 : i32} loc("dO"(#loc)), %dQ: !tt.ptr<f16> {tt.divisibility = 16 : i32} loc("dQ"(#loc)), %dK: !tt.ptr<f16> {tt.divisibility = 16 : i32} loc("dK"(#loc)), %dV: !tt.ptr<f16> {tt.divisibility = 16 : i32} loc("dV"(#loc)), %M: !tt.ptr<f32> {tt.divisibility = 16 : i32} loc("M"(#loc)), %D: !tt.ptr<f32> {tt.divisibility = 16 : i32} loc("D"(#loc)), %stride_m: i32 {tt.divisibility = 16 : i32} loc("stride_m"(#loc)), %stride_n: i32 {tt.divisibility = 16 : i32} loc("stride_n"(#loc)), %N_CTX: i32 {tt.divisibility = 16 : i32} loc("N_CTX"(#loc))) attributes {noinline = false} {
    %c64_i32 = arith.constant 64 : i32 loc(#loc1)
    %cst = arith.constant dense<0.000000e+00> : tensor<64x128xf32> loc(#loc2)
    %cst_0 = arith.constant dense<0.000000e+00> : tensor<128x128xf32> loc(#loc2)
    %cst_1 = arith.constant dense<1.44269502> : tensor<128x64xf32> loc(#loc2)
    %cst_2 = arith.constant dense<0.000000e+00> : tensor<128x64xf32> loc(#loc2)
    %c0_i32 = arith.constant 0 : i32 loc(#loc2)
    %c1_i64 = arith.constant 1 : i64 loc(#loc2)
    %c128_i32 = arith.constant 128 : i32 loc(#loc2)
    %pid_n = tt.get_program_id x : i32 loc(#loc68)
    %off_hz = tt.get_program_id y : i32 loc(#loc69)
    %base = arith.muli %off_hz, %N_CTX : i32 loc(#loc70)
    %base_3 = arith.muli %base, %c128_i32 : i32 loc(#loc70)
    %start_n = arith.muli %pid_n, %c128_i32 : i32 loc(#loc71)
    %k_desc = tt.addptr %K, %base_3 : !tt.ptr<f16>, i32 loc(#loc72)
    %k_desc_4 = arith.extsi %stride_n : i32 to i64 loc(#loc73)
    %k_desc_5 = tt.make_tensor_descriptor %k_desc, [%N_CTX, %c128_i32], [%k_desc_4, %c1_i64] : !tt.ptr<f16>, !tt.tensordesc<128x128xf16> loc(#loc73)
    %v_desc = tt.addptr %V, %base_3 : !tt.ptr<f16>, i32 loc(#loc74)
    %v_desc_6 = arith.extsi %stride_n : i32 to i64 loc(#loc75)
    %v_desc_7 = tt.make_tensor_descriptor %v_desc, [%N_CTX, %c128_i32], [%v_desc_6, %c1_i64] : !tt.ptr<f16>, !tt.tensordesc<128x128xf16> loc(#loc75)
    %q_desc = tt.addptr %Q, %base_3 : !tt.ptr<f16>, i32 loc(#loc76)
    %q_desc_8 = arith.extsi %stride_m : i32 to i64 loc(#loc77)
    %q_desc_9 = tt.make_tensor_descriptor %q_desc, [%N_CTX, %c128_i32], [%q_desc_8, %c1_i64] : !tt.ptr<f16>, !tt.tensordesc<64x128xf16> loc(#loc77)
    %do_desc = tt.addptr %dO, %base_3 : !tt.ptr<f16>, i32 loc(#loc78)
    %do_desc_10 = arith.extsi %stride_m : i32 to i64 loc(#loc79)
    %do_desc_11 = tt.make_tensor_descriptor %do_desc, [%N_CTX, %c128_i32], [%do_desc_10, %c1_i64] : !tt.ptr<f16>, !tt.tensordesc<64x128xf16> loc(#loc79)
    %dq_desc = tt.addptr %dQ, %base_3 : !tt.ptr<f16>, i32 loc(#loc80)
    %dq_desc_12 = arith.extsi %stride_m : i32 to i64 loc(#loc81)
    %dq_desc_13 = tt.make_tensor_descriptor %dq_desc, [%N_CTX, %c128_i32], [%dq_desc_12, %c1_i64] : !tt.ptr<f16>, !tt.tensordesc<64x128xf16> loc(#loc81)
    %k = tt.descriptor_load %k_desc_5[%start_n, %c0_i32] : !tt.tensordesc<128x128xf16> -> tensor<128x128xf16> loc(#loc82)
    %v = tt.descriptor_load %v_desc_7[%start_n, %c0_i32] : !tt.tensordesc<128x128xf16> -> tensor<128x128xf16> loc(#loc83)
    %m_base = arith.muli %off_hz, %N_CTX : i32 loc(#loc84)
    %dv_acc:2 = scf.for %start_m = %c0_i32 to %N_CTX step %c64_i32 iter_args(%dk_acc = %cst_0, %dv_acc_18 = %cst_0) -> (tensor<128x128xf32>, tensor<128x128xf32>)  : i32 {
      %q = tt.descriptor_load %q_desc_9[%start_m, %c0_i32] : !tt.tensordesc<64x128xf16> -> tensor<64x128xf16> loc(#loc86)
      %do = tt.descriptor_load %do_desc_11[%start_m, %c0_i32] : !tt.tensordesc<64x128xf16> -> tensor<64x128xf16> loc(#loc87)
      %offs_m = tt.make_range {end = 64 : i32, start = 0 : i32} : tensor<64xi32> loc(#loc88)
      %offs_m_19 = tt.splat %start_m : i32 -> tensor<64xi32> loc(#loc89)
      %offs_m_20 = arith.addi %offs_m_19, %offs_m : tensor<64xi32> loc(#loc89)
      %m = tt.addptr %M, %m_base : !tt.ptr<f32>, i32 loc(#loc90)
      %m_21 = tt.splat %m : !tt.ptr<f32> -> tensor<64x!tt.ptr<f32>> loc(#loc90)
      %m_22 = tt.addptr %m_21, %offs_m_20 : tensor<64x!tt.ptr<f32>>, tensor<64xi32> loc(#loc90)
      %m_23 = tt.load %m_22 : tensor<64x!tt.ptr<f32>> loc(#loc91)
      %Di = tt.addptr %D, %m_base : !tt.ptr<f32>, i32 loc(#loc92)
      %Di_24 = tt.splat %Di : !tt.ptr<f32> -> tensor<64x!tt.ptr<f32>> loc(#loc92)
      %Di_25 = tt.addptr %Di_24, %offs_m_20 : tensor<64x!tt.ptr<f32>>, tensor<64xi32> loc(#loc92)
      %Di_26 = tt.load %Di_25 : tensor<64x!tt.ptr<f32>> loc(#loc93)
      %qkT = tt.trans %q {order = array<i32: 1, 0>} : tensor<64x128xf16> -> tensor<128x64xf16> loc(#loc94)
      %qkT_27 = tt.dot %k, %qkT, %cst_2, inputPrecision = tf32 : tensor<128x128xf16> * tensor<128x64xf16> -> tensor<128x64xf32> loc(#loc95)
      %pT = arith.mulf %qkT_27, %cst_1 : tensor<128x64xf32> loc(#loc96)
      %pT_28 = tt.expand_dims %m_23 {axis = 0 : i32} : tensor<64xf32> -> tensor<1x64xf32> loc(#loc97)
      %pT_29 = tt.broadcast %pT_28 : tensor<1x64xf32> -> tensor<128x64xf32> loc(#loc96)
      %pT_30 = arith.subf %pT, %pT_29 : tensor<128x64xf32> loc(#loc96)
      %pT_31 = math.exp2 %pT_30 : tensor<128x64xf32> loc(#loc98)
      %ppT = arith.truncf %pT_31 : tensor<128x64xf32> to tensor<128x64xf16> loc(#loc99)
      %dpT = tt.trans %do {order = array<i32: 1, 0>} : tensor<64x128xf16> -> tensor<128x64xf16> loc(#loc100)
      %dpT_32 = tt.dot %v, %dpT, %cst_2, inputPrecision = tf32 : tensor<128x128xf16> * tensor<128x64xf16> -> tensor<128x64xf32> loc(#loc101)
      %dv_acc_33 = tt.dot %ppT, %do, %cst_0, inputPrecision = tf32 : tensor<128x64xf16> * tensor<64x128xf16> -> tensor<128x128xf32> loc(#loc102)
      %dv_acc_34 = arith.addf %dv_acc_18, %dv_acc_33 : tensor<128x128xf32> loc(#loc103)
      %dsT = tt.expand_dims %Di_26 {axis = 0 : i32} : tensor<64xf32> -> tensor<1x64xf32> loc(#loc104)
      %dsT_35 = tt.broadcast %dsT : tensor<1x64xf32> -> tensor<128x64xf32> loc(#loc105)
      %dsT_36 = arith.subf %dpT_32, %dsT_35 : tensor<128x64xf32> loc(#loc105)
      %dsT_37 = arith.mulf %pT_31, %dsT_36 : tensor<128x64xf32> loc(#loc106)
      %dsT_38 = arith.truncf %dsT_37 : tensor<128x64xf32> to tensor<128x64xf16> loc(#loc107)
      %dq_partial = tt.trans %dsT_38 {order = array<i32: 1, 0>} : tensor<128x64xf16> -> tensor<64x128xf16> loc(#loc108)
      %dq_partial_39 = tt.dot %dq_partial, %k, %cst, inputPrecision = tf32 : tensor<64x128xf16> * tensor<128x128xf16> -> tensor<64x128xf32> loc(#loc109)
      %2 = arith.truncf %dq_partial_39 : tensor<64x128xf32> to tensor<64x128xf16> loc(#loc44)
      tt.descriptor_reduce add, %dq_desc_13[%start_m, %c0_i32], %2 : !tt.tensordesc<64x128xf16>, tensor<64x128xf16> loc(#loc45)
      %dk_acc_40 = tt.dot %dsT_38, %q, %cst_0, inputPrecision = tf32 : tensor<128x64xf16> * tensor<64x128xf16> -> tensor<128x128xf32> loc(#loc110)
      %dk_acc_41 = arith.addf %dk_acc, %dk_acc_40 : tensor<128x128xf32> loc(#loc111)
      scf.yield %dk_acc_41, %dv_acc_34 : tensor<128x128xf32>, tensor<128x128xf32> loc(#loc1)
    } {tt.warp_specialize} loc(#loc116)
    %dk_desc = tt.addptr %dK, %base_3 : !tt.ptr<f16>, i32 loc(#loc112)
    %dk_desc_14 = arith.extsi %stride_n : i32 to i64 loc(#loc113)
    %dk_desc_15 = tt.make_tensor_descriptor %dk_desc, [%N_CTX, %c128_i32], [%dk_desc_14, %c1_i64] : !tt.ptr<f16>, !tt.tensordesc<128x128xf16> loc(#loc113)
    %dv_desc = tt.addptr %dV, %base_3 : !tt.ptr<f16>, i32 loc(#loc114)
    %dv_desc_16 = arith.extsi %stride_n : i32 to i64 loc(#loc115)
    %dv_desc_17 = tt.make_tensor_descriptor %dv_desc, [%N_CTX, %c128_i32], [%dv_desc_16, %c1_i64] : !tt.ptr<f16>, !tt.tensordesc<128x128xf16> loc(#loc115)
    %0 = arith.truncf %dv_acc#0 : tensor<128x128xf32> to tensor<128x128xf16> loc(#loc52)
    tt.descriptor_store %dk_desc_15[%start_n, %c0_i32], %0 : !tt.tensordesc<128x128xf16>, tensor<128x128xf16> loc(#loc53)
    %1 = arith.truncf %dv_acc#1 : tensor<128x128xf32> to tensor<128x128xf16> loc(#loc54)
    tt.descriptor_store %dv_desc_17[%start_n, %c0_i32], %1 : !tt.tensordesc<128x128xf16>, tensor<128x128xf16> loc(#loc55)
    tt.return loc(#loc)
  } loc(#loc)
} loc(#loc)
#loc1 = loc("/projects/kzhou6/hwu27/triton-beta-3-paper-solver-wt/third_party/tlx/tools/sched2tlx/examples/case4_FA_bwd/handwritten_nows.py":79:5)
#loc2 = loc(unknown)
#loc3 = loc("/projects/kzhou6/hwu27/triton-beta-3-paper-solver-wt/third_party/tlx/tools/sched2tlx/examples/case4_FA_bwd/handwritten_nows.py":49:13)
#loc4 = loc("/projects/kzhou6/hwu27/triton-beta-3-paper-solver-wt/third_party/tlx/tools/sched2tlx/examples/case4_FA_bwd/handwritten_nows.py":50:14)
#loc5 = loc("/projects/kzhou6/hwu27/triton-beta-3-paper-solver-wt/third_party/tlx/tools/sched2tlx/examples/case4_FA_bwd/handwritten_nows.py":52:12)
#loc6 = loc("/projects/kzhou6/hwu27/triton-beta-3-paper-solver-wt/third_party/tlx/tools/sched2tlx/examples/case4_FA_bwd/handwritten_nows.py":53:15)
#loc7 = loc("/projects/kzhou6/hwu27/triton-beta-3-paper-solver-wt/third_party/tlx/tools/sched2tlx/examples/case4_FA_bwd/handwritten_nows.py":56:9)
#loc8 = loc("/projects/kzhou6/hwu27/triton-beta-3-paper-solver-wt/third_party/tlx/tools/sched2tlx/examples/case4_FA_bwd/handwritten_nows.py":55:14)
#loc9 = loc("/projects/kzhou6/hwu27/triton-beta-3-paper-solver-wt/third_party/tlx/tools/sched2tlx/examples/case4_FA_bwd/handwritten_nows.py":59:9)
#loc10 = loc("/projects/kzhou6/hwu27/triton-beta-3-paper-solver-wt/third_party/tlx/tools/sched2tlx/examples/case4_FA_bwd/handwritten_nows.py":58:14)
#loc11 = loc("/projects/kzhou6/hwu27/triton-beta-3-paper-solver-wt/third_party/tlx/tools/sched2tlx/examples/case4_FA_bwd/handwritten_nows.py":62:9)
#loc12 = loc("/projects/kzhou6/hwu27/triton-beta-3-paper-solver-wt/third_party/tlx/tools/sched2tlx/examples/case4_FA_bwd/handwritten_nows.py":61:14)
#loc13 = loc("/projects/kzhou6/hwu27/triton-beta-3-paper-solver-wt/third_party/tlx/tools/sched2tlx/examples/case4_FA_bwd/handwritten_nows.py":65:9)
#loc14 = loc("/projects/kzhou6/hwu27/triton-beta-3-paper-solver-wt/third_party/tlx/tools/sched2tlx/examples/case4_FA_bwd/handwritten_nows.py":64:15)
#loc15 = loc("/projects/kzhou6/hwu27/triton-beta-3-paper-solver-wt/third_party/tlx/tools/sched2tlx/examples/case4_FA_bwd/handwritten_nows.py":68:9)
#loc16 = loc("/projects/kzhou6/hwu27/triton-beta-3-paper-solver-wt/third_party/tlx/tools/sched2tlx/examples/case4_FA_bwd/handwritten_nows.py":67:15)
#loc17 = loc("/projects/kzhou6/hwu27/triton-beta-3-paper-solver-wt/third_party/tlx/tools/sched2tlx/examples/case4_FA_bwd/handwritten_nows.py":71:9)
#loc18 = loc("/projects/kzhou6/hwu27/triton-beta-3-paper-solver-wt/third_party/tlx/tools/sched2tlx/examples/case4_FA_bwd/handwritten_nows.py":72:9)
#loc19 = loc("/projects/kzhou6/hwu27/triton-beta-3-paper-solver-wt/third_party/tlx/tools/sched2tlx/examples/case4_FA_bwd/handwritten_nows.py":77:14)
#loc20 = loc("/projects/kzhou6/hwu27/triton-beta-3-paper-solver-wt/third_party/tlx/tools/sched2tlx/examples/case4_FA_bwd/handwritten_nows.py":80:13)
#loc21 = loc("/projects/kzhou6/hwu27/triton-beta-3-paper-solver-wt/third_party/tlx/tools/sched2tlx/examples/case4_FA_bwd/handwritten_nows.py":81:14)
#loc22 = loc("/projects/kzhou6/hwu27/triton-beta-3-paper-solver-wt/third_party/tlx/tools/sched2tlx/examples/case4_FA_bwd/handwritten_nows.py":83:28)
#loc23 = loc("/projects/kzhou6/hwu27/triton-beta-3-paper-solver-wt/third_party/tlx/tools/sched2tlx/examples/case4_FA_bwd/handwritten_nows.py":83:18)
#loc24 = loc("/projects/kzhou6/hwu27/triton-beta-3-paper-solver-wt/third_party/tlx/tools/sched2tlx/examples/case4_FA_bwd/handwritten_nows.py":84:21)
#loc25 = loc("/projects/kzhou6/hwu27/triton-beta-3-paper-solver-wt/third_party/tlx/tools/sched2tlx/examples/case4_FA_bwd/handwritten_nows.py":84:13)
#loc26 = loc("/projects/kzhou6/hwu27/triton-beta-3-paper-solver-wt/third_party/tlx/tools/sched2tlx/examples/case4_FA_bwd/handwritten_nows.py":85:22)
#loc27 = loc("/projects/kzhou6/hwu27/triton-beta-3-paper-solver-wt/third_party/tlx/tools/sched2tlx/examples/case4_FA_bwd/handwritten_nows.py":85:14)
#loc28 = loc("/projects/kzhou6/hwu27/triton-beta-3-paper-solver-wt/third_party/tlx/tools/sched2tlx/examples/case4_FA_bwd/handwritten_nows.py":87:25)
#loc29 = loc("/projects/kzhou6/hwu27/triton-beta-3-paper-solver-wt/third_party/tlx/tools/sched2tlx/examples/case4_FA_bwd/handwritten_nows.py":87:15)
#loc30 = loc("/projects/kzhou6/hwu27/triton-beta-3-paper-solver-wt/third_party/tlx/tools/sched2tlx/examples/case4_FA_bwd/handwritten_nows.py":90:27)
#loc31 = loc("/projects/kzhou6/hwu27/triton-beta-3-paper-solver-wt/third_party/tlx/tools/sched2tlx/examples/case4_FA_bwd/handwritten_nows.py":90:54)
#loc32 = loc("/projects/kzhou6/hwu27/triton-beta-3-paper-solver-wt/third_party/tlx/tools/sched2tlx/examples/case4_FA_bwd/handwritten_nows.py":90:14)
#loc33 = loc("/projects/kzhou6/hwu27/triton-beta-3-paper-solver-wt/third_party/tlx/tools/sched2tlx/examples/case4_FA_bwd/handwritten_nows.py":91:15)
#loc34 = loc("/projects/kzhou6/hwu27/triton-beta-3-paper-solver-wt/third_party/tlx/tools/sched2tlx/examples/case4_FA_bwd/handwritten_nows.py":92:25)
#loc35 = loc("/projects/kzhou6/hwu27/triton-beta-3-paper-solver-wt/third_party/tlx/tools/sched2tlx/examples/case4_FA_bwd/handwritten_nows.py":92:15)
#loc36 = loc("/projects/kzhou6/hwu27/triton-beta-3-paper-solver-wt/third_party/tlx/tools/sched2tlx/examples/case4_FA_bwd/handwritten_nows.py":93:19)
#loc37 = loc("/projects/kzhou6/hwu27/triton-beta-3-paper-solver-wt/third_party/tlx/tools/sched2tlx/examples/case4_FA_bwd/handwritten_nows.py":93:9)
#loc38 = loc("/projects/kzhou6/hwu27/triton-beta-3-paper-solver-wt/third_party/tlx/tools/sched2tlx/examples/case4_FA_bwd/handwritten_nows.py":94:28)
#loc39 = loc("/projects/kzhou6/hwu27/triton-beta-3-paper-solver-wt/third_party/tlx/tools/sched2tlx/examples/case4_FA_bwd/handwritten_nows.py":94:22)
#loc40 = loc("/projects/kzhou6/hwu27/triton-beta-3-paper-solver-wt/third_party/tlx/tools/sched2tlx/examples/case4_FA_bwd/handwritten_nows.py":94:16)
#loc41 = loc("/projects/kzhou6/hwu27/triton-beta-3-paper-solver-wt/third_party/tlx/tools/sched2tlx/examples/case4_FA_bwd/handwritten_nows.py":94:15)
#loc42 = loc("/projects/kzhou6/hwu27/triton-beta-3-paper-solver-wt/third_party/tlx/tools/sched2tlx/examples/case4_FA_bwd/handwritten_nows.py":95:29)
#loc43 = loc("/projects/kzhou6/hwu27/triton-beta-3-paper-solver-wt/third_party/tlx/tools/sched2tlx/examples/case4_FA_bwd/handwritten_nows.py":95:22)
#loc44 = loc("/projects/kzhou6/hwu27/triton-beta-3-paper-solver-wt/third_party/tlx/tools/sched2tlx/examples/case4_FA_bwd/handwritten_nows.py":96:42)
#loc45 = loc("/projects/kzhou6/hwu27/triton-beta-3-paper-solver-wt/third_party/tlx/tools/sched2tlx/examples/case4_FA_bwd/handwritten_nows.py":96:9)
#loc46 = loc("/projects/kzhou6/hwu27/triton-beta-3-paper-solver-wt/third_party/tlx/tools/sched2tlx/examples/case4_FA_bwd/handwritten_nows.py":97:19)
#loc47 = loc("/projects/kzhou6/hwu27/triton-beta-3-paper-solver-wt/third_party/tlx/tools/sched2tlx/examples/case4_FA_bwd/handwritten_nows.py":97:9)
#loc48 = loc("/projects/kzhou6/hwu27/triton-beta-3-paper-solver-wt/third_party/tlx/tools/sched2tlx/examples/case4_FA_bwd/handwritten_nows.py":100:9)
#loc49 = loc("/projects/kzhou6/hwu27/triton-beta-3-paper-solver-wt/third_party/tlx/tools/sched2tlx/examples/case4_FA_bwd/handwritten_nows.py":99:15)
#loc50 = loc("/projects/kzhou6/hwu27/triton-beta-3-paper-solver-wt/third_party/tlx/tools/sched2tlx/examples/case4_FA_bwd/handwritten_nows.py":103:9)
#loc51 = loc("/projects/kzhou6/hwu27/triton-beta-3-paper-solver-wt/third_party/tlx/tools/sched2tlx/examples/case4_FA_bwd/handwritten_nows.py":102:15)
#loc52 = loc("/projects/kzhou6/hwu27/triton-beta-3-paper-solver-wt/third_party/tlx/tools/sched2tlx/examples/case4_FA_bwd/handwritten_nows.py":105:33)
#loc53 = loc("/projects/kzhou6/hwu27/triton-beta-3-paper-solver-wt/third_party/tlx/tools/sched2tlx/examples/case4_FA_bwd/handwritten_nows.py":105:5)
#loc54 = loc("/projects/kzhou6/hwu27/triton-beta-3-paper-solver-wt/third_party/tlx/tools/sched2tlx/examples/case4_FA_bwd/handwritten_nows.py":106:33)
#loc55 = loc("/projects/kzhou6/hwu27/triton-beta-3-paper-solver-wt/third_party/tlx/tools/sched2tlx/examples/case4_FA_bwd/handwritten_nows.py":106:5)
#loc68 = loc("pid_n"(#loc3))
#loc69 = loc("off_hz"(#loc4))
#loc70 = loc("base"(#loc5))
#loc71 = loc("start_n"(#loc6))
#loc72 = loc("k_desc"(#loc7))
#loc73 = loc("k_desc"(#loc8))
#loc74 = loc("v_desc"(#loc9))
#loc75 = loc("v_desc"(#loc10))
#loc76 = loc("q_desc"(#loc11))
#loc77 = loc("q_desc"(#loc12))
#loc78 = loc("do_desc"(#loc13))
#loc79 = loc("do_desc"(#loc14))
#loc80 = loc("dq_desc"(#loc15))
#loc81 = loc("dq_desc"(#loc16))
#loc82 = loc("k"(#loc17))
#loc83 = loc("v"(#loc18))
#loc84 = loc("m_base"(#loc19))
#loc85 = loc("dk_acc"(#loc1))
#loc86 = loc("q"(#loc20))
#loc87 = loc("do"(#loc21))
#loc88 = loc("offs_m"(#loc22))
#loc89 = loc("offs_m"(#loc23))
#loc90 = loc("m"(#loc24))
#loc91 = loc("m"(#loc25))
#loc92 = loc("Di"(#loc26))
#loc93 = loc("Di"(#loc27))
#loc94 = loc("qkT"(#loc28))
#loc95 = loc("qkT"(#loc29))
#loc96 = loc("pT"(#loc30))
#loc97 = loc("pT"(#loc31))
#loc98 = loc("pT"(#loc32))
#loc99 = loc("ppT"(#loc33))
#loc100 = loc("dpT"(#loc34))
#loc101 = loc("dpT"(#loc35))
#loc102 = loc("dv_acc"(#loc36))
#loc103 = loc("dv_acc"(#loc37))
#loc104 = loc("dsT"(#loc38))
#loc105 = loc("dsT"(#loc39))
#loc106 = loc("dsT"(#loc40))
#loc107 = loc("dsT"(#loc41))
#loc108 = loc("dq_partial"(#loc42))
#loc109 = loc("dq_partial"(#loc43))
#loc110 = loc("dk_acc"(#loc46))
#loc111 = loc("dk_acc"(#loc47))
#loc112 = loc("dk_desc"(#loc48))
#loc113 = loc("dk_desc"(#loc49))
#loc114 = loc("dv_desc"(#loc50))
#loc115 = loc("dv_desc"(#loc51))
#loc116 = loc("dv_acc"(#loc85))


// -----// IR Dump Before TritonCombineOps: triton-combine ('builtin.module' operation) //----- //
#loc = loc("/projects/kzhou6/hwu27/triton-beta-3-paper-solver-wt/third_party/tlx/tools/sched2tlx/examples/case4_FA_bwd/handwritten_nows.py":31:1)
#loc56 = loc("Q"(#loc))
#loc57 = loc("K"(#loc))
#loc58 = loc("V"(#loc))
#loc59 = loc("dO"(#loc))
#loc60 = loc("dQ"(#loc))
#loc61 = loc("dK"(#loc))
#loc62 = loc("dV"(#loc))
#loc63 = loc("M"(#loc))
#loc64 = loc("D"(#loc))
#loc65 = loc("stride_m"(#loc))
#loc66 = loc("stride_n"(#loc))
#loc67 = loc("N_CTX"(#loc))
module {
  tt.func public @fa_bwd_dkdv_5mma(%Q: !tt.ptr<f16> {tt.divisibility = 16 : i32} loc("Q"(#loc)), %K: !tt.ptr<f16> {tt.divisibility = 16 : i32} loc("K"(#loc)), %V: !tt.ptr<f16> {tt.divisibility = 16 : i32} loc("V"(#loc)), %dO: !tt.ptr<f16> {tt.divisibility = 16 : i32} loc("dO"(#loc)), %dQ: !tt.ptr<f16> {tt.divisibility = 16 : i32} loc("dQ"(#loc)), %dK: !tt.ptr<f16> {tt.divisibility = 16 : i32} loc("dK"(#loc)), %dV: !tt.ptr<f16> {tt.divisibility = 16 : i32} loc("dV"(#loc)), %M: !tt.ptr<f32> {tt.divisibility = 16 : i32} loc("M"(#loc)), %D: !tt.ptr<f32> {tt.divisibility = 16 : i32} loc("D"(#loc)), %stride_m: i32 {tt.divisibility = 16 : i32} loc("stride_m"(#loc)), %stride_n: i32 {tt.divisibility = 16 : i32} loc("stride_n"(#loc)), %N_CTX: i32 {tt.divisibility = 16 : i32} loc("N_CTX"(#loc))) attributes {noinline = false} {
    %c64_i32 = arith.constant 64 : i32 loc(#loc1)
    %cst = arith.constant dense<0.000000e+00> : tensor<64x128xf32> loc(#loc2)
    %cst_0 = arith.constant dense<0.000000e+00> : tensor<128x128xf32> loc(#loc2)
    %cst_1 = arith.constant dense<1.44269502> : tensor<128x64xf32> loc(#loc2)
    %cst_2 = arith.constant dense<0.000000e+00> : tensor<128x64xf32> loc(#loc2)
    %c0_i32 = arith.constant 0 : i32 loc(#loc2)
    %c1_i64 = arith.constant 1 : i64 loc(#loc2)
    %c128_i32 = arith.constant 128 : i32 loc(#loc2)
    %pid_n = tt.get_program_id x : i32 loc(#loc68)
    %off_hz = tt.get_program_id y : i32 loc(#loc69)
    %base = arith.muli %off_hz, %N_CTX : i32 loc(#loc70)
    %base_3 = arith.muli %base, %c128_i32 : i32 loc(#loc70)
    %start_n = arith.muli %pid_n, %c128_i32 : i32 loc(#loc71)
    %k_desc = tt.addptr %K, %base_3 : !tt.ptr<f16>, i32 loc(#loc72)
    %k_desc_4 = arith.extsi %stride_n : i32 to i64 loc(#loc73)
    %k_desc_5 = tt.make_tensor_descriptor %k_desc, [%N_CTX, %c128_i32], [%k_desc_4, %c1_i64] : !tt.ptr<f16>, !tt.tensordesc<128x128xf16> loc(#loc73)
    %v_desc = tt.addptr %V, %base_3 : !tt.ptr<f16>, i32 loc(#loc74)
    %v_desc_6 = arith.extsi %stride_n : i32 to i64 loc(#loc75)
    %v_desc_7 = tt.make_tensor_descriptor %v_desc, [%N_CTX, %c128_i32], [%v_desc_6, %c1_i64] : !tt.ptr<f16>, !tt.tensordesc<128x128xf16> loc(#loc75)
    %q_desc = tt.addptr %Q, %base_3 : !tt.ptr<f16>, i32 loc(#loc76)
    %q_desc_8 = arith.extsi %stride_m : i32 to i64 loc(#loc77)
    %q_desc_9 = tt.make_tensor_descriptor %q_desc, [%N_CTX, %c128_i32], [%q_desc_8, %c1_i64] : !tt.ptr<f16>, !tt.tensordesc<64x128xf16> loc(#loc77)
    %do_desc = tt.addptr %dO, %base_3 : !tt.ptr<f16>, i32 loc(#loc78)
    %do_desc_10 = arith.extsi %stride_m : i32 to i64 loc(#loc79)
    %do_desc_11 = tt.make_tensor_descriptor %do_desc, [%N_CTX, %c128_i32], [%do_desc_10, %c1_i64] : !tt.ptr<f16>, !tt.tensordesc<64x128xf16> loc(#loc79)
    %dq_desc = tt.addptr %dQ, %base_3 : !tt.ptr<f16>, i32 loc(#loc80)
    %dq_desc_12 = arith.extsi %stride_m : i32 to i64 loc(#loc81)
    %dq_desc_13 = tt.make_tensor_descriptor %dq_desc, [%N_CTX, %c128_i32], [%dq_desc_12, %c1_i64] : !tt.ptr<f16>, !tt.tensordesc<64x128xf16> loc(#loc81)
    %k = tt.descriptor_load %k_desc_5[%start_n, %c0_i32] : !tt.tensordesc<128x128xf16> -> tensor<128x128xf16> loc(#loc82)
    %v = tt.descriptor_load %v_desc_7[%start_n, %c0_i32] : !tt.tensordesc<128x128xf16> -> tensor<128x128xf16> loc(#loc83)
    %m_base = arith.muli %off_hz, %N_CTX : i32 loc(#loc84)
    %dv_acc:2 = scf.for %start_m = %c0_i32 to %N_CTX step %c64_i32 iter_args(%dk_acc = %cst_0, %dv_acc_18 = %cst_0) -> (tensor<128x128xf32>, tensor<128x128xf32>)  : i32 {
      %q = tt.descriptor_load %q_desc_9[%start_m, %c0_i32] : !tt.tensordesc<64x128xf16> -> tensor<64x128xf16> loc(#loc86)
      %do = tt.descriptor_load %do_desc_11[%start_m, %c0_i32] : !tt.tensordesc<64x128xf16> -> tensor<64x128xf16> loc(#loc87)
      %offs_m = tt.make_range {end = 64 : i32, start = 0 : i32} : tensor<64xi32> loc(#loc88)
      %offs_m_19 = tt.splat %start_m : i32 -> tensor<64xi32> loc(#loc89)
      %offs_m_20 = arith.addi %offs_m_19, %offs_m : tensor<64xi32> loc(#loc89)
      %m = tt.addptr %M, %m_base : !tt.ptr<f32>, i32 loc(#loc90)
      %m_21 = tt.splat %m : !tt.ptr<f32> -> tensor<64x!tt.ptr<f32>> loc(#loc90)
      %m_22 = tt.addptr %m_21, %offs_m_20 : tensor<64x!tt.ptr<f32>>, tensor<64xi32> loc(#loc90)
      %m_23 = tt.load %m_22 : tensor<64x!tt.ptr<f32>> loc(#loc91)
      %Di = tt.addptr %D, %m_base : !tt.ptr<f32>, i32 loc(#loc92)
      %Di_24 = tt.splat %Di : !tt.ptr<f32> -> tensor<64x!tt.ptr<f32>> loc(#loc92)
      %Di_25 = tt.addptr %Di_24, %offs_m_20 : tensor<64x!tt.ptr<f32>>, tensor<64xi32> loc(#loc92)
      %Di_26 = tt.load %Di_25 : tensor<64x!tt.ptr<f32>> loc(#loc93)
      %qkT = tt.trans %q {order = array<i32: 1, 0>} : tensor<64x128xf16> -> tensor<128x64xf16> loc(#loc94)
      %qkT_27 = tt.dot %k, %qkT, %cst_2, inputPrecision = tf32 : tensor<128x128xf16> * tensor<128x64xf16> -> tensor<128x64xf32> loc(#loc95)
      %pT = arith.mulf %qkT_27, %cst_1 : tensor<128x64xf32> loc(#loc96)
      %pT_28 = tt.expand_dims %m_23 {axis = 0 : i32} : tensor<64xf32> -> tensor<1x64xf32> loc(#loc97)
      %pT_29 = tt.broadcast %pT_28 : tensor<1x64xf32> -> tensor<128x64xf32> loc(#loc96)
      %pT_30 = arith.subf %pT, %pT_29 : tensor<128x64xf32> loc(#loc96)
      %pT_31 = math.exp2 %pT_30 : tensor<128x64xf32> loc(#loc98)
      %ppT = arith.truncf %pT_31 : tensor<128x64xf32> to tensor<128x64xf16> loc(#loc99)
      %dpT = tt.trans %do {order = array<i32: 1, 0>} : tensor<64x128xf16> -> tensor<128x64xf16> loc(#loc100)
      %dpT_32 = tt.dot %v, %dpT, %cst_2, inputPrecision = tf32 : tensor<128x128xf16> * tensor<128x64xf16> -> tensor<128x64xf32> loc(#loc101)
      %dv_acc_33 = tt.dot %ppT, %do, %cst_0, inputPrecision = tf32 : tensor<128x64xf16> * tensor<64x128xf16> -> tensor<128x128xf32> loc(#loc102)
      %dv_acc_34 = arith.addf %dv_acc_18, %dv_acc_33 : tensor<128x128xf32> loc(#loc103)
      %dsT = tt.expand_dims %Di_26 {axis = 0 : i32} : tensor<64xf32> -> tensor<1x64xf32> loc(#loc104)
      %dsT_35 = tt.broadcast %dsT : tensor<1x64xf32> -> tensor<128x64xf32> loc(#loc105)
      %dsT_36 = arith.subf %dpT_32, %dsT_35 : tensor<128x64xf32> loc(#loc105)
      %dsT_37 = arith.mulf %pT_31, %dsT_36 : tensor<128x64xf32> loc(#loc106)
      %dsT_38 = arith.truncf %dsT_37 : tensor<128x64xf32> to tensor<128x64xf16> loc(#loc107)
      %dq_partial = tt.trans %dsT_38 {order = array<i32: 1, 0>} : tensor<128x64xf16> -> tensor<64x128xf16> loc(#loc108)
      %dq_partial_39 = tt.dot %dq_partial, %k, %cst, inputPrecision = tf32 : tensor<64x128xf16> * tensor<128x128xf16> -> tensor<64x128xf32> loc(#loc109)
      %2 = arith.truncf %dq_partial_39 : tensor<64x128xf32> to tensor<64x128xf16> loc(#loc44)
      tt.descriptor_reduce add, %dq_desc_13[%start_m, %c0_i32], %2 : !tt.tensordesc<64x128xf16>, tensor<64x128xf16> loc(#loc45)
      %dk_acc_40 = tt.dot %dsT_38, %q, %cst_0, inputPrecision = tf32 : tensor<128x64xf16> * tensor<64x128xf16> -> tensor<128x128xf32> loc(#loc110)
      %dk_acc_41 = arith.addf %dk_acc, %dk_acc_40 : tensor<128x128xf32> loc(#loc111)
      scf.yield %dk_acc_41, %dv_acc_34 : tensor<128x128xf32>, tensor<128x128xf32> loc(#loc1)
    } {tt.warp_specialize} loc(#loc116)
    %dk_desc = tt.addptr %dK, %base_3 : !tt.ptr<f16>, i32 loc(#loc112)
    %dk_desc_14 = arith.extsi %stride_n : i32 to i64 loc(#loc113)
    %dk_desc_15 = tt.make_tensor_descriptor %dk_desc, [%N_CTX, %c128_i32], [%dk_desc_14, %c1_i64] : !tt.ptr<f16>, !tt.tensordesc<128x128xf16> loc(#loc113)
    %dv_desc = tt.addptr %dV, %base_3 : !tt.ptr<f16>, i32 loc(#loc114)
    %dv_desc_16 = arith.extsi %stride_n : i32 to i64 loc(#loc115)
    %dv_desc_17 = tt.make_tensor_descriptor %dv_desc, [%N_CTX, %c128_i32], [%dv_desc_16, %c1_i64] : !tt.ptr<f16>, !tt.tensordesc<128x128xf16> loc(#loc115)
    %0 = arith.truncf %dv_acc#0 : tensor<128x128xf32> to tensor<128x128xf16> loc(#loc52)
    tt.descriptor_store %dk_desc_15[%start_n, %c0_i32], %0 : !tt.tensordesc<128x128xf16>, tensor<128x128xf16> loc(#loc53)
    %1 = arith.truncf %dv_acc#1 : tensor<128x128xf32> to tensor<128x128xf16> loc(#loc54)
    tt.descriptor_store %dv_desc_17[%start_n, %c0_i32], %1 : !tt.tensordesc<128x128xf16>, tensor<128x128xf16> loc(#loc55)
    tt.return loc(#loc)
  } loc(#loc)
} loc(#loc)
#loc1 = loc("/projects/kzhou6/hwu27/triton-beta-3-paper-solver-wt/third_party/tlx/tools/sched2tlx/examples/case4_FA_bwd/handwritten_nows.py":79:5)
#loc2 = loc(unknown)
#loc3 = loc("/projects/kzhou6/hwu27/triton-beta-3-paper-solver-wt/third_party/tlx/tools/sched2tlx/examples/case4_FA_bwd/handwritten_nows.py":49:13)
#loc4 = loc("/projects/kzhou6/hwu27/triton-beta-3-paper-solver-wt/third_party/tlx/tools/sched2tlx/examples/case4_FA_bwd/handwritten_nows.py":50:14)
#loc5 = loc("/projects/kzhou6/hwu27/triton-beta-3-paper-solver-wt/third_party/tlx/tools/sched2tlx/examples/case4_FA_bwd/handwritten_nows.py":52:12)
#loc6 = loc("/projects/kzhou6/hwu27/triton-beta-3-paper-solver-wt/third_party/tlx/tools/sched2tlx/examples/case4_FA_bwd/handwritten_nows.py":53:15)
#loc7 = loc("/projects/kzhou6/hwu27/triton-beta-3-paper-solver-wt/third_party/tlx/tools/sched2tlx/examples/case4_FA_bwd/handwritten_nows.py":56:9)
#loc8 = loc("/projects/kzhou6/hwu27/triton-beta-3-paper-solver-wt/third_party/tlx/tools/sched2tlx/examples/case4_FA_bwd/handwritten_nows.py":55:14)
#loc9 = loc("/projects/kzhou6/hwu27/triton-beta-3-paper-solver-wt/third_party/tlx/tools/sched2tlx/examples/case4_FA_bwd/handwritten_nows.py":59:9)
#loc10 = loc("/projects/kzhou6/hwu27/triton-beta-3-paper-solver-wt/third_party/tlx/tools/sched2tlx/examples/case4_FA_bwd/handwritten_nows.py":58:14)
#loc11 = loc("/projects/kzhou6/hwu27/triton-beta-3-paper-solver-wt/third_party/tlx/tools/sched2tlx/examples/case4_FA_bwd/handwritten_nows.py":62:9)
#loc12 = loc("/projects/kzhou6/hwu27/triton-beta-3-paper-solver-wt/third_party/tlx/tools/sched2tlx/examples/case4_FA_bwd/handwritten_nows.py":61:14)
#loc13 = loc("/projects/kzhou6/hwu27/triton-beta-3-paper-solver-wt/third_party/tlx/tools/sched2tlx/examples/case4_FA_bwd/handwritten_nows.py":65:9)
#loc14 = loc("/projects/kzhou6/hwu27/triton-beta-3-paper-solver-wt/third_party/tlx/tools/sched2tlx/examples/case4_FA_bwd/handwritten_nows.py":64:15)
#loc15 = loc("/projects/kzhou6/hwu27/triton-beta-3-paper-solver-wt/third_party/tlx/tools/sched2tlx/examples/case4_FA_bwd/handwritten_nows.py":68:9)
#loc16 = loc("/projects/kzhou6/hwu27/triton-beta-3-paper-solver-wt/third_party/tlx/tools/sched2tlx/examples/case4_FA_bwd/handwritten_nows.py":67:15)
#loc17 = loc("/projects/kzhou6/hwu27/triton-beta-3-paper-solver-wt/third_party/tlx/tools/sched2tlx/examples/case4_FA_bwd/handwritten_nows.py":71:9)
#loc18 = loc("/projects/kzhou6/hwu27/triton-beta-3-paper-solver-wt/third_party/tlx/tools/sched2tlx/examples/case4_FA_bwd/handwritten_nows.py":72:9)
#loc19 = loc("/projects/kzhou6/hwu27/triton-beta-3-paper-solver-wt/third_party/tlx/tools/sched2tlx/examples/case4_FA_bwd/handwritten_nows.py":77:14)
#loc20 = loc("/projects/kzhou6/hwu27/triton-beta-3-paper-solver-wt/third_party/tlx/tools/sched2tlx/examples/case4_FA_bwd/handwritten_nows.py":80:13)
#loc21 = loc("/projects/kzhou6/hwu27/triton-beta-3-paper-solver-wt/third_party/tlx/tools/sched2tlx/examples/case4_FA_bwd/handwritten_nows.py":81:14)
#loc22 = loc("/projects/kzhou6/hwu27/triton-beta-3-paper-solver-wt/third_party/tlx/tools/sched2tlx/examples/case4_FA_bwd/handwritten_nows.py":83:28)
#loc23 = loc("/projects/kzhou6/hwu27/triton-beta-3-paper-solver-wt/third_party/tlx/tools/sched2tlx/examples/case4_FA_bwd/handwritten_nows.py":83:18)
#loc24 = loc("/projects/kzhou6/hwu27/triton-beta-3-paper-solver-wt/third_party/tlx/tools/sched2tlx/examples/case4_FA_bwd/handwritten_nows.py":84:21)
#loc25 = loc("/projects/kzhou6/hwu27/triton-beta-3-paper-solver-wt/third_party/tlx/tools/sched2tlx/examples/case4_FA_bwd/handwritten_nows.py":84:13)
#loc26 = loc("/projects/kzhou6/hwu27/triton-beta-3-paper-solver-wt/third_party/tlx/tools/sched2tlx/examples/case4_FA_bwd/handwritten_nows.py":85:22)
#loc27 = loc("/projects/kzhou6/hwu27/triton-beta-3-paper-solver-wt/third_party/tlx/tools/sched2tlx/examples/case4_FA_bwd/handwritten_nows.py":85:14)
#loc28 = loc("/projects/kzhou6/hwu27/triton-beta-3-paper-solver-wt/third_party/tlx/tools/sched2tlx/examples/case4_FA_bwd/handwritten_nows.py":87:25)
#loc29 = loc("/projects/kzhou6/hwu27/triton-beta-3-paper-solver-wt/third_party/tlx/tools/sched2tlx/examples/case4_FA_bwd/handwritten_nows.py":87:15)
#loc30 = loc("/projects/kzhou6/hwu27/triton-beta-3-paper-solver-wt/third_party/tlx/tools/sched2tlx/examples/case4_FA_bwd/handwritten_nows.py":90:27)
#loc31 = loc("/projects/kzhou6/hwu27/triton-beta-3-paper-solver-wt/third_party/tlx/tools/sched2tlx/examples/case4_FA_bwd/handwritten_nows.py":90:54)
#loc32 = loc("/projects/kzhou6/hwu27/triton-beta-3-paper-solver-wt/third_party/tlx/tools/sched2tlx/examples/case4_FA_bwd/handwritten_nows.py":90:14)
#loc33 = loc("/projects/kzhou6/hwu27/triton-beta-3-paper-solver-wt/third_party/tlx/tools/sched2tlx/examples/case4_FA_bwd/handwritten_nows.py":91:15)
#loc34 = loc("/projects/kzhou6/hwu27/triton-beta-3-paper-solver-wt/third_party/tlx/tools/sched2tlx/examples/case4_FA_bwd/handwritten_nows.py":92:25)
#loc35 = loc("/projects/kzhou6/hwu27/triton-beta-3-paper-solver-wt/third_party/tlx/tools/sched2tlx/examples/case4_FA_bwd/handwritten_nows.py":92:15)
#loc36 = loc("/projects/kzhou6/hwu27/triton-beta-3-paper-solver-wt/third_party/tlx/tools/sched2tlx/examples/case4_FA_bwd/handwritten_nows.py":93:19)
#loc37 = loc("/projects/kzhou6/hwu27/triton-beta-3-paper-solver-wt/third_party/tlx/tools/sched2tlx/examples/case4_FA_bwd/handwritten_nows.py":93:9)
#loc38 = loc("/projects/kzhou6/hwu27/triton-beta-3-paper-solver-wt/third_party/tlx/tools/sched2tlx/examples/case4_FA_bwd/handwritten_nows.py":94:28)
#loc39 = loc("/projects/kzhou6/hwu27/triton-beta-3-paper-solver-wt/third_party/tlx/tools/sched2tlx/examples/case4_FA_bwd/handwritten_nows.py":94:22)
#loc40 = loc("/projects/kzhou6/hwu27/triton-beta-3-paper-solver-wt/third_party/tlx/tools/sched2tlx/examples/case4_FA_bwd/handwritten_nows.py":94:16)
#loc41 = loc("/projects/kzhou6/hwu27/triton-beta-3-paper-solver-wt/third_party/tlx/tools/sched2tlx/examples/case4_FA_bwd/handwritten_nows.py":94:15)
#loc42 = loc("/projects/kzhou6/hwu27/triton-beta-3-paper-solver-wt/third_party/tlx/tools/sched2tlx/examples/case4_FA_bwd/handwritten_nows.py":95:29)
#loc43 = loc("/projects/kzhou6/hwu27/triton-beta-3-paper-solver-wt/third_party/tlx/tools/sched2tlx/examples/case4_FA_bwd/handwritten_nows.py":95:22)
#loc44 = loc("/projects/kzhou6/hwu27/triton-beta-3-paper-solver-wt/third_party/tlx/tools/sched2tlx/examples/case4_FA_bwd/handwritten_nows.py":96:42)
#loc45 = loc("/projects/kzhou6/hwu27/triton-beta-3-paper-solver-wt/third_party/tlx/tools/sched2tlx/examples/case4_FA_bwd/handwritten_nows.py":96:9)
#loc46 = loc("/projects/kzhou6/hwu27/triton-beta-3-paper-solver-wt/third_party/tlx/tools/sched2tlx/examples/case4_FA_bwd/handwritten_nows.py":97:19)
#loc47 = loc("/projects/kzhou6/hwu27/triton-beta-3-paper-solver-wt/third_party/tlx/tools/sched2tlx/examples/case4_FA_bwd/handwritten_nows.py":97:9)
#loc48 = loc("/projects/kzhou6/hwu27/triton-beta-3-paper-solver-wt/third_party/tlx/tools/sched2tlx/examples/case4_FA_bwd/handwritten_nows.py":100:9)
#loc49 = loc("/projects/kzhou6/hwu27/triton-beta-3-paper-solver-wt/third_party/tlx/tools/sched2tlx/examples/case4_FA_bwd/handwritten_nows.py":99:15)
#loc50 = loc("/projects/kzhou6/hwu27/triton-beta-3-paper-solver-wt/third_party/tlx/tools/sched2tlx/examples/case4_FA_bwd/handwritten_nows.py":103:9)
#loc51 = loc("/projects/kzhou6/hwu27/triton-beta-3-paper-solver-wt/third_party/tlx/tools/sched2tlx/examples/case4_FA_bwd/handwritten_nows.py":102:15)
#loc52 = loc("/projects/kzhou6/hwu27/triton-beta-3-paper-solver-wt/third_party/tlx/tools/sched2tlx/examples/case4_FA_bwd/handwritten_nows.py":105:33)
#loc53 = loc("/projects/kzhou6/hwu27/triton-beta-3-paper-solver-wt/third_party/tlx/tools/sched2tlx/examples/case4_FA_bwd/handwritten_nows.py":105:5)
#loc54 = loc("/projects/kzhou6/hwu27/triton-beta-3-paper-solver-wt/third_party/tlx/tools/sched2tlx/examples/case4_FA_bwd/handwritten_nows.py":106:33)
#loc55 = loc("/projects/kzhou6/hwu27/triton-beta-3-paper-solver-wt/third_party/tlx/tools/sched2tlx/examples/case4_FA_bwd/handwritten_nows.py":106:5)
#loc68 = loc("pid_n"(#loc3))
#loc69 = loc("off_hz"(#loc4))
#loc70 = loc("base"(#loc5))
#loc71 = loc("start_n"(#loc6))
#loc72 = loc("k_desc"(#loc7))
#loc73 = loc("k_desc"(#loc8))
#loc74 = loc("v_desc"(#loc9))
#loc75 = loc("v_desc"(#loc10))
#loc76 = loc("q_desc"(#loc11))
#loc77 = loc("q_desc"(#loc12))
#loc78 = loc("do_desc"(#loc13))
#loc79 = loc("do_desc"(#loc14))
#loc80 = loc("dq_desc"(#loc15))
#loc81 = loc("dq_desc"(#loc16))
#loc82 = loc("k"(#loc17))
#loc83 = loc("v"(#loc18))
#loc84 = loc("m_base"(#loc19))
#loc85 = loc("dk_acc"(#loc1))
#loc86 = loc("q"(#loc20))
#loc87 = loc("do"(#loc21))
#loc88 = loc("offs_m"(#loc22))
#loc89 = loc("offs_m"(#loc23))
#loc90 = loc("m"(#loc24))
#loc91 = loc("m"(#loc25))
#loc92 = loc("Di"(#loc26))
#loc93 = loc("Di"(#loc27))
#loc94 = loc("qkT"(#loc28))
#loc95 = loc("qkT"(#loc29))
#loc96 = loc("pT"(#loc30))
#loc97 = loc("pT"(#loc31))
#loc98 = loc("pT"(#loc32))
#loc99 = loc("ppT"(#loc33))
#loc100 = loc("dpT"(#loc34))
#loc101 = loc("dpT"(#loc35))
#loc102 = loc("dv_acc"(#loc36))
#loc103 = loc("dv_acc"(#loc37))
#loc104 = loc("dsT"(#loc38))
#loc105 = loc("dsT"(#loc39))
#loc106 = loc("dsT"(#loc40))
#loc107 = loc("dsT"(#loc41))
#loc108 = loc("dq_partial"(#loc42))
#loc109 = loc("dq_partial"(#loc43))
#loc110 = loc("dk_acc"(#loc46))
#loc111 = loc("dk_acc"(#loc47))
#loc112 = loc("dk_desc"(#loc48))
#loc113 = loc("dk_desc"(#loc49))
#loc114 = loc("dv_desc"(#loc50))
#loc115 = loc("dv_desc"(#loc51))
#loc116 = loc("dv_acc"(#loc85))


// -----// IR Dump Before TritonReorderBroadcast: triton-reorder-broadcast ('builtin.module' operation) //----- //
#loc = loc("/projects/kzhou6/hwu27/triton-beta-3-paper-solver-wt/third_party/tlx/tools/sched2tlx/examples/case4_FA_bwd/handwritten_nows.py":31:1)
#loc54 = loc("Q"(#loc))
#loc55 = loc("K"(#loc))
#loc56 = loc("V"(#loc))
#loc57 = loc("dO"(#loc))
#loc58 = loc("dQ"(#loc))
#loc59 = loc("dK"(#loc))
#loc60 = loc("dV"(#loc))
#loc61 = loc("M"(#loc))
#loc62 = loc("D"(#loc))
#loc63 = loc("stride_m"(#loc))
#loc64 = loc("stride_n"(#loc))
#loc65 = loc("N_CTX"(#loc))
module {
  tt.func public @fa_bwd_dkdv_5mma(%Q: !tt.ptr<f16> {tt.divisibility = 16 : i32} loc("Q"(#loc)), %K: !tt.ptr<f16> {tt.divisibility = 16 : i32} loc("K"(#loc)), %V: !tt.ptr<f16> {tt.divisibility = 16 : i32} loc("V"(#loc)), %dO: !tt.ptr<f16> {tt.divisibility = 16 : i32} loc("dO"(#loc)), %dQ: !tt.ptr<f16> {tt.divisibility = 16 : i32} loc("dQ"(#loc)), %dK: !tt.ptr<f16> {tt.divisibility = 16 : i32} loc("dK"(#loc)), %dV: !tt.ptr<f16> {tt.divisibility = 16 : i32} loc("dV"(#loc)), %M: !tt.ptr<f32> {tt.divisibility = 16 : i32} loc("M"(#loc)), %D: !tt.ptr<f32> {tt.divisibility = 16 : i32} loc("D"(#loc)), %stride_m: i32 {tt.divisibility = 16 : i32} loc("stride_m"(#loc)), %stride_n: i32 {tt.divisibility = 16 : i32} loc("stride_n"(#loc)), %N_CTX: i32 {tt.divisibility = 16 : i32} loc("N_CTX"(#loc))) attributes {noinline = false} {
    %c64_i32 = arith.constant 64 : i32 loc(#loc1)
    %cst = arith.constant dense<0.000000e+00> : tensor<64x128xf32> loc(#loc2)
    %cst_0 = arith.constant dense<0.000000e+00> : tensor<128x128xf32> loc(#loc2)
    %cst_1 = arith.constant dense<1.44269502> : tensor<128x64xf32> loc(#loc2)
    %cst_2 = arith.constant dense<0.000000e+00> : tensor<128x64xf32> loc(#loc2)
    %c0_i32 = arith.constant 0 : i32 loc(#loc2)
    %c1_i64 = arith.constant 1 : i64 loc(#loc2)
    %c128_i32 = arith.constant 128 : i32 loc(#loc2)
    %pid_n = tt.get_program_id x : i32 loc(#loc66)
    %off_hz = tt.get_program_id y : i32 loc(#loc67)
    %base = arith.muli %off_hz, %N_CTX : i32 loc(#loc68)
    %base_3 = arith.muli %base, %c128_i32 : i32 loc(#loc68)
    %start_n = arith.muli %pid_n, %c128_i32 : i32 loc(#loc69)
    %k_desc = tt.addptr %K, %base_3 : !tt.ptr<f16>, i32 loc(#loc70)
    %k_desc_4 = arith.extsi %stride_n : i32 to i64 loc(#loc71)
    %k_desc_5 = tt.make_tensor_descriptor %k_desc, [%N_CTX, %c128_i32], [%k_desc_4, %c1_i64] : !tt.ptr<f16>, !tt.tensordesc<128x128xf16> loc(#loc71)
    %v_desc = tt.addptr %V, %base_3 : !tt.ptr<f16>, i32 loc(#loc72)
    %v_desc_6 = arith.extsi %stride_n : i32 to i64 loc(#loc73)
    %v_desc_7 = tt.make_tensor_descriptor %v_desc, [%N_CTX, %c128_i32], [%v_desc_6, %c1_i64] : !tt.ptr<f16>, !tt.tensordesc<128x128xf16> loc(#loc73)
    %q_desc = tt.addptr %Q, %base_3 : !tt.ptr<f16>, i32 loc(#loc74)
    %q_desc_8 = arith.extsi %stride_m : i32 to i64 loc(#loc75)
    %q_desc_9 = tt.make_tensor_descriptor %q_desc, [%N_CTX, %c128_i32], [%q_desc_8, %c1_i64] : !tt.ptr<f16>, !tt.tensordesc<64x128xf16> loc(#loc75)
    %do_desc = tt.addptr %dO, %base_3 : !tt.ptr<f16>, i32 loc(#loc76)
    %do_desc_10 = arith.extsi %stride_m : i32 to i64 loc(#loc77)
    %do_desc_11 = tt.make_tensor_descriptor %do_desc, [%N_CTX, %c128_i32], [%do_desc_10, %c1_i64] : !tt.ptr<f16>, !tt.tensordesc<64x128xf16> loc(#loc77)
    %dq_desc = tt.addptr %dQ, %base_3 : !tt.ptr<f16>, i32 loc(#loc78)
    %dq_desc_12 = arith.extsi %stride_m : i32 to i64 loc(#loc79)
    %dq_desc_13 = tt.make_tensor_descriptor %dq_desc, [%N_CTX, %c128_i32], [%dq_desc_12, %c1_i64] : !tt.ptr<f16>, !tt.tensordesc<64x128xf16> loc(#loc79)
    %k = tt.descriptor_load %k_desc_5[%start_n, %c0_i32] : !tt.tensordesc<128x128xf16> -> tensor<128x128xf16> loc(#loc80)
    %v = tt.descriptor_load %v_desc_7[%start_n, %c0_i32] : !tt.tensordesc<128x128xf16> -> tensor<128x128xf16> loc(#loc81)
    %m_base = arith.muli %off_hz, %N_CTX : i32 loc(#loc82)
    %dv_acc:2 = scf.for %start_m = %c0_i32 to %N_CTX step %c64_i32 iter_args(%dk_acc = %cst_0, %dv_acc_18 = %cst_0) -> (tensor<128x128xf32>, tensor<128x128xf32>)  : i32 {
      %q = tt.descriptor_load %q_desc_9[%start_m, %c0_i32] : !tt.tensordesc<64x128xf16> -> tensor<64x128xf16> loc(#loc84)
      %do = tt.descriptor_load %do_desc_11[%start_m, %c0_i32] : !tt.tensordesc<64x128xf16> -> tensor<64x128xf16> loc(#loc85)
      %offs_m = tt.make_range {end = 64 : i32, start = 0 : i32} : tensor<64xi32> loc(#loc86)
      %offs_m_19 = tt.splat %start_m : i32 -> tensor<64xi32> loc(#loc87)
      %offs_m_20 = arith.addi %offs_m_19, %offs_m : tensor<64xi32> loc(#loc87)
      %m = tt.addptr %M, %m_base : !tt.ptr<f32>, i32 loc(#loc88)
      %m_21 = tt.splat %m : !tt.ptr<f32> -> tensor<64x!tt.ptr<f32>> loc(#loc88)
      %m_22 = tt.addptr %m_21, %offs_m_20 : tensor<64x!tt.ptr<f32>>, tensor<64xi32> loc(#loc88)
      %m_23 = tt.load %m_22 : tensor<64x!tt.ptr<f32>> loc(#loc89)
      %Di = tt.addptr %D, %m_base : !tt.ptr<f32>, i32 loc(#loc90)
      %Di_24 = tt.splat %Di : !tt.ptr<f32> -> tensor<64x!tt.ptr<f32>> loc(#loc90)
      %Di_25 = tt.addptr %Di_24, %offs_m_20 : tensor<64x!tt.ptr<f32>>, tensor<64xi32> loc(#loc90)
      %Di_26 = tt.load %Di_25 : tensor<64x!tt.ptr<f32>> loc(#loc91)
      %qkT = tt.trans %q {order = array<i32: 1, 0>} : tensor<64x128xf16> -> tensor<128x64xf16> loc(#loc92)
      %qkT_27 = tt.dot %k, %qkT, %cst_2, inputPrecision = tf32 : tensor<128x128xf16> * tensor<128x64xf16> -> tensor<128x64xf32> loc(#loc93)
      %pT = arith.mulf %qkT_27, %cst_1 : tensor<128x64xf32> loc(#loc94)
      %pT_28 = tt.expand_dims %m_23 {axis = 0 : i32} : tensor<64xf32> -> tensor<1x64xf32> loc(#loc95)
      %pT_29 = tt.broadcast %pT_28 : tensor<1x64xf32> -> tensor<128x64xf32> loc(#loc94)
      %pT_30 = arith.subf %pT, %pT_29 : tensor<128x64xf32> loc(#loc94)
      %pT_31 = math.exp2 %pT_30 : tensor<128x64xf32> loc(#loc96)
      %ppT = arith.truncf %pT_31 : tensor<128x64xf32> to tensor<128x64xf16> loc(#loc97)
      %dpT = tt.trans %do {order = array<i32: 1, 0>} : tensor<64x128xf16> -> tensor<128x64xf16> loc(#loc98)
      %dpT_32 = tt.dot %v, %dpT, %cst_2, inputPrecision = tf32 : tensor<128x128xf16> * tensor<128x64xf16> -> tensor<128x64xf32> loc(#loc99)
      %dv_acc_33 = tt.dot %ppT, %do, %dv_acc_18, inputPrecision = tf32 : tensor<128x64xf16> * tensor<64x128xf16> -> tensor<128x128xf32> loc(#loc100)
      %dsT = tt.expand_dims %Di_26 {axis = 0 : i32} : tensor<64xf32> -> tensor<1x64xf32> loc(#loc101)
      %dsT_34 = tt.broadcast %dsT : tensor<1x64xf32> -> tensor<128x64xf32> loc(#loc102)
      %dsT_35 = arith.subf %dpT_32, %dsT_34 : tensor<128x64xf32> loc(#loc102)
      %dsT_36 = arith.mulf %pT_31, %dsT_35 : tensor<128x64xf32> loc(#loc103)
      %dsT_37 = arith.truncf %dsT_36 : tensor<128x64xf32> to tensor<128x64xf16> loc(#loc104)
      %dq_partial = tt.trans %dsT_37 {order = array<i32: 1, 0>} : tensor<128x64xf16> -> tensor<64x128xf16> loc(#loc105)
      %dq_partial_38 = tt.dot %dq_partial, %k, %cst, inputPrecision = tf32 : tensor<64x128xf16> * tensor<128x128xf16> -> tensor<64x128xf32> loc(#loc106)
      %2 = arith.truncf %dq_partial_38 : tensor<64x128xf32> to tensor<64x128xf16> loc(#loc43)
      tt.descriptor_reduce add, %dq_desc_13[%start_m, %c0_i32], %2 : !tt.tensordesc<64x128xf16>, tensor<64x128xf16> loc(#loc44)
      %dk_acc_39 = tt.dot %dsT_37, %q, %dk_acc, inputPrecision = tf32 : tensor<128x64xf16> * tensor<64x128xf16> -> tensor<128x128xf32> loc(#loc107)
      scf.yield %dk_acc_39, %dv_acc_33 : tensor<128x128xf32>, tensor<128x128xf32> loc(#loc1)
    } {tt.warp_specialize} loc(#loc112)
    %dk_desc = tt.addptr %dK, %base_3 : !tt.ptr<f16>, i32 loc(#loc108)
    %dk_desc_14 = arith.extsi %stride_n : i32 to i64 loc(#loc109)
    %dk_desc_15 = tt.make_tensor_descriptor %dk_desc, [%N_CTX, %c128_i32], [%dk_desc_14, %c1_i64] : !tt.ptr<f16>, !tt.tensordesc<128x128xf16> loc(#loc109)
    %dv_desc = tt.addptr %dV, %base_3 : !tt.ptr<f16>, i32 loc(#loc110)
    %dv_desc_16 = arith.extsi %stride_n : i32 to i64 loc(#loc111)
    %dv_desc_17 = tt.make_tensor_descriptor %dv_desc, [%N_CTX, %c128_i32], [%dv_desc_16, %c1_i64] : !tt.ptr<f16>, !tt.tensordesc<128x128xf16> loc(#loc111)
    %0 = arith.truncf %dv_acc#0 : tensor<128x128xf32> to tensor<128x128xf16> loc(#loc50)
    tt.descriptor_store %dk_desc_15[%start_n, %c0_i32], %0 : !tt.tensordesc<128x128xf16>, tensor<128x128xf16> loc(#loc51)
    %1 = arith.truncf %dv_acc#1 : tensor<128x128xf32> to tensor<128x128xf16> loc(#loc52)
    tt.descriptor_store %dv_desc_17[%start_n, %c0_i32], %1 : !tt.tensordesc<128x128xf16>, tensor<128x128xf16> loc(#loc53)
    tt.return loc(#loc)
  } loc(#loc)
} loc(#loc)
#loc1 = loc("/projects/kzhou6/hwu27/triton-beta-3-paper-solver-wt/third_party/tlx/tools/sched2tlx/examples/case4_FA_bwd/handwritten_nows.py":79:5)
#loc2 = loc(unknown)
#loc3 = loc("/projects/kzhou6/hwu27/triton-beta-3-paper-solver-wt/third_party/tlx/tools/sched2tlx/examples/case4_FA_bwd/handwritten_nows.py":49:13)
#loc4 = loc("/projects/kzhou6/hwu27/triton-beta-3-paper-solver-wt/third_party/tlx/tools/sched2tlx/examples/case4_FA_bwd/handwritten_nows.py":50:14)
#loc5 = loc("/projects/kzhou6/hwu27/triton-beta-3-paper-solver-wt/third_party/tlx/tools/sched2tlx/examples/case4_FA_bwd/handwritten_nows.py":52:12)
#loc6 = loc("/projects/kzhou6/hwu27/triton-beta-3-paper-solver-wt/third_party/tlx/tools/sched2tlx/examples/case4_FA_bwd/handwritten_nows.py":53:15)
#loc7 = loc("/projects/kzhou6/hwu27/triton-beta-3-paper-solver-wt/third_party/tlx/tools/sched2tlx/examples/case4_FA_bwd/handwritten_nows.py":56:9)
…
      "nvws.descriptor_load"(%do_desc_6, %start_m, %4, %do_182#0) <{cache = 1 : i32, evict = 1 : i32, txCount = 16384 : i32}> {loop.cluster = 1 : i32, loop.stage = 0 : i32, ttg.partition = array<i32: 4>} : (!tt.tensordesc<64x128xf16, #shared>, i32, i32, !ttg.memdesc<64x128xf16, #shared, #smem, mutable, 1x64x128>) -> () loc(#loc90)
      "nvws.aref.put.exit"(%do_35, %do_182#1) <{async_ops = [#nvws.async_op<tma_load>]}> {loop.cluster = 1 : i32, loop.stage = 0 : i32, ttg.partition = array<i32: 4>} : (!nvws.aref<[!ttg.memdesc<1x64x128xf16, #shared, #smem, mutable>]>, !ttg.async.token) -> () loc(#loc90)
      %offs_m_183 = "tt.splat"(%start_m) {loop.cluster = 0 : i32, loop.stage = 0 : i32, ttg.partition = array<i32: 0, 1>} : (i32) -> tensor<64xi32, #ttg.slice<{dim = 0, parent = #linear1}>> loc(#loc95)
      %offs_m_184 = "arith.addi"(%offs_m_183, %offs_m) <{overflowFlags = #arith.overflow<none>}> {loop.cluster = 0 : i32, loop.stage = 0 : i32, ttg.partition = array<i32: 0, 1>} : (tensor<64xi32, #ttg.slice<{dim = 0, parent = #linear1}>>, tensor<64xi32, #ttg.slice<{dim = 0, parent = #linear1}>>) -> tensor<64xi32, #ttg.slice<{dim = 0, parent = #linear1}>> loc(#loc95)
      %m_185 = "tt.addptr"(%m_10, %offs_m_184) {loop.cluster = 0 : i32, loop.stage = 0 : i32, ttg.partition = array<i32: 0>} : (tensor<64x!tt.ptr<f32>, #ttg.slice<{dim = 0, parent = #linear1}>>, tensor<64xi32, #ttg.slice<{dim = 0, parent = #linear1}>>) -> tensor<64x!tt.ptr<f32>, #ttg.slice<{dim = 0, parent = #linear1}>> loc(#loc82)
      %m_186 = "tt.load"(%m_185) <{cache = 1 : i32, evict = 1 : i32, isVolatile = false, operandSegmentSizes = array<i32: 1, 0, 0>}> {loop.cluster = 2 : i32, loop.stage = 0 : i32, ttg.partition = array<i32: 0>} : (tensor<64x!tt.ptr<f32>, #ttg.slice<{dim = 0, parent = #linear1}>>) -> tensor<64xf32, #ttg.slice<{dim = 0, parent = #linear1}>> loc(#loc96)
      %Di_187 = "tt.addptr"(%Di_11, %offs_m_184) {loop.cluster = 0 : i32, loop.stage = 0 : i32, ttg.partition = array<i32: 0>} : (tensor<64x!tt.ptr<f32>, #ttg.slice<{dim = 0, parent = #linear1}>>, tensor<64xi32, #ttg.slice<{dim = 0, parent = #linear1}>>) -> tensor<64x!tt.ptr<f32>, #ttg.slice<{dim = 0, parent = #linear1}>> loc(#loc83)
      %Di_188 = "tt.load"(%Di_187) <{cache = 1 : i32, evict = 1 : i32, isVolatile = false, operandSegmentSizes = array<i32: 1, 0, 0>}> {loop.cluster = 3 : i32, loop.stage = 0 : i32, ttg.partition = array<i32: 0>} : (tensor<64x!tt.ptr<f32>, #ttg.slice<{dim = 0, parent = #linear1}>>) -> tensor<64xf32, #ttg.slice<{dim = 0, parent = #linear1}>> loc(#loc97)
      %q_189:2 = "nvws.aref.get.enter"(%q_34) <{operandSegmentSizes = array<i32: 1, 0, 0>}> {loop.cluster = 6 : i32, loop.stage = 0 : i32, ttg.partition = array<i32: 1>} : (!nvws.aref<[!ttg.memdesc<1x64x128xf16, #shared, #smem, mutable>]>) -> (!ttg.memdesc<64x128xf16, #shared, #smem, 1x64x128>, !ttg.async.token) loc(#loc89)
      %qkT_190 = "ttg.memdesc_trans"(%q_189#0) <{order = array<i32: 1, 0>}> {loop.cluster = 6 : i32, loop.stage = 0 : i32, ttg.partition = array<i32: 1>} : (!ttg.memdesc<64x128xf16, #shared, #smem, 1x64x128>) -> !ttg.memdesc<128x64xf16, #shared3, #smem, 1x128x64> loc(#loc98)
      %qkT_191 = "ttg.memdesc_index"(%qkT#0, %qkT_167) {ttg.partition = array<i32: 1>} : (!ttg.memdesc<2x128x64xf32, #tmem, #ttng.tensor_memory, mutable>, i32) -> !ttg.memdesc<128x64xf32, #tmem, #ttng.tensor_memory, mutable> loc(#loc84)
      %dv_acc_192 = "ttg.memdesc_index"(%dv_acc_43, %qkT_167) {ttg.partition = array<i32: 1>} : (!ttg.memdesc<2x1xi64, #shared2, #smem, mutable>, i32) -> !ttg.memdesc<1xi64, #shared2, #smem, mutable> loc(#loc111)
      "ttng.wait_barrier"(%dv_acc_192, %qkT_168, %qkT_54) <{operandSegmentSizes = array<i32: 1, 1, 1, 0>}> {loop.cluster = 6 : i32, loop.stage = 0 : i32, ttg.partition = array<i32: 1>} : (!ttg.memdesc<1xi64, #shared2, #smem, mutable>, i32, i1) -> () loc(#loc84)
      %dv_acc_193 = "ttg.memdesc_index"(%dv_acc_38, %qkT_167) {ttg.partition = array<i32: 1>} : (!ttg.memdesc<2x1xi64, #shared2, #smem, mutable>, i32) -> !ttg.memdesc<1xi64, #shared2, #smem, mutable> loc(#loc111)
      %qkT_194 = "ttng.tc_gen5_mma"(%k_8, %qkT_190, %qkT_191, %0, %1, %dv_acc_193, %qkT_54) <{is_async, operandSegmentSizes = array<i32: 1, 1, 1, 0, 1, 1, 1, 1>}> {loop.cluster = 6 : i32, loop.stage = 0 : i32, ttg.partition = array<i32: 1>} : (!ttg.memdesc<128x128xf16, #shared, #smem>, !ttg.memdesc<128x64xf16, #shared3, #smem, 1x128x64>, !ttg.memdesc<128x64xf32, #tmem, #ttng.tensor_memory, mutable>, i1, i1, !ttg.memdesc<1xi64, #shared2, #smem, mutable>, i1) -> !ttg.async.token loc(#loc84)
      %qkT_195 = "ttg.memdesc_index"(%qkT#0, %qkT_167) {ttg.partition = array<i32: 0>} : (!ttg.memdesc<2x128x64xf32, #tmem, #ttng.tensor_memory, mutable>, i32) -> !ttg.memdesc<128x64xf32, #tmem, #ttng.tensor_memory, mutable> loc(#loc84)
      %dv_acc_196 = "ttg.memdesc_index"(%dv_acc_38, %qkT_167) {ttg.partition = array<i32: 0>} : (!ttg.memdesc<2x1xi64, #shared2, #smem, mutable>, i32) -> !ttg.memdesc<1xi64, #shared2, #smem, mutable> loc(#loc111)
      "ttng.wait_barrier"(%dv_acc_196, %qkT_168) <{operandSegmentSizes = array<i32: 1, 1, 0, 0>}> {loop.cluster = 0 : i32, loop.stage = 1 : i32, ttg.partition = array<i32: 0>} : (!ttg.memdesc<1xi64, #shared2, #smem, mutable>, i32) -> () loc(#loc84)
      %qkT_197:2 = "ttng.tmem_load"(%qkT_195) <{resultSegmentSizes = array<i32: 1, 1, 0>}> {loop.cluster = 0 : i32, loop.stage = 1 : i32, ttg.partition = array<i32: 0>} : (!ttg.memdesc<128x64xf32, #tmem, #ttng.tensor_memory, mutable>) -> (tensor<128x64xf32, #linear1>, !ttg.async.token) loc(#loc84)
      %dv_acc_198 = "ttg.memdesc_index"(%dv_acc_43, %qkT_167) {ttg.partition = array<i32: 0>} : (!ttg.memdesc<2x1xi64, #shared2, #smem, mutable>, i32) -> !ttg.memdesc<1xi64, #shared2, #smem, mutable> loc(#loc111)
      "ttng.arrive_barrier"(%dv_acc_198) <{count = 1 : i32}> {loop.cluster = 0 : i32, loop.stage = 1 : i32, ttg.partition = array<i32: 0>} : (!ttg.memdesc<1xi64, #shared2, #smem, mutable>) -> () loc(#loc84)
      %qkT_199 = "arith.constant"() <{value = 1 : i32}> : () -> i32 loc(#loc84)
      %qkT_200 = "arith.addi"(%qkT_167, %qkT_199) <{overflowFlags = #arith.overflow<none>}> : (i32, i32) -> i32 loc(#loc84)
      %qkT_201 = "arith.constant"() <{value = 1 : i32}> : () -> i32 loc(#loc84)
      %qkT_202 = "arith.xori"(%qkT_168, %qkT_201) : (i32, i32) -> i32 loc(#loc84)
      %qkT_203 = "arith.constant"() <{value = 2 : i32}> : () -> i32 loc(#loc84)
      %qkT_204 = "arith.cmpi"(%qkT_200, %qkT_203) <{predicate = 0 : i64}> : (i32, i32) -> i1 loc(#loc84)
      %qkT_205 = "arith.constant"() <{value = 0 : i32}> : () -> i32 loc(#loc84)
      %qkT_206 = "arith.select"(%qkT_204, %qkT_205, %qkT_200) : (i1, i32, i32) -> i32 loc(#loc84)
      %qkT_207 = "arith.select"(%qkT_204, %qkT_202, %qkT_168) : (i1, i32, i32) -> i32 loc(#loc84)
      %qkT_208 = "arith.select"(%qkT_54, %qkT_206, %qkT_167) : (i1, i32, i32) -> i32 loc(#loc84)
      %qkT_209 = "arith.select"(%qkT_54, %qkT_207, %qkT_168) : (i1, i32, i32) -> i32 loc(#loc84)
      %pT = "arith.mulf"(%qkT_197#0, %7) <{fastmath = #arith.fastmath<none>}> {loop.cluster = 2 : i32, loop.stage = 1 : i32, ttg.partition = array<i32: 0>} : (tensor<128x64xf32, #linear1>, tensor<128x64xf32, #linear1>) -> tensor<128x64xf32, #linear1> loc(#loc99)
      %pT_210 = "tt.expand_dims"(%m_186) <{axis = 0 : i32}> {loop.cluster = 4 : i32, loop.stage = 0 : i32, ttg.partition = array<i32: 0>} : (tensor<64xf32, #ttg.slice<{dim = 0, parent = #linear1}>>) -> tensor<1x64xf32, #linear1> loc(#loc100)
      %pT_211 = "tt.broadcast"(%pT_210) {loop.cluster = 4 : i32, loop.stage = 0 : i32, ttg.partition = array<i32: 0>} : (tensor<1x64xf32, #linear1>) -> tensor<128x64xf32, #linear1> loc(#loc99)
      %pT_212 = "arith.subf"(%pT, %pT_211) <{fastmath = #arith.fastmath<none>}> {loop.cluster = 3 : i32, loop.stage = 1 : i32, ttg.partition = array<i32: 0>} : (tensor<128x64xf32, #linear1>, tensor<128x64xf32, #linear1>) -> tensor<128x64xf32, #linear1> loc(#loc99)
      %pT_213 = "math.exp2"(%pT_212) <{fastmath = #arith.fastmath<none>}> {loop.cluster = 5 : i32, loop.stage = 1 : i32, ttg.partition = array<i32: 0>} : (tensor<128x64xf32, #linear1>) -> tensor<128x64xf32, #linear1> loc(#loc101)
      %ppT_214 = "arith.truncf"(%pT_213) {loop.cluster = 0 : i32, loop.stage = 2 : i32, ttg.partition = array<i32: 0>} : (tensor<128x64xf32, #linear1>) -> tensor<128x64xf16, #linear1> loc(#loc91)
      %ppT_215:2 = "nvws.aref.put.enter"(%ppT_36) <{operandSegmentSizes = array<i32: 1, 0, 0>}> {loop.cluster = 0 : i32, loop.stage = 2 : i32, ttg.partition = array<i32: 0>} : (!nvws.aref<[!ttg.memdesc<1x128x64xf16, #shared1, #smem, mutable>]>) -> (!ttg.memdesc<128x64xf16, #shared1, #smem, mutable, 1x128x64>, !ttg.async.token) loc(#loc91)
      "ttg.local_store"(%ppT_214, %ppT_215#0) {loop.cluster = 0 : i32, loop.stage = 2 : i32, ttg.partition = array<i32: 0>} : (tensor<128x64xf16, #linear1>, !ttg.memdesc<128x64xf16, #shared1, #smem, mutable, 1x128x64>) -> () loc(#loc91)
      "nvws.aref.put.exit"(%ppT_36, %ppT_215#1) <{async_ops = [#nvws.async_op<none>]}> {loop.cluster = 0 : i32, loop.stage = 2 : i32, ttg.partition = array<i32: 0>} : (!nvws.aref<[!ttg.memdesc<1x128x64xf16, #shared1, #smem, mutable>]>, !ttg.async.token) -> () loc(#loc91)
      %ppT_216:2 = "nvws.aref.get.enter"(%ppT_36) <{operandSegmentSizes = array<i32: 1, 0, 0>}> {loop.cluster = 2 : i32, loop.stage = 2 : i32, ttg.partition = array<i32: 2>} : (!nvws.aref<[!ttg.memdesc<1x128x64xf16, #shared1, #smem, mutable>]>) -> (!ttg.memdesc<128x64xf16, #shared1, #smem, 1x128x64>, !ttg.async.token) loc(#loc91)
      %ppT_217 = "ttg.local_load"(%ppT_216#0) {loop.cluster = 2 : i32, loop.stage = 2 : i32, ttg.partition = array<i32: 2>} : (!ttg.memdesc<128x64xf16, #shared1, #smem, 1x128x64>) -> tensor<128x64xf16, #linear1> loc(#loc91)
      "nvws.aref.get.exit"(%ppT_36, %ppT_216#1) <{async_ops = [#nvws.async_op<tc5mma>]}> {loop.cluster = 2 : i32, loop.stage = 2 : i32, ttg.partition = array<i32: 2>} : (!nvws.aref<[!ttg.memdesc<1x128x64xf16, #shared1, #smem, mutable>]>, !ttg.async.token) -> () loc(#loc91)
      %dv_acc_218 = "arith.constant"() <{value = true}> : () -> i1 loc(#loc86)
      %dv_acc_219 = "ttg.memdesc_index"(%dv_acc_83, %dv_acc_173) {ttg.partition = array<i32: 2>} : (!ttg.memdesc<1x1xi64, #shared2, #smem, mutable>, i32) -> !ttg.memdesc<1xi64, #shared2, #smem, mutable> loc(#loc111)
      "ttng.wait_barrier"(%dv_acc_219, %dv_acc_174) <{operandSegmentSizes = array<i32: 1, 1, 0, 0>}> {loop.cluster = 2 : i32, loop.stage = 2 : i32, ttg.partition = array<i32: 2>} : (!ttg.memdesc<1xi64, #shared2, #smem, mutable>, i32) -> () loc(#loc86)
      "ttng.tmem_store"(%dv_acc_82, %ppT_217, %dv_acc_218) {loop.cluster = 2 : i32, loop.stage = 2 : i32, ttg.partition = array<i32: 2>} : (!ttg.memdesc<128x64xf16, #tmem, #ttng.tensor_memory, mutable>, tensor<128x64xf16, #linear1>, i1) -> () loc(#loc86)
      %dv_acc_220 = "ttg.memdesc_index"(%dv_acc_86, %dv_acc_173) {ttg.partition = array<i32: 2>} : (!ttg.memdesc<1x1xi64, #shared2, #smem, mutable>, i32) -> !ttg.memdesc<1xi64, #shared2, #smem, mutable> loc(#loc111)
      "ttng.arrive_barrier"(%dv_acc_220) <{count = 1 : i32}> {loop.cluster = 2 : i32, loop.stage = 2 : i32, ttg.partition = array<i32: 2>} : (!ttg.memdesc<1xi64, #shared2, #smem, mutable>) -> () loc(#loc86)
      %do_221:2 = "nvws.aref.get.enter"(%do_35) <{operandSegmentSizes = array<i32: 1, 0, 0>}> {loop.cluster = 7 : i32, loop.stage = 0 : i32, ttg.partition = array<i32: 2>} : (!nvws.aref<[!ttg.memdesc<1x64x128xf16, #shared, #smem, mutable>]>) -> (!ttg.memdesc<64x128xf16, #shared, #smem, 1x64x128>, !ttg.async.token) loc(#loc90)
      %dpT_222 = "ttg.memdesc_trans"(%do_221#0) <{order = array<i32: 1, 0>}> {loop.cluster = 7 : i32, loop.stage = 0 : i32, ttg.partition = array<i32: 2>} : (!ttg.memdesc<64x128xf16, #shared, #smem, 1x64x128>) -> !ttg.memdesc<128x64xf16, #shared3, #smem, 1x128x64> loc(#loc102)
      %dpT_223 = "ttg.memdesc_index"(%dpT#0, %dpT_169) {ttg.partition = array<i32: 2>} : (!ttg.memdesc<2x128x64xf32, #tmem, #ttng.tensor_memory, mutable>, i32) -> !ttg.memdesc<128x64xf32, #tmem, #ttng.tensor_memory, mutable> loc(#loc85)
      %dv_acc_224 = "ttg.memdesc_index"(%dv_acc_60, %dpT_169) {ttg.partition = array<i32: 2>} : (!ttg.memdesc<2x1xi64, #shared2, #smem, mutable>, i32) -> !ttg.memdesc<1xi64, #shared2, #smem, mutable> loc(#loc111)
      "ttng.wait_barrier"(%dv_acc_224, %dpT_170, %dpT_71) <{operandSegmentSizes = array<i32: 1, 1, 1, 0>}> {loop.cluster = 7 : i32, loop.stage = 0 : i32, ttg.partition = array<i32: 2>} : (!ttg.memdesc<1xi64, #shared2, #smem, mutable>, i32, i1) -> () loc(#loc85)
      %dv_acc_225 = "ttg.memdesc_index"(%dv_acc_55, %dpT_169) {ttg.partition = array<i32: 2>} : (!ttg.memdesc<2x1xi64, #shared2, #smem, mutable>, i32) -> !ttg.memdesc<1xi64, #shared2, #smem, mutable> loc(#loc111)
      %dpT_226 = "ttng.tc_gen5_mma"(%v_9, %dpT_222, %dpT_223, %0, %1, %dv_acc_225, %dpT_71) <{is_async, operandSegmentSizes = array<i32: 1, 1, 1, 0, 1, 1, 1, 1>}> {loop.cluster = 7 : i32, loop.stage = 0 : i32, ttg.partition = array<i32: 2>} : (!ttg.memdesc<128x128xf16, #shared, #smem>, !ttg.memdesc<128x64xf16, #shared3, #smem, 1x128x64>, !ttg.memdesc<128x64xf32, #tmem, #ttng.tensor_memory, mutable>, i1, i1, !ttg.memdesc<1xi64, #shared2, #smem, mutable>, i1) -> !ttg.async.token loc(#loc85)
      %dv_acc_227 = "arith.cmpi"(%start_m, %dv_acc_77) <{predicate = 0 : i64}> : (i32, i32) -> i1 loc(#loc86)
      %dv_acc_228 = "ttg.memdesc_index"(%dv_acc#0, %dv_acc_171) {ttg.partition = array<i32: 2>} : (!ttg.memdesc<2x128x128xf32, #tmem1, #ttng.tensor_memory, mutable>, i32) -> !ttg.memdesc<128x128xf32, #tmem1, #ttng.tensor_memory, mutable> loc(#loc86)
      %dv_acc_229 = "ttg.memdesc_index"(%dv_acc_78, %dv_acc_171) {ttg.partition = array<i32: 2>} : (!ttg.memdesc<1x1xi64, #shared2, #smem, mutable>, i32) -> !ttg.memdesc<1xi64, #shared2, #smem, mutable> loc(#loc111)
      %dv_acc_230 = "ttg.memdesc_index"(%dv_acc_86, %dv_acc_173) {ttg.partition = array<i32: 2>} : (!ttg.memdesc<1x1xi64, #shared2, #smem, mutable>, i32) -> !ttg.memdesc<1xi64, #shared2, #smem, mutable> loc(#loc111)
      "ttng.wait_barrier"(%dv_acc_230, %dv_acc_174) <{operandSegmentSizes = array<i32: 1, 1, 0, 0>}> {loop.cluster = 2 : i32, loop.stage = 2 : i32, ttg.partition = array<i32: 2>} : (!ttg.memdesc<1xi64, #shared2, #smem, mutable>, i32) -> () loc(#loc86)
      %dv_acc_231 = "ttg.memdesc_index"(%dv_acc_83, %dv_acc_173) {ttg.partition = array<i32: 2>} : (!ttg.memdesc<1x1xi64, #shared2, #smem, mutable>, i32) -> !ttg.memdesc<1xi64, #shared2, #smem, mutable> loc(#loc111)
      %dv_acc_232 = "arith.constant"() <{value = true}> : () -> i1 loc(#loc86)
      %dv_acc_233 = "ttng.tc_gen5_mma"(%dv_acc_82, %do_221#0, %dv_acc_228, %dv_acc_161, %1, %dv_acc_229, %dv_acc_231, %dv_acc_227, %dv_acc_232) <{is_async, operandSegmentSizes = array<i32: 1, 1, 1, 0, 1, 1, 2, 2>}> {loop.cluster = 2 : i32, loop.stage = 2 : i32, ttg.partition = array<i32: 2>} : (!ttg.memdesc<128x64xf16, #tmem, #ttng.tensor_memory, mutable>, !ttg.memdesc<64x128xf16, #shared, #smem, 1x64x128>, !ttg.memdesc<128x128xf32, #tmem1, #ttng.tensor_memory, mutable>, i1, i1, !ttg.memdesc<1xi64, #shared2, #smem, mutable>, !ttg.memdesc<1xi64, #shared2, #smem, mutable>, i1, i1) -> !ttg.async.token loc(#loc86)
      "nvws.aref.get.exit"(%do_35, %do_221#1) <{async_ops = [#nvws.async_op<tc5mma>]}> {loop.cluster = 2 : i32, loop.stage = 2 : i32, ttg.partition = array<i32: 2>} : (!nvws.aref<[!ttg.memdesc<1x64x128xf16, #shared, #smem, mutable>]>, !ttg.async.token) -> () loc(#loc90)
      %dsT_234 = "tt.expand_dims"(%Di_188) <{axis = 0 : i32}> {loop.cluster = 5 : i32, loop.stage = 0 : i32, ttg.partition = array<i32: 0>} : (tensor<64xf32, #ttg.slice<{dim = 0, parent = #linear1}>>) -> tensor<1x64xf32, #linear1> loc(#loc103)
      %dsT_235 = "tt.broadcast"(%dsT_234) {loop.cluster = 5 : i32, loop.stage = 0 : i32, ttg.partition = array<i32: 0>} : (tensor<1x64xf32, #linear1>) -> tensor<128x64xf32, #linear1> loc(#loc104)
      %dpT_236 = "ttg.memdesc_index"(%dpT#0, %dpT_169) {ttg.partition = array<i32: 0>} : (!ttg.memdesc<2x128x64xf32, #tmem, #ttng.tensor_memory, mutable>, i32) -> !ttg.memdesc<128x64xf32, #tmem, #ttng.tensor_memory, mutable> loc(#loc85)
      %dv_acc_237 = "ttg.memdesc_index"(%dv_acc_55, %dpT_169) {ttg.partition = array<i32: 0>} : (!ttg.memdesc<2x1xi64, #shared2, #smem, mutable>, i32) -> !ttg.memdesc<1xi64, #shared2, #smem, mutable> loc(#loc111)
      "ttng.wait_barrier"(%dv_acc_237, %dpT_170) <{operandSegmentSizes = array<i32: 1, 1, 0, 0>}> {loop.cluster = 1 : i32, loop.stage = 1 : i32, ttg.partition = array<i32: 0>} : (!ttg.memdesc<1xi64, #shared2, #smem, mutable>, i32) -> () loc(#loc85)
      %dpT_238:2 = "ttng.tmem_load"(%dpT_236) <{resultSegmentSizes = array<i32: 1, 1, 0>}> {loop.cluster = 1 : i32, loop.stage = 1 : i32, ttg.partition = array<i32: 0>} : (!ttg.memdesc<128x64xf32, #tmem, #ttng.tensor_memory, mutable>) -> (tensor<128x64xf32, #linear1>, !ttg.async.token) loc(#loc85)
      %dv_acc_239 = "ttg.memdesc_index"(%dv_acc_60, %dpT_169) {ttg.partition = array<i32: 0>} : (!ttg.memdesc<2x1xi64, #shared2, #smem, mutable>, i32) -> !ttg.memdesc<1xi64, #shared2, #smem, mutable> loc(#loc111)
      "ttng.arrive_barrier"(%dv_acc_239) <{count = 1 : i32}> {loop.cluster = 1 : i32, loop.stage = 1 : i32, ttg.partition = array<i32: 0>} : (!ttg.memdesc<1xi64, #shared2, #smem, mutable>) -> () loc(#loc85)
      %dpT_240 = "arith.constant"() <{value = 1 : i32}> : () -> i32 loc(#loc85)
      %dpT_241 = "arith.addi"(%dpT_169, %dpT_240) <{overflowFlags = #arith.overflow<none>}> : (i32, i32) -> i32 loc(#loc85)
      %dpT_242 = "arith.constant"() <{value = 1 : i32}> : () -> i32 loc(#loc85)
      %dpT_243 = "arith.xori"(%dpT_170, %dpT_242) : (i32, i32) -> i32 loc(#loc85)
      %dpT_244 = "arith.constant"() <{value = 2 : i32}> : () -> i32 loc(#loc85)
      %dpT_245 = "arith.cmpi"(%dpT_241, %dpT_244) <{predicate = 0 : i64}> : (i32, i32) -> i1 loc(#loc85)
      %dpT_246 = "arith.constant"() <{value = 0 : i32}> : () -> i32 loc(#loc85)
      %dpT_247 = "arith.select"(%dpT_245, %dpT_246, %dpT_241) : (i1, i32, i32) -> i32 loc(#loc85)
      %dpT_248 = "arith.select"(%dpT_245, %dpT_243, %dpT_170) : (i1, i32, i32) -> i32 loc(#loc85)
      %dpT_249 = "arith.select"(%dpT_71, %dpT_247, %dpT_169) : (i1, i32, i32) -> i32 loc(#loc85)
      %dpT_250 = "arith.select"(%dpT_71, %dpT_248, %dpT_170) : (i1, i32, i32) -> i32 loc(#loc85)
      %dsT_251 = "arith.subf"(%dpT_238#0, %dsT_235) <{fastmath = #arith.fastmath<none>}> {loop.cluster = 4 : i32, loop.stage = 1 : i32, ttg.partition = array<i32: 0>} : (tensor<128x64xf32, #linear1>, tensor<128x64xf32, #linear1>) -> tensor<128x64xf32, #linear1> loc(#loc104)
      %dsT_252 = "arith.mulf"(%pT_213, %dsT_251) <{fastmath = #arith.fastmath<none>}> {loop.cluster = 6 : i32, loop.stage = 1 : i32, ttg.partition = array<i32: 0>} : (tensor<128x64xf32, #linear1>, tensor<128x64xf32, #linear1>) -> tensor<128x64xf32, #linear1> loc(#loc105)
      %dsT_253 = "arith.truncf"(%dsT_252) {loop.cluster = 7 : i32, loop.stage = 1 : i32, ttg.partition = array<i32: 0>} : (tensor<128x64xf32, #linear1>) -> tensor<128x64xf16, #linear1> loc(#loc92)
      %dsT_254:2 = "nvws.aref.put.enter"(%dsT_37) <{operandSegmentSizes = array<i32: 1, 0, 0>}> {loop.cluster = 7 : i32, loop.stage = 1 : i32, ttg.partition = array<i32: 0>} : (!nvws.aref<[!ttg.memdesc<1x128x64xf16, #shared, #smem, mutable>]>) -> (!ttg.memdesc<128x64xf16, #shared, #smem, mutable, 1x128x64>, !ttg.async.token) loc(#loc92)
      "ttg.local_store"(%dsT_253, %dsT_254#0) {loop.cluster = 7 : i32, loop.stage = 1 : i32, ttg.partition = array<i32: 0>} : (tensor<128x64xf16, #linear1>, !ttg.memdesc<128x64xf16, #shared, #smem, mutable, 1x128x64>) -> () loc(#loc92)
      "nvws.aref.put.exit"(%dsT_37, %dsT_254#1) <{async_ops = [#nvws.async_op<none>]}> {loop.cluster = 7 : i32, loop.stage = 1 : i32, ttg.partition = array<i32: 0>} : (!nvws.aref<[!ttg.memdesc<1x128x64xf16, #shared, #smem, mutable>]>, !ttg.async.token) -> () loc(#loc92)
      %dsT_255:2 = "nvws.aref.get.enter"(%dsT_37) <{operandSegmentSizes = array<i32: 1, 0, 0>}> {loop.cluster = 8 : i32, loop.stage = 1 : i32, ttg.partition = array<i32: 1>} : (!nvws.aref<[!ttg.memdesc<1x128x64xf16, #shared, #smem, mutable>]>) -> (!ttg.memdesc<128x64xf16, #shared, #smem, 1x128x64>, !ttg.async.token) loc(#loc92)
      %dsT_256 = "ttg.local_load"(%dsT_255#0) {loop.cluster = 8 : i32, loop.stage = 1 : i32, ttg.partition = array<i32: 1>} : (!ttg.memdesc<128x64xf16, #shared, #smem, 1x128x64>) -> tensor<128x64xf16, #linear1> loc(#loc92)
      "nvws.aref.get.exit"(%dsT_37, %dsT_255#1) <{async_ops = [#nvws.async_op<tc5mma>]}> {loop.cluster = 8 : i32, loop.stage = 1 : i32, ttg.partition = array<i32: 1>} : (!nvws.aref<[!ttg.memdesc<1x128x64xf16, #shared, #smem, mutable>]>, !ttg.async.token) -> () loc(#loc92)
      %dv_acc_257 = "ttg.memdesc_index"(%dv_acc_96, %dsT_177) {ttg.partition = array<i32: 1>} : (!ttg.memdesc<1x1xi64, #shared2, #smem, mutable>, i32) -> !ttg.memdesc<1xi64, #shared2, #smem, mutable> loc(#loc111)
      "ttng.wait_barrier"(%dv_acc_257, %dsT_178) <{operandSegmentSizes = array<i32: 1, 1, 0, 0>}> {loop.cluster = 8 : i32, loop.stage = 1 : i32, ttg.partition = array<i32: 1>} : (!ttg.memdesc<1xi64, #shared2, #smem, mutable>, i32) -> () loc(#loc92)
      "ttg.local_store"(%dsT_256, %dsT_95) {loop.cluster = 8 : i32, loop.stage = 1 : i32, ttg.partition = array<i32: 1>} : (tensor<128x64xf16, #linear1>, !ttg.memdesc<128x64xf16, #shared, #smem, mutable>) -> () loc(#loc92)
      "ttng.fence_async_shared"() <{bCluster = false}> {loop.cluster = 8 : i32, loop.stage = 1 : i32, ttg.partition = array<i32: 1>} : () -> () loc(#loc92)
      %dv_acc_258 = "ttg.memdesc_index"(%dv_acc_99, %dsT_177) {ttg.partition = array<i32: 1>} : (!ttg.memdesc<1x1xi64, #shared2, #smem, mutable>, i32) -> !ttg.memdesc<1xi64, #shared2, #smem, mutable> loc(#loc111)
      "ttng.arrive_barrier"(%dv_acc_258) <{count = 1 : i32}> {loop.cluster = 8 : i32, loop.stage = 1 : i32, ttg.partition = array<i32: 1>} : (!ttg.memdesc<1xi64, #shared2, #smem, mutable>) -> () loc(#loc92)
      %dq_partial_259 = "ttg.memdesc_trans"(%dsT_95) <{order = array<i32: 1, 0>}> {loop.cluster = 8 : i32, loop.stage = 1 : i32, ttg.partition = array<i32: 1>} : (!ttg.memdesc<128x64xf16, #shared, #smem, mutable>) -> !ttg.memdesc<64x128xf16, #shared3, #smem, mutable> loc(#loc106)
      %dq_partial_260 = "ttg.memdesc_index"(%dq_partial#0, %dq_partial_175) {ttg.partition = array<i32: 1>} : (!ttg.memdesc<2x64x128xf32, #tmem2, #ttng.tensor_memory, mutable>, i32) -> !ttg.memdesc<64x128xf32, #tmem2, #ttng.tensor_memory, mutable> loc(#loc87)
      %dv_acc_261 = "ttg.memdesc_index"(%dv_acc_99, %dsT_177) {ttg.partition = array<i32: 1>} : (!ttg.memdesc<1x1xi64, #shared2, #smem, mutable>, i32) -> !ttg.memdesc<1xi64, #shared2, #smem, mutable> loc(#loc111)
      "ttng.wait_barrier"(%dv_acc_261, %dsT_178) <{operandSegmentSizes = array<i32: 1, 1, 0, 0>}> {loop.cluster = 8 : i32, loop.stage = 1 : i32, ttg.partition = array<i32: 1>} : (!ttg.memdesc<1xi64, #shared2, #smem, mutable>, i32) -> () loc(#loc92)
      %dv_acc_262 = "ttg.memdesc_index"(%dv_acc_96, %dsT_177) {ttg.partition = array<i32: 1>} : (!ttg.memdesc<1x1xi64, #shared2, #smem, mutable>, i32) -> !ttg.memdesc<1xi64, #shared2, #smem, mutable> loc(#loc111)
      %dsT_263 = "arith.constant"() <{value = true}> : () -> i1 loc(#loc92)
      %dq_partial_264 = "ttng.tc_gen5_mma"(%dq_partial_259, %k_8, %dq_partial_260, %0, %1, %dv_acc_262, %dsT_263) <{is_async, operandSegmentSizes = array<i32: 1, 1, 1, 0, 1, 1, 1, 1>}> {loop.cluster = 8 : i32, loop.stage = 1 : i32, ttg.partition = array<i32: 1>} : (!ttg.memdesc<64x128xf16, #shared3, #smem, mutable>, !ttg.memdesc<128x128xf16, #shared, #smem>, !ttg.memdesc<64x128xf32, #tmem2, #ttng.tensor_memory, mutable>, i1, i1, !ttg.memdesc<1xi64, #shared2, #smem, mutable>, i1) -> !ttg.async.token loc(#loc87)
      %dq_partial_265 = "ttg.memdesc_index"(%dq_partial#0, %dq_partial_175) {ttg.partition = array<i32: 1>} : (!ttg.memdesc<2x64x128xf32, #tmem2, #ttng.tensor_memory, mutable>, i32) -> !ttg.memdesc<64x128xf32, #tmem2, #ttng.tensor_memory, mutable> loc(#loc87)
      %dq_partial_266:2 = "ttng.tmem_load"(%dq_partial_265) <{resultSegmentSizes = array<i32: 1, 1, 0>}> {loop.cluster = 3 : i32, loop.stage = 2 : i32, ttg.partition = array<i32: 1>} : (!ttg.memdesc<64x128xf32, #tmem2, #ttng.tensor_memory, mutable>) -> (tensor<64x128xf32, #linear2>, !ttg.async.token) loc(#loc87)
      %dq_partial_267 = "arith.constant"() <{value = 1 : i32}> : () -> i32 loc(#loc87)
      %dq_partial_268 = "arith.addi"(%dq_partial_175, %dq_partial_267) <{overflowFlags = #arith.overflow<none>}> : (i32, i32) -> i32 loc(#loc87)
      %dq_partial_269 = "arith.constant"() <{value = 1 : i32}> : () -> i32 loc(#loc87)
      %dq_partial_270 = "arith.xori"(%dq_partial_176, %dq_partial_269) : (i32, i32) -> i32 loc(#loc87)
      %dq_partial_271 = "arith.constant"() <{value = 2 : i32}> : () -> i32 loc(#loc87)
      %dq_partial_272 = "arith.cmpi"(%dq_partial_268, %dq_partial_271) <{predicate = 0 : i64}> : (i32, i32) -> i1 loc(#loc87)
      %dq_partial_273 = "arith.constant"() <{value = 0 : i32}> : () -> i32 loc(#loc87)
      %dq_partial_274 = "arith.select"(%dq_partial_272, %dq_partial_273, %dq_partial_268) : (i1, i32, i32) -> i32 loc(#loc87)
      %dq_partial_275 = "arith.select"(%dq_partial_272, %dq_partial_270, %dq_partial_176) : (i1, i32, i32) -> i32 loc(#loc87)
      %dq_partial_276 = "arith.select"(%dq_partial_94, %dq_partial_274, %dq_partial_175) : (i1, i32, i32) -> i32 loc(#loc87)
      %dq_partial_277 = "arith.select"(%dq_partial_94, %dq_partial_275, %dq_partial_176) : (i1, i32, i32) -> i32 loc(#loc87)
      %12 = "arith.truncf"(%dq_partial_266#0) {loop.cluster = 4 : i32, loop.stage = 2 : i32, ttg.partition = array<i32: 1>} : (tensor<64x128xf32, #linear2>) -> tensor<64x128xf16, #linear2> loc(#loc43)
      %13 = "ttg.convert_layout"(%12) {loop.cluster = 0 : i32, loop.stage = 3 : i32, ttg.partition = array<i32: 1>} : (tensor<64x128xf16, #linear2>) -> tensor<64x128xf16, #blocked> loc(#loc44)
      "tt.descriptor_reduce"(%dq_desc_7, %13, %start_m, %4) <{kind = 1 : i32}> {loop.cluster = 1 : i32, loop.stage = 3 : i32, ttg.partition = array<i32: 1>} : (!tt.tensordesc<64x128xf16, #shared>, tensor<64x128xf16, #blocked>, i32, i32) -> () loc(#loc44)
      %dk_acc_278 = "arith.cmpi"(%start_m, %dv_acc_111) <{predicate = 0 : i64}> : (i32, i32) -> i1 loc(#loc88)
      %dk_acc_279 = "ttg.memdesc_index"(%dk_acc#0, %dk_acc_179) {ttg.partition = array<i32: 1>} : (!ttg.memdesc<2x128x128xf32, #tmem1, #ttng.tensor_memory, mutable>, i32) -> !ttg.memdesc<128x128xf32, #tmem1, #ttng.tensor_memory, mutable> loc(#loc88)
      %dv_acc_280 = "ttg.memdesc_index"(%dv_acc_112, %dk_acc_179) {ttg.partition = array<i32: 1>} : (!ttg.memdesc<1x1xi64, #shared2, #smem, mutable>, i32) -> !ttg.memdesc<1xi64, #shared2, #smem, mutable> loc(#loc111)
      %dk_acc_281 = "ttng.tc_gen5_mma"(%dsT_95, %q_189#0, %dk_acc_279, %dv_acc_161, %1, %dv_acc_280, %dk_acc_278) <{is_async, operandSegmentSizes = array<i32: 1, 1, 1, 0, 1, 1, 1, 1>}> {loop.cluster = 1 : i32, loop.stage = 2 : i32, ttg.partition = array<i32: 1>} : (!ttg.memdesc<128x64xf16, #shared, #smem, mutable>, !ttg.memdesc<64x128xf16, #shared, #smem, 1x64x128>, !ttg.memdesc<128x128xf32, #tmem1, #ttng.tensor_memory, mutable>, i1, i1, !ttg.memdesc<1xi64, #shared2, #smem, mutable>, i1) -> !ttg.async.token loc(#loc88)
      "nvws.aref.get.exit"(%q_34, %q_189#1) <{async_ops = [#nvws.async_op<tc5mma>]}> {loop.cluster = 1 : i32, loop.stage = 2 : i32, ttg.partition = array<i32: 1>} : (!nvws.aref<[!ttg.memdesc<1x64x128xf16, #shared, #smem, mutable>]>, !ttg.async.token) -> () loc(#loc89)
      %dv_acc_282 = "arith.constant"() <{value = 1 : i32}> : () -> i32 loc(#loc86)
      %dv_acc_283 = "arith.addi"(%dv_acc_173, %dv_acc_282) <{overflowFlags = #arith.overflow<none>}> : (i32, i32) -> i32 loc(#loc86)
      %dv_acc_284 = "arith.constant"() <{value = 1 : i32}> : () -> i32 loc(#loc86)
      %dv_acc_285 = "arith.xori"(%dv_acc_174, %dv_acc_284) : (i32, i32) -> i32 loc(#loc86)
      %dv_acc_286 = "arith.constant"() <{value = 1 : i32}> : () -> i32 loc(#loc86)
      %dv_acc_287 = "arith.cmpi"(%dv_acc_283, %dv_acc_286) <{predicate = 0 : i64}> : (i32, i32) -> i1 loc(#loc86)
      %dv_acc_288 = "arith.constant"() <{value = 0 : i32}> : () -> i32 loc(#loc86)
      %dv_acc_289 = "arith.select"(%dv_acc_287, %dv_acc_288, %dv_acc_283) : (i1, i32, i32) -> i32 loc(#loc86)
      %dv_acc_290 = "arith.select"(%dv_acc_287, %dv_acc_285, %dv_acc_174) : (i1, i32, i32) -> i32 loc(#loc86)
      %dsT_291 = "arith.constant"() <{value = 1 : i32}> : () -> i32 loc(#loc92)
      %dsT_292 = "arith.addi"(%dsT_177, %dsT_291) <{overflowFlags = #arith.overflow<none>}> : (i32, i32) -> i32 loc(#loc92)
      %dsT_293 = "arith.constant"() <{value = 1 : i32}> : () -> i32 loc(#loc92)
      %dsT_294 = "arith.xori"(%dsT_178, %dsT_293) : (i32, i32) -> i32 loc(#loc92)
      %dsT_295 = "arith.constant"() <{value = 1 : i32}> : () -> i32 loc(#loc92)
      %dsT_296 = "arith.cmpi"(%dsT_292, %dsT_295) <{predicate = 0 : i64}> : (i32, i32) -> i1 loc(#loc92)
      %dsT_297 = "arith.constant"() <{value = 0 : i32}> : () -> i32 loc(#loc92)
      %dsT_298 = "arith.select"(%dsT_296, %dsT_297, %dsT_292) : (i1, i32, i32) -> i32 loc(#loc92)
      %dsT_299 = "arith.select"(%dsT_296, %dsT_294, %dsT_178) : (i1, i32, i32) -> i32 loc(#loc92)
      "scf.yield"(%1, %qkT_53, %dpT_70, %dv_acc_81, %dq_partial_93, %dk_acc_115, %qkT_208, %qkT_209, %dpT_249, %dpT_250, %dv_acc_171, %dv_acc_172, %dv_acc_289, %dv_acc_290, %dq_partial_276, %dq_partial_277, %dsT_298, %dsT_299, %dk_acc_179, %dk_acc_180) {ttg.partition = array<i32: 0, 1, 2, 3, 4>} : (i1, !ttg.async.token, !ttg.async.token, !ttg.async.token, !ttg.async.token, !ttg.async.token, i32, i32, i32, i32, i32, i32, i32, i32, i32, i32, i32, i32, i32, i32) -> () loc(#loc2)
    }) {tt.modulo_ii = 1280 : i32, tt.num_stages = 3 : i32, tt.scheduled_max_stage = 3 : i32, tt.warp_specialize, ttg.partition = array<i32: 0, 1, 2, 3, 4>, ttg.partition.outputs = [array<i32: 1, 2>, array<i32: 1>, array<i32: 2>, array<i32: 2>, array<i32: 1>, array<i32: 1>], ttg.partition.stages = [0 : i32, 1 : i32, 1 : i32, 0 : i32, 0 : i32], ttg.partition_num_warps = array<i32: 4, 1, 1, 4, 4, 1>, ttg.warp_specialize.tag = 0 : i32} : (i32, i32, i32, i1, !ttg.async.token, !ttg.async.token, !ttg.async.token, !ttg.async.token, !ttg.async.token, i32, i32, i32, i32, i32, i32, i32, i32, i32, i32, i32, i32, i32, i32) -> (i1, !ttg.async.token, !ttg.async.token, !ttg.async.token, !ttg.async.token, !ttg.async.token, i32, i32, i32, i32, i32, i32, i32, i32, i32, i32, i32, i32, i32, i32) loc(#loc111)
    %dv_acc_117 = "ttg.memdesc_index"(%dv_acc_112, %dv_acc_116#18) : (!ttg.memdesc<1x1xi64, #shared2, #smem, mutable>, i32) -> !ttg.memdesc<1xi64, #shared2, #smem, mutable> loc(#loc111)
    "ttng.wait_barrier"(%dv_acc_117, %dv_acc_116#19) <{operandSegmentSizes = array<i32: 1, 1, 0, 0>}> : (!ttg.memdesc<1xi64, #shared2, #smem, mutable>, i32) -> () loc(#loc88)
    %dv_acc_118 = "arith.constant"() <{value = 0 : i32}> : () -> i32 loc(#loc111)
    %dv_acc_119 = "ttg.memdesc_index"(%dv_acc_112, %dv_acc_118) : (!ttg.memdesc<1x1xi64, #shared2, #smem, mutable>, i32) -> !ttg.memdesc<1xi64, #shared2, #smem, mutable> loc(#loc111)
    "ttng.inval_barrier"(%dv_acc_119) : (!ttg.memdesc<1xi64, #shared2, #smem, mutable>) -> () loc(#loc111)
    "ttg.local_dealloc"(%dv_acc_112) : (!ttg.memdesc<1x1xi64, #shared2, #smem, mutable>) -> () loc(#loc111)
    %dk_acc_120 = "ttg.memdesc_index"(%dk_acc#0, %dv_acc_116#18) : (!ttg.memdesc<2x128x128xf32, #tmem1, #ttng.tensor_memory, mutable>, i32) -> !ttg.memdesc<128x128xf32, #tmem1, #ttng.tensor_memory, mutable> loc(#loc88)
    %dk_acc_121 = "arith.constant"() <{value = true}> : () -> i1 loc(#loc88)
    %dv_acc_122 = "arith.constant"() <{value = 0 : i32}> : () -> i32 loc(#loc111)
    %dv_acc_123 = "ttg.memdesc_index"(%dv_acc_99, %dv_acc_122) : (!ttg.memdesc<1x1xi64, #shared2, #smem, mutable>, i32) -> !ttg.memdesc<1xi64, #shared2, #smem, mutable> loc(#loc111)
    "ttng.inval_barrier"(%dv_acc_123) : (!ttg.memdesc<1xi64, #shared2, #smem, mutable>) -> () loc(#loc111)
    "ttg.local_dealloc"(%dv_acc_99) : (!ttg.memdesc<1x1xi64, #shared2, #smem, mutable>) -> () loc(#loc111)
    %dv_acc_124 = "arith.constant"() <{value = 0 : i32}> : () -> i32 loc(#loc111)
    %dv_acc_125 = "ttg.memdesc_index"(%dv_acc_96, %dv_acc_124) : (!ttg.memdesc<1x1xi64, #shared2, #smem, mutable>, i32) -> !ttg.memdesc<1xi64, #shared2, #smem, mutable> loc(#loc111)
    "ttng.inval_barrier"(%dv_acc_125) : (!ttg.memdesc<1xi64, #shared2, #smem, mutable>) -> () loc(#loc111)
    "ttg.local_dealloc"(%dv_acc_96) : (!ttg.memdesc<1x1xi64, #shared2, #smem, mutable>) -> () loc(#loc111)
    %dq_partial_126 = "ttg.memdesc_index"(%dq_partial#0, %dv_acc_116#14) : (!ttg.memdesc<2x64x128xf32, #tmem2, #ttng.tensor_memory, mutable>, i32) -> !ttg.memdesc<64x128xf32, #tmem2, #ttng.tensor_memory, mutable> loc(#loc87)
    %dq_partial_127 = "arith.constant"() <{value = true}> : () -> i1 loc(#loc87)
    %dv_acc_128 = "ttg.memdesc_index"(%dv_acc_78, %dv_acc_116#10) : (!ttg.memdesc<1x1xi64, #shared2, #smem, mutable>, i32) -> !ttg.memdesc<1xi64, #shared2, #smem, mutable> loc(#loc111)
    "ttng.wait_barrier"(%dv_acc_128, %dv_acc_116#11) <{operandSegmentSizes = array<i32: 1, 1, 0, 0>}> : (!ttg.memdesc<1xi64, #shared2, #smem, mutable>, i32) -> () loc(#loc86)
    %dv_acc_129 = "arith.constant"() <{value = 0 : i32}> : () -> i32 loc(#loc111)
    %dv_acc_130 = "ttg.memdesc_index"(%dv_acc_86, %dv_acc_129) : (!ttg.memdesc<1x1xi64, #shared2, #smem, mutable>, i32) -> !ttg.memdesc<1xi64, #shared2, #smem, mutable> loc(#loc111)
    "ttng.inval_barrier"(%dv_acc_130) : (!ttg.memdesc<1xi64, #shared2, #smem, mutable>) -> () loc(#loc111)
    "ttg.local_dealloc"(%dv_acc_86) : (!ttg.memdesc<1x1xi64, #shared2, #smem, mutable>) -> () loc(#loc111)
    %dv_acc_131 = "arith.constant"() <{value = 0 : i32}> : () -> i32 loc(#loc111)
    %dv_acc_132 = "ttg.memdesc_index"(%dv_acc_83, %dv_acc_131) : (!ttg.memdesc<1x1xi64, #shared2, #smem, mutable>, i32) -> !ttg.memdesc<1xi64, #shared2, #smem, mutable> loc(#loc111)
    "ttng.inval_barrier"(%dv_acc_132) : (!ttg.memdesc<1xi64, #shared2, #smem, mutable>) -> () loc(#loc111)
    "ttg.local_dealloc"(%dv_acc_83) : (!ttg.memdesc<1x1xi64, #shared2, #smem, mutable>) -> () loc(#loc111)
    %dv_acc_133 = "arith.constant"() <{value = 0 : i32}> : () -> i32 loc(#loc111)
    %dv_acc_134 = "ttg.memdesc_index"(%dv_acc_78, %dv_acc_133) : (!ttg.memdesc<1x1xi64, #shared2, #smem, mutable>, i32) -> !ttg.memdesc<1xi64, #shared2, #smem, mutable> loc(#loc111)
    "ttng.inval_barrier"(%dv_acc_134) : (!ttg.memdesc<1xi64, #shared2, #smem, mutable>) -> () loc(#loc111)
    "ttg.local_dealloc"(%dv_acc_78) : (!ttg.memdesc<1x1xi64, #shared2, #smem, mutable>) -> () loc(#loc111)
    %dv_acc_135 = "ttg.memdesc_index"(%dv_acc#0, %dv_acc_116#10) : (!ttg.memdesc<2x128x128xf32, #tmem1, #ttng.tensor_memory, mutable>, i32) -> !ttg.memdesc<128x128xf32, #tmem1, #ttng.tensor_memory, mutable> loc(#loc86)
    %dv_acc_136 = "arith.constant"() <{value = true}> : () -> i1 loc(#loc86)
    %dv_acc_137 = "ttg.memdesc_index"(%dv_acc_60, %dv_acc_116#8) : (!ttg.memdesc<2x1xi64, #shared2, #smem, mutable>, i32) -> !ttg.memdesc<1xi64, #shared2, #smem, mutable> loc(#loc111)
    "ttng.wait_barrier"(%dv_acc_137, %dv_acc_116#9) <{operandSegmentSizes = array<i32: 1, 1, 0, 0>}> : (!ttg.memdesc<1xi64, #shared2, #smem, mutable>, i32) -> () loc(#loc85)
    %dv_acc_138 = "arith.constant"() <{value = 0 : i32}> : () -> i32 loc(#loc111)
    %dv_acc_139 = "ttg.memdesc_index"(%dv_acc_60, %dv_acc_138) : (!ttg.memdesc<2x1xi64, #shared2, #smem, mutable>, i32) -> !ttg.memdesc<1xi64, #shared2, #smem, mutable> loc(#loc111)
    "ttng.inval_barrier"(%dv_acc_139) : (!ttg.memdesc<1xi64, #shared2, #smem, mutable>) -> () loc(#loc111)
    %dv_acc_140 = "arith.constant"() <{value = 1 : i32}> : () -> i32 loc(#loc111)
    %dv_acc_141 = "ttg.memdesc_index"(%dv_acc_60, %dv_acc_140) : (!ttg.memdesc<2x1xi64, #shared2, #smem, mutable>, i32) -> !ttg.memdesc<1xi64, #shared2, #smem, mutable> loc(#loc111)
    "ttng.inval_barrier"(%dv_acc_141) : (!ttg.memdesc<1xi64, #shared2, #smem, mutable>) -> () loc(#loc111)
    "ttg.local_dealloc"(%dv_acc_60) : (!ttg.memdesc<2x1xi64, #shared2, #smem, mutable>) -> () loc(#loc111)
    %dv_acc_142 = "arith.constant"() <{value = 0 : i32}> : () -> i32 loc(#loc111)
    %dv_acc_143 = "ttg.memdesc_index"(%dv_acc_55, %dv_acc_142) : (!ttg.memdesc<2x1xi64, #shared2, #smem, mutable>, i32) -> !ttg.memdesc<1xi64, #shared2, #smem, mutable> loc(#loc111)
    "ttng.inval_barrier"(%dv_acc_143) : (!ttg.memdesc<1xi64, #shared2, #smem, mutable>) -> () loc(#loc111)
    %dv_acc_144 = "arith.constant"() <{value = 1 : i32}> : () -> i32 loc(#loc111)
    %dv_acc_145 = "ttg.memdesc_index"(%dv_acc_55, %dv_acc_144) : (!ttg.memdesc<2x1xi64, #shared2, #smem, mutable>, i32) -> !ttg.memdesc<1xi64, #shared2, #smem, mutable> loc(#loc111)
    "ttng.inval_barrier"(%dv_acc_145) : (!ttg.memdesc<1xi64, #shared2, #smem, mutable>) -> () loc(#loc111)
    "ttg.local_dealloc"(%dv_acc_55) : (!ttg.memdesc<2x1xi64, #shared2, #smem, mutable>) -> () loc(#loc111)
    %dpT_146 = "ttg.memdesc_index"(%dpT#0, %dv_acc_116#8) : (!ttg.memdesc<2x128x64xf32, #tmem, #ttng.tensor_memory, mutable>, i32) -> !ttg.memdesc<128x64xf32, #tmem, #ttng.tensor_memory, mutable> loc(#loc85)
    %dv_acc_147 = "ttg.memdesc_index"(%dv_acc_43, %dv_acc_116#6) : (!ttg.memdesc<2x1xi64, #shared2, #smem, mutable>, i32) -> !ttg.memdesc<1xi64, #shared2, #smem, mutable> loc(#loc111)
    "ttng.wait_barrier"(%dv_acc_147, %dv_acc_116#7) <{operandSegmentSizes = array<i32: 1, 1, 0, 0>}> : (!ttg.memdesc<1xi64, #shared2, #smem, mutable>, i32) -> () loc(#loc84)
    %dv_acc_148 = "arith.constant"() <{value = 0 : i32}> : () -> i32 loc(#loc111)
    %dv_acc_149 = "ttg.memdesc_index"(%dv_acc_43, %dv_acc_148) : (!ttg.memdesc<2x1xi64, #shared2, #smem, mutable>, i32) -> !ttg.memdesc<1xi64, #shared2, #smem, mutable> loc(#loc111)
    "ttng.inval_barrier"(%dv_acc_149) : (!ttg.memdesc<1xi64, #shared2, #smem, mutable>) -> () loc(#loc111)
    %dv_acc_150 = "arith.constant"() <{value = 1 : i32}> : () -> i32 loc(#loc111)
    %dv_acc_151 = "ttg.memdesc_index"(%dv_acc_43, %dv_acc_150) : (!ttg.memdesc<2x1xi64, #shared2, #smem, mutable>, i32) -> !ttg.memdesc<1xi64, #shared2, #smem, mutable> loc(#loc111)
    "ttng.inval_barrier"(%dv_acc_151) : (!ttg.memdesc<1xi64, #shared2, #smem, mutable>) -> () loc(#loc111)
    "ttg.local_dealloc"(%dv_acc_43) : (!ttg.memdesc<2x1xi64, #shared2, #smem, mutable>) -> () loc(#loc111)
    %dv_acc_152 = "arith.constant"() <{value = 0 : i32}> : () -> i32 loc(#loc111)
    %dv_acc_153 = "ttg.memdesc_index"(%dv_acc_38, %dv_acc_152) : (!ttg.memdesc<2x1xi64, #shared2, #smem, mutable>, i32) -> !ttg.memdesc<1xi64, #shared2, #smem, mutable> loc(#loc111)
    "ttng.inval_barrier"(%dv_acc_153) : (!ttg.memdesc<1xi64, #shared2, #smem, mutable>) -> () loc(#loc111)
    %dv_acc_154 = "arith.constant"() <{value = 1 : i32}> : () -> i32 loc(#loc111)
    %dv_acc_155 = "ttg.memdesc_index"(%dv_acc_38, %dv_acc_154) : (!ttg.memdesc<2x1xi64, #shared2, #smem, mutable>, i32) -> !ttg.memdesc<1xi64, #shared2, #smem, mutable> loc(#loc111)
    "ttng.inval_barrier"(%dv_acc_155) : (!ttg.memdesc<1xi64, #shared2, #smem, mutable>) -> () loc(#loc111)
    "ttg.local_dealloc"(%dv_acc_38) : (!ttg.memdesc<2x1xi64, #shared2, #smem, mutable>) -> () loc(#loc111)
    %qkT_156 = "ttg.memdesc_index"(%qkT#0, %dv_acc_116#6) : (!ttg.memdesc<2x128x64xf32, #tmem, #ttng.tensor_memory, mutable>, i32) -> !ttg.memdesc<128x64xf32, #tmem, #ttng.tensor_memory, mutable> loc(#loc84)
    %dv_acc_157:2 = "ttng.tmem_load"(%dv_acc_135, %dv_acc_116#3) <{resultSegmentSizes = array<i32: 1, 1, 0>}> {ttg.partition = array<i32: 0>} : (!ttg.memdesc<128x128xf32, #tmem1, #ttng.tensor_memory, mutable>, !ttg.async.token) -> (tensor<128x128xf32, #linear>, !ttg.async.token) loc(#loc86)
    %dk_acc_158:2 = "ttng.tmem_load"(%dk_acc_120, %dv_acc_116#5) <{resultSegmentSizes = array<i32: 1, 1, 0>}> {ttg.partition = array<i32: 0>} : (!ttg.memdesc<128x128xf32, #tmem1, #ttng.tensor_memory, mutable>, !ttg.async.token) -> (tensor<128x128xf32, #linear>, !ttg.async.token) loc(#loc88)
    %dk_desc = "tt.addptr"(%dK, %base_0) : (!tt.ptr<f16>, i32) -> !tt.ptr<f16> loc(#loc107)
    %dk_desc_159 = "tt.make_tensor_descriptor"(%dk_desc, %N_CTX, %2, %k_desc_1, %3) <{operandSegmentSizes = array<i32: 1, 2, 2, 0>, padding = 1 : i32}> : (!tt.ptr<f16>, i32, i32, i64, i64) -> !tt.tensordesc<128x128xf16, #shared> loc(#loc108)
    %dv_desc = "tt.addptr"(%dV, %base_0) : (!tt.ptr<f16>, i32) -> !tt.ptr<f16> loc(#loc109)
    %dv_desc_160 = "tt.make_tensor_descriptor"(%dv_desc, %N_CTX, %2, %k_desc_1, %3) <{operandSegmentSizes = array<i32: 1, 2, 2, 0>, padding = 1 : i32}> : (!tt.ptr<f16>, i32, i32, i64, i64) -> !tt.tensordesc<128x128xf16, #shared> loc(#loc110)
    %8 = "arith.truncf"(%dk_acc_158#0) {ttg.partition = array<i32: 0>} : (tensor<128x128xf32, #linear>) -> tensor<128x128xf16, #linear> loc(#loc49)
    %9 = "ttg.convert_layout"(%8) {ttg.partition = array<i32: 0>} : (tensor<128x128xf16, #linear>) -> tensor<128x128xf16, #blocked> loc(#loc50)
    "tt.descriptor_store"(%dk_desc_159, %9, %start_n, %4) <{reduce_kind = 0 : i32}> {ttg.partition = array<i32: 0>} : (!tt.tensordesc<128x128xf16, #shared>, tensor<128x128xf16, #blocked>, i32, i32) -> () loc(#loc50)
    %10 = "arith.truncf"(%dv_acc_157#0) {ttg.partition = array<i32: 0>} : (tensor<128x128xf32, #linear>) -> tensor<128x128xf16, #linear> loc(#loc51)
    %11 = "ttg.convert_layout"(%10) {ttg.partition = array<i32: 0>} : (tensor<128x128xf16, #linear>) -> tensor<128x128xf16, #blocked> loc(#loc52)
    "tt.descriptor_store"(%dv_desc_160, %11, %start_n, %4) <{reduce_kind = 0 : i32}> {ttg.partition = array<i32: 0>} : (!tt.tensordesc<128x128xf16, #shared>, tensor<128x128xf16, #blocked>, i32, i32) -> () loc(#loc52)
    "tt.return"() : () -> () loc(#loc)
  }) {noinline = false} : () -> () loc(#loc)
}) {"ttg.cluster-dim-x" = 1 : i32, "ttg.cluster-dim-y" = 1 : i32, "ttg.cluster-dim-z" = 1 : i32, ttg.early_tma_store_lowering = true, ttg.min_reg_auto_ws = 24 : i32, "ttg.num-ctas" = 1 : i32, "ttg.num-warps" = 4 : i32, ttg.target = "cuda:100", "ttg.threads-per-warp" = 32 : i32} : () -> () loc(#loc)
#loc1 = loc(unknown)
#loc3 = loc("/projects/kzhou6/hwu27/triton-beta-3-paper-solver-wt/third_party/tlx/tools/sched2tlx/examples/case4_FA_bwd/handwritten_nows.py":49:13)
#loc4 = loc("/projects/kzhou6/hwu27/triton-beta-3-paper-solver-wt/third_party/tlx/tools/sched2tlx/examples/case4_FA_bwd/handwritten_nows.py":50:14)
#loc5 = loc("/projects/kzhou6/hwu27/triton-beta-3-paper-solver-wt/third_party/tlx/tools/sched2tlx/examples/case4_FA_bwd/handwritten_nows.py":52:12)
#loc6 = loc("/projects/kzhou6/hwu27/triton-beta-3-paper-solver-wt/third_party/tlx/tools/sched2tlx/examples/case4_FA_bwd/handwritten_nows.py":53:15)
#loc7 = loc("/projects/kzhou6/hwu27/triton-beta-3-paper-solver-wt/third_party/tlx/tools/sched2tlx/examples/case4_FA_bwd/handwritten_nows.py":56:9)
#loc8 = loc("/projects/kzhou6/hwu27/triton-beta-3-paper-solver-wt/third_party/tlx/tools/sched2tlx/examples/case4_FA_bwd/handwritten_nows.py":55:14)
#loc9 = loc("/projects/kzhou6/hwu27/triton-beta-3-paper-solver-wt/third_party/tlx/tools/sched2tlx/examples/case4_FA_bwd/handwritten_nows.py":59:9)
#loc10 = loc("/projects/kzhou6/hwu27/triton-beta-3-paper-solver-wt/third_party/tlx/tools/sched2tlx/examples/case4_FA_bwd/handwritten_nows.py":58:14)
#loc11 = loc("/projects/kzhou6/hwu27/triton-beta-3-paper-solver-wt/third_party/tlx/tools/sched2tlx/examples/case4_FA_bwd/handwritten_nows.py":62:9)
#loc12 = loc("/projects/kzhou6/hwu27/triton-beta-3-paper-solver-wt/third_party/tlx/tools/sched2tlx/examples/case4_FA_bwd/handwritten_nows.py":61:14)
#loc13 = loc("/projects/kzhou6/hwu27/triton-beta-3-paper-solver-wt/third_party/tlx/tools/sched2tlx/examples/case4_FA_bwd/handwritten_nows.py":65:9)
#loc14 = loc("/projects/kzhou6/hwu27/triton-beta-3-paper-solver-wt/third_party/tlx/tools/sched2tlx/examples/case4_FA_bwd/handwritten_nows.py":64:15)
#loc15 = loc("/projects/kzhou6/hwu27/triton-beta-3-paper-solver-wt/third_party/tlx/tools/sched2tlx/examples/case4_FA_bwd/handwritten_nows.py":68:9)
#loc16 = loc("/projects/kzhou6/hwu27/triton-beta-3-paper-solver-wt/third_party/tlx/tools/sched2tlx/examples/case4_FA_bwd/handwritten_nows.py":67:15)
#loc17 = loc("/projects/kzhou6/hwu27/triton-beta-3-paper-solver-wt/third_party/tlx/tools/sched2tlx/examples/case4_FA_bwd/handwritten_nows.py":71:9)
#loc18 = loc("/projects/kzhou6/hwu27/triton-beta-3-paper-solver-wt/third_party/tlx/tools/sched2tlx/examples/case4_FA_bwd/handwritten_nows.py":72:9)
#loc19 = loc("/projects/kzhou6/hwu27/triton-beta-3-paper-solver-wt/third_party/tlx/tools/sched2tlx/examples/case4_FA_bwd/handwritten_nows.py":83:28)
#loc20 = loc("/projects/kzhou6/hwu27/triton-beta-3-paper-solver-wt/third_party/tlx/tools/sched2tlx/examples/case4_FA_bwd/handwritten_nows.py":84:21)
#loc21 = loc("/projects/kzhou6/hwu27/triton-beta-3-paper-solver-wt/third_party/tlx/tools/sched2tlx/examples/case4_FA_bwd/handwritten_nows.py":85:22)
#loc27 = loc("/projects/kzhou6/hwu27/triton-beta-3-paper-solver-wt/third_party/tlx/tools/sched2tlx/examples/case4_FA_bwd/handwritten_nows.py":80:13)
#loc28 = loc("/projects/kzhou6/hwu27/triton-beta-3-paper-solver-wt/third_party/tlx/tools/sched2tlx/examples/case4_FA_bwd/handwritten_nows.py":81:14)
#loc29 = loc("/projects/kzhou6/hwu27/triton-beta-3-paper-solver-wt/third_party/tlx/tools/sched2tlx/examples/case4_FA_bwd/handwritten_nows.py":91:15)
#loc31 = loc("/projects/kzhou6/hwu27/triton-beta-3-paper-solver-wt/third_party/tlx/tools/sched2tlx/examples/case4_FA_bwd/handwritten_nows.py":83:18)
#loc32 = loc("/projects/kzhou6/hwu27/triton-beta-3-paper-solver-wt/third_party/tlx/tools/sched2tlx/examples/case4_FA_bwd/handwritten_nows.py":84:13)
#loc33 = loc("/projects/kzhou6/hwu27/triton-beta-3-paper-solver-wt/third_party/tlx/tools/sched2tlx/examples/case4_FA_bwd/handwritten_nows.py":85:14)
#loc34 = loc("/projects/kzhou6/hwu27/triton-beta-3-paper-solver-wt/third_party/tlx/tools/sched2tlx/examples/case4_FA_bwd/handwritten_nows.py":87:25)
#loc35 = loc("/projects/kzhou6/hwu27/triton-beta-3-paper-solver-wt/third_party/tlx/tools/sched2tlx/examples/case4_FA_bwd/handwritten_nows.py":90:27)
#loc36 = loc("/projects/kzhou6/hwu27/triton-beta-3-paper-solver-wt/third_party/tlx/tools/sched2tlx/examples/case4_FA_bwd/handwritten_nows.py":90:54)
#loc37 = loc("/projects/kzhou6/hwu27/triton-beta-3-paper-solver-wt/third_party/tlx/tools/sched2tlx/examples/case4_FA_bwd/handwritten_nows.py":90:14)
#loc38 = loc("/projects/kzhou6/hwu27/triton-beta-3-paper-solver-wt/third_party/tlx/tools/sched2tlx/examples/case4_FA_bwd/handwritten_nows.py":92:25)
#loc39 = loc("/projects/kzhou6/hwu27/triton-beta-3-paper-solver-wt/third_party/tlx/tools/sched2tlx/examples/case4_FA_bwd/handwritten_nows.py":94:28)
#loc40 = loc("/projects/kzhou6/hwu27/triton-beta-3-paper-solver-wt/third_party/tlx/tools/sched2tlx/examples/case4_FA_bwd/handwritten_nows.py":94:22)
#loc41 = loc("/projects/kzhou6/hwu27/triton-beta-3-paper-solver-wt/third_party/tlx/tools/sched2tlx/examples/case4_FA_bwd/handwritten_nows.py":94:16)
#loc42 = loc("/projects/kzhou6/hwu27/triton-beta-3-paper-solver-wt/third_party/tlx/tools/sched2tlx/examples/case4_FA_bwd/handwritten_nows.py":95:29)
#loc43 = loc("/projects/kzhou6/hwu27/triton-beta-3-paper-solver-wt/third_party/tlx/tools/sched2tlx/examples/case4_FA_bwd/handwritten_nows.py":96:42)
#loc44 = loc("/projects/kzhou6/hwu27/triton-beta-3-paper-solver-wt/third_party/tlx/tools/sched2tlx/examples/case4_FA_bwd/handwritten_nows.py":96:9)
#loc45 = loc("/projects/kzhou6/hwu27/triton-beta-3-paper-solver-wt/third_party/tlx/tools/sched2tlx/examples/case4_FA_bwd/handwritten_nows.py":100:9)
#loc46 = loc("/projects/kzhou6/hwu27/triton-beta-3-paper-solver-wt/third_party/tlx/tools/sched2tlx/examples/case4_FA_bwd/handwritten_nows.py":99:15)
#loc47 = loc("/projects/kzhou6/hwu27/triton-beta-3-paper-solver-wt/third_party/tlx/tools/sched2tlx/examples/case4_FA_bwd/handwritten_nows.py":103:9)
#loc48 = loc("/projects/kzhou6/hwu27/triton-beta-3-paper-solver-wt/third_party/tlx/tools/sched2tlx/examples/case4_FA_bwd/handwritten_nows.py":102:15)
#loc49 = loc("/projects/kzhou6/hwu27/triton-beta-3-paper-solver-wt/third_party/tlx/tools/sched2tlx/examples/case4_FA_bwd/handwritten_nows.py":105:33)
#loc50 = loc("/projects/kzhou6/hwu27/triton-beta-3-paper-solver-wt/third_party/tlx/tools/sched2tlx/examples/case4_FA_bwd/handwritten_nows.py":105:5)
#loc51 = loc("/projects/kzhou6/hwu27/triton-beta-3-paper-solver-wt/third_party/tlx/tools/sched2tlx/examples/case4_FA_bwd/handwritten_nows.py":106:33)
#loc52 = loc("/projects/kzhou6/hwu27/triton-beta-3-paper-solver-wt/third_party/tlx/tools/sched2tlx/examples/case4_FA_bwd/handwritten_nows.py":106:5)
#loc65 = loc("pid_n"(#loc3))
#loc66 = loc("off_hz"(#loc4))
#loc67 = loc("base"(#loc5))
#loc68 = loc("start_n"(#loc6))
#loc69 = loc("k_desc"(#loc7))
#loc70 = loc("k_desc"(#loc8))
#loc71 = loc("v_desc"(#loc9))
#loc72 = loc("v_desc"(#loc10))
#loc73 = loc("q_desc"(#loc11))
#loc74 = loc("q_desc"(#loc12))
#loc75 = loc("do_desc"(#loc13))
#loc76 = loc("do_desc"(#loc14))
#loc77 = loc("dq_desc"(#loc15))
#loc78 = loc("dq_desc"(#loc16))
#loc79 = loc("k"(#loc17))
#loc80 = loc("v"(#loc18))
#loc81 = loc("offs_m"(#loc19))
#loc82 = loc("m"(#loc20))
#loc83 = loc("Di"(#loc21))
#loc89 = loc("q"(#loc27))
#loc90 = loc("do"(#loc28))
#loc91 = loc("ppT"(#loc29))
#loc93 = loc("dk_acc"(#loc2))
#loc95 = loc("offs_m"(#loc31))
#loc96 = loc("m"(#loc32))
#loc97 = loc("Di"(#loc33))
#loc98 = loc("qkT"(#loc34))
#loc99 = loc("pT"(#loc35))
#loc100 = loc("pT"(#loc36))
#loc101 = loc("pT"(#loc37))
#loc102 = loc("dpT"(#loc38))
#loc103 = loc("dsT"(#loc39))
#loc104 = loc("dsT"(#loc40))
#loc105 = loc("dsT"(#loc41))
#loc106 = loc("dq_partial"(#loc42))
#loc107 = loc("dk_desc"(#loc45))
#loc108 = loc("dk_desc"(#loc46))
#loc109 = loc("dv_desc"(#loc47))
#loc110 = loc("dv_desc"(#loc48))
#loc111 = loc("dv_acc"(#loc93))


