// -----// IR Dump Before TritonTLXFixup: triton-tlx-fixup{cluster-dims={1,1,1} num-ctas=1 num-warps=4 target=cuda:100 threads-per-warp=32} ('builtin.module' operation) //----- //
#loc = loc("/projects/kzhou6/hwu27/triton-beta-3-paper-solver-wt/third_party/tlx/tools/sched2tlx/examples/case3_FA_fp16/fa_fwd_nows_fp16.py":25:1)
#loc50 = loc("/projects/kzhou6/hwu27/triton-beta-3-paper-solver-wt/python/triton/language/standard.py":177:1)
#loc52 = loc(unknown)
#loc54 = loc("/projects/kzhou6/hwu27/triton-beta-3-paper-solver-wt/python/triton/language/standard.py":169:1)
#loc57 = loc("/projects/kzhou6/hwu27/triton-beta-3-paper-solver-wt/python/triton/language/standard.py":297:1)
#loc60 = loc("/projects/kzhou6/hwu27/triton-beta-3-paper-solver-wt/python/triton/language/standard.py":272:1)
#loc63 = loc("Q"(#loc))
#loc64 = loc("K"(#loc))
#loc65 = loc("V"(#loc))
#loc66 = loc("Out"(#loc))
#loc67 = loc("M_lse"(#loc))
#loc68 = loc("sm_scale"(#loc))
#loc69 = loc("H"(#loc))
#loc70 = loc("N_CTX"(#loc))
#loc110 = loc("input"(#loc50))
#loc111 = loc("a"(#loc54))
#loc112 = loc("b"(#loc54))
#loc113 = loc("input"(#loc57))
#loc114 = loc("a"(#loc60))
#loc115 = loc("b"(#loc60))
module {
  tt.func public @fa_fwd_kernel_nows(%Q: !tt.ptr<f16> {tt.divisibility = 16 : i32} loc("Q"(#loc)), %K: !tt.ptr<f16> {tt.divisibility = 16 : i32} loc("K"(#loc)), %V: !tt.ptr<f16> {tt.divisibility = 16 : i32} loc("V"(#loc)), %Out: !tt.ptr<f16> {tt.divisibility = 16 : i32} loc("Out"(#loc)), %M_lse: !tt.ptr<f32> {tt.divisibility = 16 : i32} loc("M_lse"(#loc)), %sm_scale: f32 loc("sm_scale"(#loc)), %H: i32 loc("H"(#loc)), %N_CTX: i32 {tt.divisibility = 16 : i32} loc("N_CTX"(#loc))) attributes {noinline = false} {
    %pid_m = tt.get_program_id x : i32 loc(#loc71)
    %pid_bh = tt.get_program_id y : i32 loc(#loc72)
    %kv_base = arith.muli %pid_bh, %N_CTX : i32 loc(#loc73)
    %qo_offset = arith.constant 128 : i32 loc(#loc74)
    %qo_offset_0 = arith.constant 128 : i32 loc(#loc74)
    %qo_offset_1 = arith.muli %pid_m, %qo_offset_0 : i32 loc(#loc74)
    %qo_offset_2 = arith.addi %kv_base, %qo_offset_1 : i32 loc(#loc75)
    %rows = arith.muli %H, %N_CTX : i32 loc(#loc76)
    %qo_desc = arith.constant 128 : i32 loc(#loc77)
    %qo_desc_3 = arith.constant 128 : i64 loc(#loc77)
    %qo_desc_4 = arith.constant 1 : i64 loc(#loc77)
    %qo_desc_5 = tt.make_tensor_descriptor %Q, [%rows, %qo_desc], [%qo_desc_3, %qo_desc_4] : !tt.ptr<f16>, !tt.tensordesc<128x128xf16> loc(#loc77)
    %k_desc = arith.constant 128 : i32 loc(#loc78)
    %k_desc_6 = arith.constant 128 : i64 loc(#loc78)
    %k_desc_7 = arith.constant 1 : i64 loc(#loc78)
    %k_desc_8 = tt.make_tensor_descriptor %K, [%rows, %k_desc], [%k_desc_6, %k_desc_7] : !tt.ptr<f16>, !tt.tensordesc<64x128xf16> loc(#loc78)
    %v_desc = arith.constant 128 : i32 loc(#loc79)
    %v_desc_9 = arith.constant 128 : i64 loc(#loc79)
    %v_desc_10 = arith.constant 1 : i64 loc(#loc79)
    %v_desc_11 = tt.make_tensor_descriptor %V, [%rows, %v_desc], [%v_desc_9, %v_desc_10] : !tt.ptr<f16>, !tt.tensordesc<64x128xf16> loc(#loc79)
    %out_desc = arith.constant 128 : i32 loc(#loc80)
    %out_desc_12 = arith.constant 128 : i64 loc(#loc80)
    %out_desc_13 = arith.constant 1 : i64 loc(#loc80)
    %out_desc_14 = tt.make_tensor_descriptor %Out, [%rows, %out_desc], [%out_desc_12, %out_desc_13] : !tt.ptr<f16>, !tt.tensordesc<128x128xf16> loc(#loc80)
    %q = arith.constant 0 : i32 loc(#loc81)
    %q_15 = tt.descriptor_load %qo_desc_5[%qo_offset_2, %q] : !tt.tensordesc<128x128xf16> -> tensor<128x128xf16> loc(#loc81)
    %m_i = arith.constant 0xFF800000 : f32 loc(#loc82)
    %m_i_16 = arith.constant dense<0xFF800000> : tensor<128xf32> loc(#loc82)
    %l_i = arith.constant 1.000000e+00 : f32 loc(#loc83)
    %l_i_17 = arith.constant dense<1.000000e+00> : tensor<128xf32> loc(#loc83)
    %acc = tt.call @"triton.language.standard.zeros____(0, 0)cconstexpr_128__(0, 1)cconstexpr_128__(1,)cconstexpr_fp32_"() : () -> tensor<128x128xf32> loc(#loc84)
    %qk_scale = arith.constant 1.44269502 : f32 loc(#loc85)
    %qk_scale_18 = arith.constant 1.44269502 : f32 loc(#loc85)
    %qk_scale_19 = arith.mulf %sm_scale, %qk_scale_18 : f32 loc(#loc85)
    %c64_i32 = arith.constant 64 : i32 loc(#loc16)
    %c64_i32_20 = arith.constant 64 : i32 loc(#loc16)
    %0 = arith.divsi %N_CTX, %c64_i32_20 : i32 loc(#loc16)
    %c64_i32_21 = arith.constant 64 : i32 loc(#loc16)
    %c64_i32_22 = arith.constant 64 : i32 loc(#loc16)
    %1 = arith.divsi %N_CTX, %c64_i32_22 : i32 loc(#loc16)
    %c0_i32 = arith.constant 0 : i32 loc(#loc17)
    %c1_i32 = arith.constant 1 : i32 loc(#loc17)
    %2 = arith.bitcast %c0_i32 : i32 to i32 loc(#loc17)
    %3 = arith.bitcast %1 : i32 to i32 loc(#loc17)
    %4 = arith.bitcast %c1_i32 : i32 to i32 loc(#loc17)
    %5 = ub.poison : i32 loc(#loc17)
    %acc_23:3 = scf.for %kv = %2 to %3 step %4 iter_args(%m_i_33 = %m_i_16, %l_i_34 = %l_i_17, %acc_35 = %acc) -> (tensor<128xf32>, tensor<128xf32>, tensor<128x128xf32>)  : i32 {
      %koff = arith.constant 64 : i32 loc(#loc87)
      %koff_36 = arith.constant 64 : i32 loc(#loc87)
      %koff_37 = arith.muli %kv, %koff_36 : i32 loc(#loc87)
      %koff_38 = arith.addi %kv_base, %koff_37 : i32 loc(#loc88)
      %k = arith.constant 0 : i32 loc(#loc89)
      %k_39 = tt.descriptor_load %k_desc_8[%koff_38, %k] : !tt.tensordesc<64x128xf16> -> tensor<64x128xf16> loc(#loc89)
      %v = arith.constant 0 : i32 loc(#loc90)
      %v_40 = tt.descriptor_load %v_desc_11[%koff_38, %v] : !tt.tensordesc<64x128xf16> -> tensor<64x128xf16> loc(#loc90)
      %qk = tt.trans %k_39 {order = array<i32: 1, 0>} : tensor<64x128xf16> -> tensor<128x64xf16> loc(#loc91)
      %qk_41 = arith.constant 0.000000e+00 : f32 loc(#loc92)
      %qk_42 = arith.constant dense<0.000000e+00> : tensor<128x64xf32> loc(#loc92)
      %qk_43 = tt.dot %q_15, %qk, %qk_42, inputPrecision = tf32 : tensor<128x128xf16> * tensor<128x64xf16> -> tensor<128x64xf32> loc(#loc92)
      %m_ij = tt.call @"triton.language.standard.max__fp32S128_64S__(1,)cconstexpr_1__(2,)cconstexpr_False__(3,)cconstexpr_True__(4,)cconstexpr_False__(5,)cNone"(%qk_43) : (tensor<128x64xf32>) -> tensor<128xf32> loc(#loc93)
      %m_ij_44 = tt.splat %qk_scale_19 : f32 -> tensor<128xf32> loc(#loc93)
      %m_ij_45 = arith.mulf %m_ij, %m_ij_44 : tensor<128xf32> loc(#loc93)
      %m_ij_46 = arith.maxnumf %m_i_33, %m_ij_45 : tensor<128xf32> loc(#loc94)
      %alpha = arith.subf %m_i_33, %m_ij_46 : tensor<128xf32> loc(#loc95)
      %alpha_47 = math.exp2 %alpha : tensor<128xf32> loc(#loc96)
      %p = tt.splat %qk_scale_19 : f32 -> tensor<128x64xf32> loc(#loc97)
      %p_48 = arith.mulf %qk_43, %p : tensor<128x64xf32> loc(#loc97)
      %p_49 = tt.expand_dims %m_ij_46 {axis = 1 : i32} : tensor<128xf32> -> tensor<128x1xf32> loc(#loc98)
      %p_50 = tt.broadcast %p_49 : tensor<128x1xf32> -> tensor<128x64xf32> loc(#loc97)
      %p_51 = arith.subf %p_48, %p_50 : tensor<128x64xf32> loc(#loc97)
      %p_52 = math.exp2 %p_51 : tensor<128x64xf32> loc(#loc99)
      %l_ij = tt.call @"triton.language.standard.sum__fp32S128_64S__(1,)cconstexpr_1__(2,)cconstexpr_False__(3,)cNone_(4,)cNone"(%p_52) : (tensor<128x64xf32>) -> tensor<128xf32> loc(#loc100)
      %acc_53 = arith.truncf %p_52 : tensor<128x64xf32> to tensor<128x64xf16> loc(#loc101)
      %acc_54 = tt.expand_dims %alpha_47 {axis = 1 : i32} : tensor<128xf32> -> tensor<128x1xf32> loc(#loc102)
      %acc_55 = tt.broadcast %acc_54 : tensor<128x1xf32> -> tensor<128x128xf32> loc(#loc103)
      %acc_56 = arith.mulf %acc_35, %acc_55 : tensor<128x128xf32> loc(#loc103)
      %acc_57 = arith.constant 0.000000e+00 : f32 loc(#loc104)
      %acc_58 = tt.dot %acc_53, %v_40, %acc_56, inputPrecision = tf32 : tensor<128x64xf16> * tensor<64x128xf16> -> tensor<128x128xf32> loc(#loc104)
      %l_i_59 = arith.mulf %l_i_34, %alpha_47 : tensor<128xf32> loc(#loc105)
      %l_i_60 = arith.addf %l_i_59, %l_ij : tensor<128xf32> loc(#loc105)
      scf.yield %m_ij_46, %l_i_60, %acc_58 : tensor<128xf32>, tensor<128xf32>, tensor<128x128xf32> loc(#loc17)
    } loc(#loc117)
    %acc_24 = tt.expand_dims %acc_23#1 {axis = 1 : i32} : tensor<128xf32> -> tensor<128x1xf32> loc(#loc106)
    %acc_25 = tt.broadcast %acc_24 : tensor<128x1xf32> -> tensor<128x128xf32> loc(#loc107)
    %acc_26 = arith.divf %acc_23#2, %acc_25 : tensor<128x128xf32> loc(#loc107)
    %6 = arith.truncf %acc_26 : tensor<128x128xf32> to tensor<128x128xf16> loc(#loc39)
    %c0_i32_27 = arith.constant 0 : i32 loc(#loc40)
    tt.descriptor_store %out_desc_14[%qo_offset_2, %c0_i32_27], %6 : !tt.tensordesc<128x128xf16>, tensor<128x128xf16> loc(#loc40)
    %offs_m = arith.constant 128 : i32 loc(#loc108)
    %offs_m_28 = arith.constant 128 : i32 loc(#loc108)
    %offs_m_29 = arith.muli %pid_m, %offs_m_28 : i32 loc(#loc108)
    %offs_m_30 = tt.make_range {end = 128 : i32, start = 0 : i32} : tensor<128xi32> loc(#loc109)
    %offs_m_31 = tt.splat %offs_m_29 : i32 -> tensor<128xi32> loc(#loc108)
    %offs_m_32 = arith.addi %offs_m_31, %offs_m_30 : tensor<128xi32> loc(#loc108)
    %7 = tt.addptr %M_lse, %kv_base : !tt.ptr<f32>, i32 loc(#loc43)
    %8 = tt.splat %7 : !tt.ptr<f32> -> tensor<128x!tt.ptr<f32>> loc(#loc43)
    %9 = tt.addptr %8, %offs_m_32 : tensor<128x!tt.ptr<f32>>, tensor<128xi32> loc(#loc43)
    %10 = math.log2 %acc_23#1 : tensor<128xf32> loc(#loc44)
    %11 = arith.addf %acc_23#0, %10 : tensor<128xf32> loc(#loc45)
    tt.store %9, %11 : tensor<128x!tt.ptr<f32>> loc(#loc46)
    tt.return loc(#loc)
  } loc(#loc)
  tt.func private @"triton.language.standard.zeros____(0, 0)cconstexpr_128__(0, 1)cconstexpr_128__(1,)cconstexpr_fp32_"() -> tensor<128x128xf32> attributes {noinline = false} {
    %cst = arith.constant 0.000000e+00 : f32 loc(#loc48)
    %cst_0 = arith.constant dense<0.000000e+00> : tensor<128x128xf32> loc(#loc48)
    tt.return %cst_0 : tensor<128x128xf32> loc(#loc49)
  ^bb1:  // no predecessors
    %0 = ub.poison : tensor<128x128xf32> loc(#loc47)
    tt.return %0 : tensor<128x128xf32> loc(#loc47)
  } loc(#loc47)
  tt.func private @"triton.language.standard.max__fp32S128_64S__(1,)cconstexpr_1__(2,)cconstexpr_False__(3,)cconstexpr_True__(4,)cconstexpr_False__(5,)cNone"(%input: tensor<128x64xf32> loc("input"(#loc50))) -> tensor<128xf32> attributes {noinline = false} {
    %0 = "tt.reduce"(%input) <{axis = 1 : i32, reduction_ordering = "unordered"}> ({
    ^bb0(%arg1: f32 loc(unknown), %arg2: f32 loc(unknown)):
      %2 = tt.call @triton.language.standard._elementwise_max__fp32_fp32__(%arg1, %arg2) : (f32, f32) -> f32 loc(#loc51)
      tt.reduce.return %2 : f32 loc(#loc51)
    }) : (tensor<128x64xf32>) -> tensor<128xf32> loc(#loc51)
    tt.return %0 : tensor<128xf32> loc(#loc53)
  ^bb1:  // no predecessors
    %1 = ub.poison : tensor<128xf32> loc(#loc50)
    tt.return %1 : tensor<128xf32> loc(#loc50)
  } loc(#loc50)
  tt.func private @triton.language.standard._elementwise_max__fp32_fp32__(%a: f32 loc("a"(#loc54)), %b: f32 loc("b"(#loc54))) -> f32 attributes {noinline = false} {
    %0 = arith.maxnumf %a, %b : f32 loc(#loc55)
    tt.return %0 : f32 loc(#loc56)
  ^bb1:  // no predecessors
    %1 = ub.poison : f32 loc(#loc54)
    tt.return %1 : f32 loc(#loc54)
  } loc(#loc54)
  tt.func private @"triton.language.standard.sum__fp32S128_64S__(1,)cconstexpr_1__(2,)cconstexpr_False__(3,)cNone_(4,)cNone"(%input: tensor<128x64xf32> loc("input"(#loc57))) -> tensor<128xf32> attributes {noinline = false} {
    %0 = "tt.reduce"(%input) <{axis = 1 : i32, reduction_ordering = "unordered"}> ({
    ^bb0(%arg1: f32 loc(unknown), %arg2: f32 loc(unknown)):
      %2 = tt.call @triton.language.standard._sum_combine__fp32_fp32__(%arg1, %arg2) : (f32, f32) -> f32 loc(#loc58)
      tt.reduce.return %2 : f32 loc(#loc58)
    }) : (tensor<128x64xf32>) -> tensor<128xf32> loc(#loc58)
    tt.return %0 : tensor<128xf32> loc(#loc59)
  ^bb1:  // no predecessors
    %1 = ub.poison : tensor<128xf32> loc(#loc57)
    tt.return %1 : tensor<128xf32> loc(#loc57)
  } loc(#loc57)
  tt.func private @triton.language.standard._sum_combine__fp32_fp32__(%a: f32 loc("a"(#loc60)), %b: f32 loc("b"(#loc60))) -> f32 attributes {noinline = false} {
    %0 = arith.addf %a, %b : f32 loc(#loc61)
    tt.return %0 : f32 loc(#loc62)
  ^bb1:  // no predecessors
    %1 = ub.poison : f32 loc(#loc60)
    tt.return %1 : f32 loc(#loc60)
  } loc(#loc60)
} loc(#loc)
#loc1 = loc("/projects/kzhou6/hwu27/triton-beta-3-paper-solver-wt/third_party/tlx/tools/sched2tlx/examples/case3_FA_fp16/fa_fwd_nows_fp16.py":28:13)
#loc2 = loc("/projects/kzhou6/hwu27/triton-beta-3-paper-solver-wt/third_party/tlx/tools/sched2tlx/examples/case3_FA_fp16/fa_fwd_nows_fp16.py":29:14)
#loc3 = loc("/projects/kzhou6/hwu27/triton-beta-3-paper-solver-wt/third_party/tlx/tools/sched2tlx/examples/case3_FA_fp16/fa_fwd_nows_fp16.py":30:15)
#loc4 = loc("/projects/kzhou6/hwu27/triton-beta-3-paper-solver-wt/third_party/tlx/tools/sched2tlx/examples/case3_FA_fp16/fa_fwd_nows_fp16.py":31:27)
#loc5 = loc("/projects/kzhou6/hwu27/triton-beta-3-paper-solver-wt/third_party/tlx/tools/sched2tlx/examples/case3_FA_fp16/fa_fwd_nows_fp16.py":31:17)
#loc6 = loc("/projects/kzhou6/hwu27/triton-beta-3-paper-solver-wt/third_party/tlx/tools/sched2tlx/examples/case3_FA_fp16/fa_fwd_nows_fp16.py":32:12)
#loc7 = loc("/projects/kzhou6/hwu27/triton-beta-3-paper-solver-wt/third_party/tlx/tools/sched2tlx/examples/case3_FA_fp16/fa_fwd_nows_fp16.py":33:15)
#loc8 = loc("/projects/kzhou6/hwu27/triton-beta-3-paper-solver-wt/third_party/tlx/tools/sched2tlx/examples/case3_FA_fp16/fa_fwd_nows_fp16.py":35:14)
#loc9 = loc("/projects/kzhou6/hwu27/triton-beta-3-paper-solver-wt/third_party/tlx/tools/sched2tlx/examples/case3_FA_fp16/fa_fwd_nows_fp16.py":37:14)
#loc10 = loc("/projects/kzhou6/hwu27/triton-beta-3-paper-solver-wt/third_party/tlx/tools/sched2tlx/examples/case3_FA_fp16/fa_fwd_nows_fp16.py":39:16)
#loc11 = loc("/projects/kzhou6/hwu27/triton-beta-3-paper-solver-wt/third_party/tlx/tools/sched2tlx/examples/case3_FA_fp16/fa_fwd_nows_fp16.py":41:9)
#loc12 = loc("/projects/kzhou6/hwu27/triton-beta-3-paper-solver-wt/third_party/tlx/tools/sched2tlx/examples/case3_FA_fp16/fa_fwd_nows_fp16.py":42:11)
#loc13 = loc("/projects/kzhou6/hwu27/triton-beta-3-paper-solver-wt/third_party/tlx/tools/sched2tlx/examples/case3_FA_fp16/fa_fwd_nows_fp16.py":43:11)
#loc14 = loc("/projects/kzhou6/hwu27/triton-beta-3-paper-solver-wt/third_party/tlx/tools/sched2tlx/examples/case3_FA_fp16/fa_fwd_nows_fp16.py":44:11)
#loc15 = loc("/projects/kzhou6/hwu27/triton-beta-3-paper-solver-wt/third_party/tlx/tools/sched2tlx/examples/case3_FA_fp16/fa_fwd_nows_fp16.py":45:16)
#loc16 = loc("/projects/kzhou6/hwu27/triton-beta-3-paper-solver-wt/third_party/tlx/tools/sched2tlx/examples/case3_FA_fp16/fa_fwd_nows_fp16.py":46:21)
#loc17 = loc("/projects/kzhou6/hwu27/triton-beta-3-paper-solver-wt/third_party/tlx/tools/sched2tlx/examples/case3_FA_fp16/fa_fwd_nows_fp16.py":46:5)
#loc18 = loc("/projects/kzhou6/hwu27/triton-beta-3-paper-solver-wt/third_party/tlx/tools/sched2tlx/examples/case3_FA_fp16/fa_fwd_nows_fp16.py":47:26)
#loc19 = loc("/projects/kzhou6/hwu27/triton-beta-3-paper-solver-wt/third_party/tlx/tools/sched2tlx/examples/case3_FA_fp16/fa_fwd_nows_fp16.py":47:16)
#loc20 = loc("/projects/kzhou6/hwu27/triton-beta-3-paper-solver-wt/third_party/tlx/tools/sched2tlx/examples/case3_FA_fp16/fa_fwd_nows_fp16.py":48:13)
#loc21 = loc("/projects/kzhou6/hwu27/triton-beta-3-paper-solver-wt/third_party/tlx/tools/sched2tlx/examples/case3_FA_fp16/fa_fwd_nows_fp16.py":49:13)
#loc22 = loc("/projects/kzhou6/hwu27/triton-beta-3-paper-solver-wt/third_party/tlx/tools/sched2tlx/examples/case3_FA_fp16/fa_fwd_nows_fp16.py":50:24)
#loc23 = loc("/projects/kzhou6/hwu27/triton-beta-3-paper-solver-wt/third_party/tlx/tools/sched2tlx/examples/case3_FA_fp16/fa_fwd_nows_fp16.py":50:14)
#loc24 = loc("/projects/kzhou6/hwu27/triton-beta-3-paper-solver-wt/third_party/tlx/tools/sched2tlx/examples/case3_FA_fp16/fa_fwd_nows_fp16.py":51:32)
#loc25 = loc("/projects/kzhou6/hwu27/triton-beta-3-paper-solver-wt/third_party/tlx/tools/sched2tlx/examples/case3_FA_fp16/fa_fwd_nows_fp16.py":51:16)
#loc26 = loc("/projects/kzhou6/hwu27/triton-beta-3-paper-solver-wt/third_party/tlx/tools/sched2tlx/examples/case3_FA_fp16/fa_fwd_nows_fp16.py":52:30)
#loc27 = loc("/projects/kzhou6/hwu27/triton-beta-3-paper-solver-wt/third_party/tlx/tools/sched2tlx/examples/case3_FA_fp16/fa_fwd_nows_fp16.py":52:17)
#loc28 = loc("/projects/kzhou6/hwu27/triton-beta-3-paper-solver-wt/third_party/tlx/tools/sched2tlx/examples/case3_FA_fp16/fa_fwd_nows_fp16.py":53:26)
#loc29 = loc("/projects/kzhou6/hwu27/triton-beta-3-paper-solver-wt/third_party/tlx/tools/sched2tlx/examples/case3_FA_fp16/fa_fwd_nows_fp16.py":53:42)
#loc30 = loc("/projects/kzhou6/hwu27/triton-beta-3-paper-solver-wt/third_party/tlx/tools/sched2tlx/examples/case3_FA_fp16/fa_fwd_nows_fp16.py":53:13)
#loc31 = loc("/projects/kzhou6/hwu27/triton-beta-3-paper-solver-wt/third_party/tlx/tools/sched2tlx/examples/case3_FA_fp16/fa_fwd_nows_fp16.py":54:16)
#loc32 = loc("/projects/kzhou6/hwu27/triton-beta-3-paper-solver-wt/third_party/tlx/tools/sched2tlx/examples/case3_FA_fp16/fa_fwd_nows_fp16.py":55:22)
#loc33 = loc("/projects/kzhou6/hwu27/triton-beta-3-paper-solver-wt/third_party/tlx/tools/sched2tlx/examples/case3_FA_fp16/fa_fwd_nows_fp16.py":55:49)
#loc34 = loc("/projects/kzhou6/hwu27/triton-beta-3-paper-solver-wt/third_party/tlx/tools/sched2tlx/examples/case3_FA_fp16/fa_fwd_nows_fp16.py":55:43)
#loc35 = loc("/projects/kzhou6/hwu27/triton-beta-3-paper-solver-wt/third_party/tlx/tools/sched2tlx/examples/case3_FA_fp16/fa_fwd_nows_fp16.py":55:15)
#loc36 = loc("/projects/kzhou6/hwu27/triton-beta-3-paper-solver-wt/third_party/tlx/tools/sched2tlx/examples/case3_FA_fp16/fa_fwd_nows_fp16.py":56:15)
#loc37 = loc("/projects/kzhou6/hwu27/triton-beta-3-paper-solver-wt/third_party/tlx/tools/sched2tlx/examples/case3_FA_fp16/fa_fwd_nows_fp16.py":58:17)
#loc38 = loc("/projects/kzhou6/hwu27/triton-beta-3-paper-solver-wt/third_party/tlx/tools/sched2tlx/examples/case3_FA_fp16/fa_fwd_nows_fp16.py":58:11)
#loc39 = loc("/projects/kzhou6/hwu27/triton-beta-3-paper-solver-wt/third_party/tlx/tools/sched2tlx/examples/case3_FA_fp16/fa_fwd_nows_fp16.py":59:36)
#loc40 = loc("/projects/kzhou6/hwu27/triton-beta-3-paper-solver-wt/third_party/tlx/tools/sched2tlx/examples/case3_FA_fp16/fa_fwd_nows_fp16.py":59:5)
#loc41 = loc("/projects/kzhou6/hwu27/triton-beta-3-paper-solver-wt/third_party/tlx/tools/sched2tlx/examples/case3_FA_fp16/fa_fwd_nows_fp16.py":60:14)
#loc42 = loc("/projects/kzhou6/hwu27/triton-beta-3-paper-solver-wt/third_party/tlx/tools/sched2tlx/examples/case3_FA_fp16/fa_fwd_nows_fp16.py":60:32)
#loc43 = loc("/projects/kzhou6/hwu27/triton-beta-3-paper-solver-wt/third_party/tlx/tools/sched2tlx/examples/case3_FA_fp16/fa_fwd_nows_fp16.py":61:14)
#loc44 = loc("/projects/kzhou6/hwu27/triton-beta-3-paper-solver-wt/third_party/tlx/tools/sched2tlx/examples/case3_FA_fp16/fa_fwd_nows_fp16.py":61:46)
#loc45 = loc("/projects/kzhou6/hwu27/triton-beta-3-paper-solver-wt/third_party/tlx/tools/sched2tlx/examples/case3_FA_fp16/fa_fwd_nows_fp16.py":61:40)
#loc46 = loc("/projects/kzhou6/hwu27/triton-beta-3-paper-solver-wt/third_party/tlx/tools/sched2tlx/examples/case3_FA_fp16/fa_fwd_nows_fp16.py":61:5)
#loc47 = loc("/projects/kzhou6/hwu27/triton-beta-3-paper-solver-wt/python/triton/language/standard.py":120:1)
#loc48 = loc("/projects/kzhou6/hwu27/triton-beta-3-paper-solver-wt/python/triton/language/standard.py":129:12)
#loc49 = loc("/projects/kzhou6/hwu27/triton-beta-3-paper-solver-wt/python/triton/language/standard.py":129:5)
#loc51 = loc("/projects/kzhou6/hwu27/triton-beta-3-paper-solver-wt/python/triton/language/standard.py":194:16)
#loc53 = loc("/projects/kzhou6/hwu27/triton-beta-3-paper-solver-wt/python/triton/language/standard.py":194:9)
#loc55 = loc("/projects/kzhou6/hwu27/triton-beta-3-paper-solver-wt/python/triton/language/standard.py":170:12)
#loc56 = loc("/projects/kzhou6/hwu27/triton-beta-3-paper-solver-wt/python/triton/language/standard.py":170:5)
#loc58 = loc("/projects/kzhou6/hwu27/triton-beta-3-paper-solver-wt/python/triton/language/standard.py":313:12)
#loc59 = loc("/projects/kzhou6/hwu27/triton-beta-3-paper-solver-wt/python/triton/language/standard.py":313:5)
#loc61 = loc("/projects/kzhou6/hwu27/triton-beta-3-paper-solver-wt/python/triton/language/standard.py":273:12)
#loc62 = loc("/projects/kzhou6/hwu27/triton-beta-3-paper-solver-wt/python/triton/language/standard.py":273:5)
#loc71 = loc("pid_m"(#loc1))
#loc72 = loc("pid_bh"(#loc2))
#loc73 = loc("kv_base"(#loc3))
#loc74 = loc("qo_offset"(#loc4))
#loc75 = loc("qo_offset"(#loc5))
#loc76 = loc("rows"(#loc6))
#loc77 = loc("qo_desc"(#loc7))
#loc78 = loc("k_desc"(#loc8))
#loc79 = loc("v_desc"(#loc9))
#loc80 = loc("out_desc"(#loc10))
#loc81 = loc("q"(#loc11))
#loc82 = loc("m_i"(#loc12))
#loc83 = loc("l_i"(#loc13))
#loc84 = loc("acc"(#loc14))
#loc85 = loc("qk_scale"(#loc15))
#loc86 = loc("m_i"(#loc17))
#loc87 = loc("koff"(#loc18))
#loc88 = loc("koff"(#loc19))
#loc89 = loc("k"(#loc20))
#loc90 = loc("v"(#loc21))
#loc91 = loc("qk"(#loc22))
#loc92 = loc("qk"(#loc23))
#loc93 = loc("m_ij"(#loc24))
#loc94 = loc("m_ij"(#loc25))
#loc95 = loc("alpha"(#loc26))
#loc96 = loc("alpha"(#loc27))
#loc97 = loc("p"(#loc28))
#loc98 = loc("p"(#loc29))
#loc99 = loc("p"(#loc30))
#loc100 = loc("l_ij"(#loc31))
#loc101 = loc("acc"(#loc32))
#loc102 = loc("acc"(#loc33))
#loc103 = loc("acc"(#loc34))
#loc104 = loc("acc"(#loc35))
#loc105 = loc("l_i"(#loc36))
#loc106 = loc("acc"(#loc37))
#loc107 = loc("acc"(#loc38))
#loc108 = loc("offs_m"(#loc41))
#loc109 = loc("offs_m"(#loc42))
#loc116 = loc("l_i"(#loc86))
#loc117 = loc("acc"(#loc116))


// -----// IR Dump Before InlinerPass: inline{default-pipeline=canonicalize inlining-threshold=4294967295 max-iterations=4 } ('builtin.module' operation) //----- //
#loc = loc("/projects/kzhou6/hwu27/triton-beta-3-paper-solver-wt/third_party/tlx/tools/sched2tlx/examples/case3_FA_fp16/fa_fwd_nows_fp16.py":25:1)
#loc50 = loc("/projects/kzhou6/hwu27/triton-beta-3-paper-solver-wt/python/triton/language/standard.py":177:1)
#loc52 = loc(unknown)
#loc54 = loc("/projects/kzhou6/hwu27/triton-beta-3-paper-solver-wt/python/triton/language/standard.py":169:1)
#loc57 = loc("/projects/kzhou6/hwu27/triton-beta-3-paper-solver-wt/python/triton/language/standard.py":297:1)
#loc60 = loc("/projects/kzhou6/hwu27/triton-beta-3-paper-solver-wt/python/triton/language/standard.py":272:1)
#loc63 = loc("Q"(#loc))
#loc64 = loc("K"(#loc))
#loc65 = loc("V"(#loc))
#loc66 = loc("Out"(#loc))
#loc67 = loc("M_lse"(#loc))
#loc68 = loc("sm_scale"(#loc))
#loc69 = loc("H"(#loc))
#loc70 = loc("N_CTX"(#loc))
#loc110 = loc("input"(#loc50))
#loc111 = loc("a"(#loc54))
#loc112 = loc("b"(#loc54))
#loc113 = loc("input"(#loc57))
#loc114 = loc("a"(#loc60))
#loc115 = loc("b"(#loc60))
module {
  tt.func public @fa_fwd_kernel_nows(%Q: !tt.ptr<f16> {tt.divisibility = 16 : i32} loc("Q"(#loc)), %K: !tt.ptr<f16> {tt.divisibility = 16 : i32} loc("K"(#loc)), %V: !tt.ptr<f16> {tt.divisibility = 16 : i32} loc("V"(#loc)), %Out: !tt.ptr<f16> {tt.divisibility = 16 : i32} loc("Out"(#loc)), %M_lse: !tt.ptr<f32> {tt.divisibility = 16 : i32} loc("M_lse"(#loc)), %sm_scale: f32 loc("sm_scale"(#loc)), %H: i32 loc("H"(#loc)), %N_CTX: i32 {tt.divisibility = 16 : i32} loc("N_CTX"(#loc))) attributes {noinline = false} {
    %pid_m = tt.get_program_id x : i32 loc(#loc71)
    %pid_bh = tt.get_program_id y : i32 loc(#loc72)
    %kv_base = arith.muli %pid_bh, %N_CTX : i32 loc(#loc73)
    %qo_offset = arith.constant 128 : i32 loc(#loc74)
    %qo_offset_0 = arith.constant 128 : i32 loc(#loc74)
    %qo_offset_1 = arith.muli %pid_m, %qo_offset_0 : i32 loc(#loc74)
    %qo_offset_2 = arith.addi %kv_base, %qo_offset_1 : i32 loc(#loc75)
    %rows = arith.muli %H, %N_CTX : i32 loc(#loc76)
    %qo_desc = arith.constant 128 : i32 loc(#loc77)
    %qo_desc_3 = arith.constant 128 : i64 loc(#loc77)
    %qo_desc_4 = arith.constant 1 : i64 loc(#loc77)
    %qo_desc_5 = tt.make_tensor_descriptor %Q, [%rows, %qo_desc], [%qo_desc_3, %qo_desc_4] : !tt.ptr<f16>, !tt.tensordesc<128x128xf16> loc(#loc77)
    %k_desc = arith.constant 128 : i32 loc(#loc78)
    %k_desc_6 = arith.constant 128 : i64 loc(#loc78)
    %k_desc_7 = arith.constant 1 : i64 loc(#loc78)
    %k_desc_8 = tt.make_tensor_descriptor %K, [%rows, %k_desc], [%k_desc_6, %k_desc_7] : !tt.ptr<f16>, !tt.tensordesc<64x128xf16> loc(#loc78)
    %v_desc = arith.constant 128 : i32 loc(#loc79)
    %v_desc_9 = arith.constant 128 : i64 loc(#loc79)
    %v_desc_10 = arith.constant 1 : i64 loc(#loc79)
    %v_desc_11 = tt.make_tensor_descriptor %V, [%rows, %v_desc], [%v_desc_9, %v_desc_10] : !tt.ptr<f16>, !tt.tensordesc<64x128xf16> loc(#loc79)
    %out_desc = arith.constant 128 : i32 loc(#loc80)
    %out_desc_12 = arith.constant 128 : i64 loc(#loc80)
    %out_desc_13 = arith.constant 1 : i64 loc(#loc80)
    %out_desc_14 = tt.make_tensor_descriptor %Out, [%rows, %out_desc], [%out_desc_12, %out_desc_13] : !tt.ptr<f16>, !tt.tensordesc<128x128xf16> loc(#loc80)
    %q = arith.constant 0 : i32 loc(#loc81)
    %q_15 = tt.descriptor_load %qo_desc_5[%qo_offset_2, %q] : !tt.tensordesc<128x128xf16> -> tensor<128x128xf16> loc(#loc81)
    %m_i = arith.constant 0xFF800000 : f32 loc(#loc82)
    %m_i_16 = arith.constant dense<0xFF800000> : tensor<128xf32> loc(#loc82)
    %l_i = arith.constant 1.000000e+00 : f32 loc(#loc83)
    %l_i_17 = arith.constant dense<1.000000e+00> : tensor<128xf32> loc(#loc83)
    %acc = tt.call @"triton.language.standard.zeros____(0, 0)cconstexpr_128__(0, 1)cconstexpr_128__(1,)cconstexpr_fp32_"() : () -> tensor<128x128xf32> loc(#loc84)
    %qk_scale = arith.constant 1.44269502 : f32 loc(#loc85)
    %qk_scale_18 = arith.constant 1.44269502 : f32 loc(#loc85)
    %qk_scale_19 = arith.mulf %sm_scale, %qk_scale_18 : f32 loc(#loc85)
    %c64_i32 = arith.constant 64 : i32 loc(#loc16)
    %c64_i32_20 = arith.constant 64 : i32 loc(#loc16)
    %0 = arith.divsi %N_CTX, %c64_i32_20 : i32 loc(#loc16)
    %c64_i32_21 = arith.constant 64 : i32 loc(#loc16)
    %c64_i32_22 = arith.constant 64 : i32 loc(#loc16)
    %1 = arith.divsi %N_CTX, %c64_i32_22 : i32 loc(#loc16)
    %c0_i32 = arith.constant 0 : i32 loc(#loc17)
    %c1_i32 = arith.constant 1 : i32 loc(#loc17)
    %2 = arith.bitcast %c0_i32 : i32 to i32 loc(#loc17)
    %3 = arith.bitcast %1 : i32 to i32 loc(#loc17)
    %4 = arith.bitcast %c1_i32 : i32 to i32 loc(#loc17)
    %5 = ub.poison : i32 loc(#loc17)
    %acc_23:3 = scf.for %kv = %2 to %3 step %4 iter_args(%m_i_33 = %m_i_16, %l_i_34 = %l_i_17, %acc_35 = %acc) -> (tensor<128xf32>, tensor<128xf32>, tensor<128x128xf32>)  : i32 {
      %koff = arith.constant 64 : i32 loc(#loc87)
      %koff_36 = arith.constant 64 : i32 loc(#loc87)
      %koff_37 = arith.muli %kv, %koff_36 : i32 loc(#loc87)
      %koff_38 = arith.addi %kv_base, %koff_37 : i32 loc(#loc88)
      %k = arith.constant 0 : i32 loc(#loc89)
      %k_39 = tt.descriptor_load %k_desc_8[%koff_38, %k] : !tt.tensordesc<64x128xf16> -> tensor<64x128xf16> loc(#loc89)
      %v = arith.constant 0 : i32 loc(#loc90)
      %v_40 = tt.descriptor_load %v_desc_11[%koff_38, %v] : !tt.tensordesc<64x128xf16> -> tensor<64x128xf16> loc(#loc90)
      %qk = tt.trans %k_39 {order = array<i32: 1, 0>} : tensor<64x128xf16> -> tensor<128x64xf16> loc(#loc91)
      %qk_41 = arith.constant 0.000000e+00 : f32 loc(#loc92)
      %qk_42 = arith.constant dense<0.000000e+00> : tensor<128x64xf32> loc(#loc92)
      %qk_43 = tt.dot %q_15, %qk, %qk_42, inputPrecision = tf32 : tensor<128x128xf16> * tensor<128x64xf16> -> tensor<128x64xf32> loc(#loc92)
      %m_ij = tt.call @"triton.language.standard.max__fp32S128_64S__(1,)cconstexpr_1__(2,)cconstexpr_False__(3,)cconstexpr_True__(4,)cconstexpr_False__(5,)cNone"(%qk_43) : (tensor<128x64xf32>) -> tensor<128xf32> loc(#loc93)
      %m_ij_44 = tt.splat %qk_scale_19 : f32 -> tensor<128xf32> loc(#loc93)
      %m_ij_45 = arith.mulf %m_ij, %m_ij_44 : tensor<128xf32> loc(#loc93)
      %m_ij_46 = arith.maxnumf %m_i_33, %m_ij_45 : tensor<128xf32> loc(#loc94)
      %alpha = arith.subf %m_i_33, %m_ij_46 : tensor<128xf32> loc(#loc95)
      %alpha_47 = math.exp2 %alpha : tensor<128xf32> loc(#loc96)
      %p = tt.splat %qk_scale_19 : f32 -> tensor<128x64xf32> loc(#loc97)
      %p_48 = arith.mulf %qk_43, %p : tensor<128x64xf32> loc(#loc97)
      %p_49 = tt.expand_dims %m_ij_46 {axis = 1 : i32} : tensor<128xf32> -> tensor<128x1xf32> loc(#loc98)
      %p_50 = tt.broadcast %p_49 : tensor<128x1xf32> -> tensor<128x64xf32> loc(#loc97)
      %p_51 = arith.subf %p_48, %p_50 : tensor<128x64xf32> loc(#loc97)
      %p_52 = math.exp2 %p_51 : tensor<128x64xf32> loc(#loc99)
      %l_ij = tt.call @"triton.language.standard.sum__fp32S128_64S__(1,)cconstexpr_1__(2,)cconstexpr_False__(3,)cNone_(4,)cNone"(%p_52) : (tensor<128x64xf32>) -> tensor<128xf32> loc(#loc100)
      %acc_53 = arith.truncf %p_52 : tensor<128x64xf32> to tensor<128x64xf16> loc(#loc101)
      %acc_54 = tt.expand_dims %alpha_47 {axis = 1 : i32} : tensor<128xf32> -> tensor<128x1xf32> loc(#loc102)
      %acc_55 = tt.broadcast %acc_54 : tensor<128x1xf32> -> tensor<128x128xf32> loc(#loc103)
      %acc_56 = arith.mulf %acc_35, %acc_55 : tensor<128x128xf32> loc(#loc103)
      %acc_57 = arith.constant 0.000000e+00 : f32 loc(#loc104)
      %acc_58 = tt.dot %acc_53, %v_40, %acc_56, inputPrecision = tf32 : tensor<128x64xf16> * tensor<64x128xf16> -> tensor<128x128xf32> loc(#loc104)
      %l_i_59 = arith.mulf %l_i_34, %alpha_47 : tensor<128xf32> loc(#loc105)
      %l_i_60 = arith.addf %l_i_59, %l_ij : tensor<128xf32> loc(#loc105)
      scf.yield %m_ij_46, %l_i_60, %acc_58 : tensor<128xf32>, tensor<128xf32>, tensor<128x128xf32> loc(#loc17)
    } loc(#loc117)
    %acc_24 = tt.expand_dims %acc_23#1 {axis = 1 : i32} : tensor<128xf32> -> tensor<128x1xf32> loc(#loc106)
    %acc_25 = tt.broadcast %acc_24 : tensor<128x1xf32> -> tensor<128x128xf32> loc(#loc107)
    %acc_26 = arith.divf %acc_23#2, %acc_25 : tensor<128x128xf32> loc(#loc107)
    %6 = arith.truncf %acc_26 : tensor<128x128xf32> to tensor<128x128xf16> loc(#loc39)
    %c0_i32_27 = arith.constant 0 : i32 loc(#loc40)
    tt.descriptor_store %out_desc_14[%qo_offset_2, %c0_i32_27], %6 : !tt.tensordesc<128x128xf16>, tensor<128x128xf16> loc(#loc40)
    %offs_m = arith.constant 128 : i32 loc(#loc108)
    %offs_m_28 = arith.constant 128 : i32 loc(#loc108)
    %offs_m_29 = arith.muli %pid_m, %offs_m_28 : i32 loc(#loc108)
    %offs_m_30 = tt.make_range {end = 128 : i32, start = 0 : i32} : tensor<128xi32> loc(#loc109)
    %offs_m_31 = tt.splat %offs_m_29 : i32 -> tensor<128xi32> loc(#loc108)
    %offs_m_32 = arith.addi %offs_m_31, %offs_m_30 : tensor<128xi32> loc(#loc108)
    %7 = tt.addptr %M_lse, %kv_base : !tt.ptr<f32>, i32 loc(#loc43)
    %8 = tt.splat %7 : !tt.ptr<f32> -> tensor<128x!tt.ptr<f32>> loc(#loc43)
    %9 = tt.addptr %8, %offs_m_32 : tensor<128x!tt.ptr<f32>>, tensor<128xi32> loc(#loc43)
    %10 = math.log2 %acc_23#1 : tensor<128xf32> loc(#loc44)
    %11 = arith.addf %acc_23#0, %10 : tensor<128xf32> loc(#loc45)
    tt.store %9, %11 : tensor<128x!tt.ptr<f32>> loc(#loc46)
    tt.return loc(#loc)
  } loc(#loc)
  tt.func private @"triton.language.standard.zeros____(0, 0)cconstexpr_128__(0, 1)cconstexpr_128__(1,)cconstexpr_fp32_"() -> tensor<128x128xf32> attributes {noinline = false} {
    %cst = arith.constant 0.000000e+00 : f32 loc(#loc48)
    %cst_0 = arith.constant dense<0.000000e+00> : tensor<128x128xf32> loc(#loc48)
    tt.return %cst_0 : tensor<128x128xf32> loc(#loc49)
  ^bb1:  // no predecessors
    %0 = ub.poison : tensor<128x128xf32> loc(#loc47)
    tt.return %0 : tensor<128x128xf32> loc(#loc47)
  } loc(#loc47)
  tt.func private @"triton.language.standard.max__fp32S128_64S__(1,)cconstexpr_1__(2,)cconstexpr_False__(3,)cconstexpr_True__(4,)cconstexpr_False__(5,)cNone"(%input: tensor<128x64xf32> loc("input"(#loc50))) -> tensor<128xf32> attributes {noinline = false} {
    %0 = "tt.reduce"(%input) <{axis = 1 : i32, reduction_ordering = "unordered"}> ({
    ^bb0(%arg1: f32 loc(unknown), %arg2: f32 loc(unknown)):
      %2 = tt.call @triton.language.standard._elementwise_max__fp32_fp32__(%arg1, %arg2) : (f32, f32) -> f32 loc(#loc51)
      tt.reduce.return %2 : f32 loc(#loc51)
    }) : (tensor<128x64xf32>) -> tensor<128xf32> loc(#loc51)
    tt.return %0 : tensor<128xf32> loc(#loc53)
  ^bb1:  // no predecessors
    %1 = ub.poison : tensor<128xf32> loc(#loc50)
    tt.return %1 : tensor<128xf32> loc(#loc50)
  } loc(#loc50)
  tt.func private @triton.language.standard._elementwise_max__fp32_fp32__(%a: f32 loc("a"(#loc54)), %b: f32 loc("b"(#loc54))) -> f32 attributes {noinline = false} {
    %0 = arith.maxnumf %a, %b : f32 loc(#loc55)
    tt.return %0 : f32 loc(#loc56)
  ^bb1:  // no predecessors
    %1 = ub.poison : f32 loc(#loc54)
    tt.return %1 : f32 loc(#loc54)
  } loc(#loc54)
  tt.func private @"triton.language.standard.sum__fp32S128_64S__(1,)cconstexpr_1__(2,)cconstexpr_False__(3,)cNone_(4,)cNone"(%input: tensor<128x64xf32> loc("input"(#loc57))) -> tensor<128xf32> attributes {noinline = false} {
    %0 = "tt.reduce"(%input) <{axis = 1 : i32, reduction_ordering = "unordered"}> ({
    ^bb0(%arg1: f32 loc(unknown), %arg2: f32 loc(unknown)):
      %2 = tt.call @triton.language.standard._sum_combine__fp32_fp32__(%arg1, %arg2) : (f32, f32) -> f32 loc(#loc58)
      tt.reduce.return %2 : f32 loc(#loc58)
    }) : (tensor<128x64xf32>) -> tensor<128xf32> loc(#loc58)
    tt.return %0 : tensor<128xf32> loc(#loc59)
  ^bb1:  // no predecessors
    %1 = ub.poison : tensor<128xf32> loc(#loc57)
    tt.return %1 : tensor<128xf32> loc(#loc57)
  } loc(#loc57)
  tt.func private @triton.language.standard._sum_combine__fp32_fp32__(%a: f32 loc("a"(#loc60)), %b: f32 loc("b"(#loc60))) -> f32 attributes {noinline = false} {
    %0 = arith.addf %a, %b : f32 loc(#loc61)
    tt.return %0 : f32 loc(#loc62)
  ^bb1:  // no predecessors
    %1 = ub.poison : f32 loc(#loc60)
    tt.return %1 : f32 loc(#loc60)
  } loc(#loc60)
} loc(#loc)
#loc1 = loc("/projects/kzhou6/hwu27/triton-beta-3-paper-solver-wt/third_party/tlx/tools/sched2tlx/examples/case3_FA_fp16/fa_fwd_nows_fp16.py":28:13)
#loc2 = loc("/projects/kzhou6/hwu27/triton-beta-3-paper-solver-wt/third_party/tlx/tools/sched2tlx/examples/case3_FA_fp16/fa_fwd_nows_fp16.py":29:14)
#loc3 = loc("/projects/kzhou6/hwu27/triton-beta-3-paper-solver-wt/third_party/tlx/tools/sched2tlx/examples/case3_FA_fp16/fa_fwd_nows_fp16.py":30:15)
#loc4 = loc("/projects/kzhou6/hwu27/triton-beta-3-paper-solver-wt/third_party/tlx/tools/sched2tlx/examples/case3_FA_fp16/fa_fwd_nows_fp16.py":31:27)
#loc5 = loc("/projects/kzhou6/hwu27/triton-beta-3-paper-solver-wt/third_party/tlx/tools/sched2tlx/examples/case3_FA_fp16/fa_fwd_nows_fp16.py":31:17)
#loc6 = loc("/projects/kzhou6/hwu27/triton-beta-3-paper-solver-wt/third_party/tlx/tools/sched2tlx/examples/case3_FA_fp16/fa_fwd_nows_fp16.py":32:12)
#loc7 = loc("/projects/kzhou6/hwu27/triton-beta-3-paper-solver-wt/third_party/tlx/tools/sched2tlx/examples/case3_FA_fp16/fa_fwd_nows_fp16.py":33:15)
#loc8 = loc("/projects/kzhou6/hwu27/triton-beta-3-paper-solver-wt/third_party/tlx/tools/sched2tlx/examples/case3_FA_fp16/fa_fwd_nows_fp16.py":35:14)
#loc9 = loc("/projects/kzhou6/hwu27/triton-beta-3-paper-solver-wt/third_party/tlx/tools/sched2tlx/examples/case3_FA_fp16/fa_fwd_nows_fp16.py":37:14)
#loc10 = loc("/projects/kzhou6/hwu27/triton-beta-3-paper-solver-wt/third_party/tlx/tools/sched2tlx/examples/case3_FA_fp16/fa_fwd_nows_fp16.py":39:16)
#loc11 = loc("/projects/kzhou6/hwu27/triton-beta-3-paper-solver-wt/third_party/tlx/tools/sched2tlx/examples/case3_FA_fp16/fa_fwd_nows_fp16.py":41:9)
#loc12 = loc("/projects/kzhou6/hwu27/triton-beta-3-paper-solver-wt/third_party/tlx/tools/sched2tlx/examples/case3_FA_fp16/fa_fwd_nows_fp16.py":42:11)
#loc13 = loc("/projects/kzhou6/hwu27/triton-beta-3-paper-solver-wt/third_party/tlx/tools/sched2tlx/examples/case3_FA_fp16/fa_fwd_nows_fp16.py":43:11)
#loc14 = loc("/projects/kzhou6/hwu27/triton-beta-3-paper-solver-wt/third_party/tlx/tools/sched2tlx/examples/case3_FA_fp16/fa_fwd_nows_fp16.py":44:11)
#loc15 = loc("/projects/kzhou6/hwu27/triton-beta-3-paper-solver-wt/third_party/tlx/tools/sched2tlx/examples/case3_FA_fp16/fa_fwd_nows_fp16.py":45:16)
#loc16 = loc("/projects/kzhou6/hwu27/triton-beta-3-paper-solver-wt/third_party/tlx/tools/sched2tlx/examples/case3_FA_fp16/fa_fwd_nows_fp16.py":46:21)
#loc17 = loc("/projects/kzhou6/hwu27/triton-beta-3-paper-solver-wt/third_party/tlx/tools/sched2tlx/examples/case3_FA_fp16/fa_fwd_nows_fp16.py":46:5)
#loc18 = loc("/projects/kzhou6/hwu27/triton-beta-3-paper-solver-wt/third_party/tlx/tools/sched2tlx/examples/case3_FA_fp16/fa_fwd_nows_fp16.py":47:26)
#loc19 = loc("/projects/kzhou6/hwu27/triton-beta-3-paper-solver-wt/third_party/tlx/tools/sched2tlx/examples/case3_FA_fp16/fa_fwd_nows_fp16.py":47:16)
#loc20 = loc("/projects/kzhou6/hwu27/triton-beta-3-paper-solver-wt/third_party/tlx/tools/sched2tlx/examples/case3_FA_fp16/fa_fwd_nows_fp16.py":48:13)
#loc21 = loc("/projects/kzhou6/hwu27/triton-beta-3-paper-solver-wt/third_party/tlx/tools/sched2tlx/examples/case3_FA_fp16/fa_fwd_nows_fp16.py":49:13)
#loc22 = loc("/projects/kzhou6/hwu27/triton-beta-3-paper-solver-wt/third_party/tlx/tools/sched2tlx/examples/case3_FA_fp16/fa_fwd_nows_fp16.py":50:24)
#loc23 = loc("/projects/kzhou6/hwu27/triton-beta-3-paper-solver-wt/third_party/tlx/tools/sched2tlx/examples/case3_FA_fp16/fa_fwd_nows_fp16.py":50:14)
#loc24 = loc("/projects/kzhou6/hwu27/triton-beta-3-paper-solver-wt/third_party/tlx/tools/sched2tlx/examples/case3_FA_fp16/fa_fwd_nows_fp16.py":51:32)
#loc25 = loc("/projects/kzhou6/hwu27/triton-beta-3-paper-solver-wt/third_party/tlx/tools/sched2tlx/examples/case3_FA_fp16/fa_fwd_nows_fp16.py":51:16)
#loc26 = loc("/projects/kzhou6/hwu27/triton-beta-3-paper-solver-wt/third_party/tlx/tools/sched2tlx/examples/case3_FA_fp16/fa_fwd_nows_fp16.py":52:30)
#loc27 = loc("/projects/kzhou6/hwu27/triton-beta-3-paper-solver-wt/third_party/tlx/tools/sched2tlx/examples/case3_FA_fp16/fa_fwd_nows_fp16.py":52:17)
#loc28 = loc("/projects/kzhou6/hwu27/triton-beta-3-paper-solver-wt/third_party/tlx/tools/sched2tlx/examples/case3_FA_fp16/fa_fwd_nows_fp16.py":53:26)
#loc29 = loc("/projects/kzhou6/hwu27/triton-beta-3-paper-solver-wt/third_party/tlx/tools/sched2tlx/examples/case3_FA_fp16/fa_fwd_nows_fp16.py":53:42)
#loc30 = loc("/projects/kzhou6/hwu27/triton-beta-3-paper-solver-wt/third_party/tlx/tools/sched2tlx/examples/case3_FA_fp16/fa_fwd_nows_fp16.py":53:13)
#loc31 = loc("/projects/kzhou6/hwu27/triton-beta-3-paper-solver-wt/third_party/tlx/tools/sched2tlx/examples/case3_FA_fp16/fa_fwd_nows_fp16.py":54:16)
#loc32 = loc("/projects/kzhou6/hwu27/triton-beta-3-paper-solver-wt/third_party/tlx/tools/sched2tlx/examples/case3_FA_fp16/fa_fwd_nows_fp16.py":55:22)
#loc33 = loc("/projects/kzhou6/hwu27/triton-beta-3-paper-solver-wt/third_party/tlx/tools/sched2tlx/examples/case3_FA_fp16/fa_fwd_nows_fp16.py":55:49)
#loc34 = loc("/projects/kzhou6/hwu27/triton-beta-3-paper-solver-wt/third_party/tlx/tools/sched2tlx/examples/case3_FA_fp16/fa_fwd_nows_fp16.py":55:43)
#loc35 = loc("/projects/kzhou6/hwu27/triton-beta-3-paper-solver-wt/third_party/tlx/tools/sched2tlx/examples/case3_FA_fp16/fa_fwd_nows_fp16.py":55:15)
#loc36 = loc("/projects/kzhou6/hwu27/triton-beta-3-paper-solver-wt/third_party/tlx/tools/sched2tlx/examples/case3_FA_fp16/fa_fwd_nows_fp16.py":56:15)
#loc37 = loc("/projects/kzhou6/hwu27/triton-beta-3-paper-solver-wt/third_party/tlx/tools/sched2tlx/examples/case3_FA_fp16/fa_fwd_nows_fp16.py":58:17)
#loc38 = loc("/projects/kzhou6/hwu27/triton-beta-3-paper-solver-wt/third_party/tlx/tools/sched2tlx/examples/case3_FA_fp16/fa_fwd_nows_fp16.py":58:11)
#loc39 = loc("/projects/kzhou6/hwu27/triton-beta-3-paper-solver-wt/third_party/tlx/tools/sched2tlx/examples/case3_FA_fp16/fa_fwd_nows_fp16.py":59:36)
#loc40 = loc("/projects/kzhou6/hwu27/triton-beta-3-paper-solver-wt/third_party/tlx/tools/sched2tlx/examples/case3_FA_fp16/fa_fwd_nows_fp16.py":59:5)
#loc41 = loc("/projects/kzhou6/hwu27/triton-beta-3-paper-solver-wt/third_party/tlx/tools/sched2tlx/examples/case3_FA_fp16/fa_fwd_nows_fp16.py":60:14)
#loc42 = loc("/projects/kzhou6/hwu27/triton-beta-3-paper-solver-wt/third_party/tlx/tools/sched2tlx/examples/case3_FA_fp16/fa_fwd_nows_fp16.py":60:32)
#loc43 = loc("/projects/kzhou6/hwu27/triton-beta-3-paper-solver-wt/third_party/tlx/tools/sched2tlx/examples/case3_FA_fp16/fa_fwd_nows_fp16.py":61:14)
#loc44 = loc("/projects/kzhou6/hwu27/triton-beta-3-paper-solver-wt/third_party/tlx/tools/sched2tlx/examples/case3_FA_fp16/fa_fwd_nows_fp16.py":61:46)
#loc45 = loc("/projects/kzhou6/hwu27/triton-beta-3-paper-solver-wt/third_party/tlx/tools/sched2tlx/examples/case3_FA_fp16/fa_fwd_nows_fp16.py":61:40)
#loc46 = loc("/projects/kzhou6/hwu27/triton-beta-3-paper-solver-wt/third_party/tlx/tools/sched2tlx/examples/case3_FA_fp16/fa_fwd_nows_fp16.py":61:5)
#loc47 = loc("/projects/kzhou6/hwu27/triton-beta-3-paper-solver-wt/python/triton/language/standard.py":120:1)
#loc48 = loc("/projects/kzhou6/hwu27/triton-beta-3-paper-solver-wt/python/triton/language/standard.py":129:12)
#loc49 = loc("/projects/kzhou6/hwu27/triton-beta-3-paper-solver-wt/python/triton/language/standard.py":129:5)
#loc51 = loc("/projects/kzhou6/hwu27/triton-beta-3-paper-solver-wt/python/triton/language/standard.py":194:16)
#loc53 = loc("/projects/kzhou6/hwu27/triton-beta-3-paper-solver-wt/python/triton/language/standard.py":194:9)
#loc55 = loc("/projects/kzhou6/hwu27/triton-beta-3-paper-solver-wt/python/triton/language/standard.py":170:12)
#loc56 = loc("/projects/kzhou6/hwu27/triton-beta-3-paper-solver-wt/python/triton/language/standard.py":170:5)
#loc58 = loc("/projects/kzhou6/hwu27/triton-beta-3-paper-solver-wt/python/triton/language/standard.py":313:12)
#loc59 = loc("/projects/kzhou6/hwu27/triton-beta-3-paper-solver-wt/python/triton/language/standard.py":313:5)
#loc61 = loc("/projects/kzhou6/hwu27/triton-beta-3-paper-solver-wt/python/triton/language/standard.py":273:12)
#loc62 = loc("/projects/kzhou6/hwu27/triton-beta-3-paper-solver-wt/python/triton/language/standard.py":273:5)
#loc71 = loc("pid_m"(#loc1))
#loc72 = loc("pid_bh"(#loc2))
#loc73 = loc("kv_base"(#loc3))
#loc74 = loc("qo_offset"(#loc4))
#loc75 = loc("qo_offset"(#loc5))
#loc76 = loc("rows"(#loc6))
#loc77 = loc("qo_desc"(#loc7))
#loc78 = loc("k_desc"(#loc8))
#loc79 = loc("v_desc"(#loc9))
#loc80 = loc("out_desc"(#loc10))
#loc81 = loc("q"(#loc11))
#loc82 = loc("m_i"(#loc12))
#loc83 = loc("l_i"(#loc13))
#loc84 = loc("acc"(#loc14))
#loc85 = loc("qk_scale"(#loc15))
#loc86 = loc("m_i"(#loc17))
#loc87 = loc("koff"(#loc18))
#loc88 = loc("koff"(#loc19))
#loc89 = loc("k"(#loc20))
#loc90 = loc("v"(#loc21))
#loc91 = loc("qk"(#loc22))
#loc92 = loc("qk"(#loc23))
#loc93 = loc("m_ij"(#loc24))
#loc94 = loc("m_ij"(#loc25))
#loc95 = loc("alpha"(#loc26))
#loc96 = loc("alpha"(#loc27))
#loc97 = loc("p"(#loc28))
#loc98 = loc("p"(#loc29))
#loc99 = loc("p"(#loc30))
#loc100 = loc("l_ij"(#loc31))
#loc101 = loc("acc"(#loc32))
#loc102 = loc("acc"(#loc33))
#loc103 = loc("acc"(#loc34))
#loc104 = loc("acc"(#loc35))
#loc105 = loc("l_i"(#loc36))
#loc106 = loc("acc"(#loc37))
#loc107 = loc("acc"(#loc38))
#loc108 = loc("offs_m"(#loc41))
#loc109 = loc("offs_m"(#loc42))
#loc116 = loc("l_i"(#loc86))
#loc117 = loc("acc"(#loc116))


// -----// IR Dump Before CanonicalizerPass: canonicalize{cse-between-iterations=false    max-iterations=10 max-num-rewrites=-1 region-simplify=normal test-convergence=false top-down=true} ('tt.func' operation: @fa_fwd_kernel_nows) //----- //
#loc = loc("/projects/kzhou6/hwu27/triton-beta-3-paper-solver-wt/third_party/tlx/tools/sched2tlx/examples/case3_FA_fp16/fa_fwd_nows_fp16.py":25:1)
#loc50 = loc("/projects/kzhou6/hwu27/triton-beta-3-paper-solver-wt/python/triton/language/standard.py":177:1)
#loc52 = loc(unknown)
#loc56 = loc("/projects/kzhou6/hwu27/triton-beta-3-paper-solver-wt/python/triton/language/standard.py":297:1)
#loc61 = loc("Q"(#loc))
#loc62 = loc("K"(#loc))
#loc63 = loc("V"(#loc))
#loc64 = loc("Out"(#loc))
#loc65 = loc("M_lse"(#loc))
#loc66 = loc("sm_scale"(#loc))
#loc67 = loc("H"(#loc))
#loc68 = loc("N_CTX"(#loc))
#loc108 = loc("input"(#loc50))
#loc110 = loc("input"(#loc56))
module {
  tt.func public @fa_fwd_kernel_nows(%Q: !tt.ptr<f16> {tt.divisibility = 16 : i32} loc("Q"(#loc)), %K: !tt.ptr<f16> {tt.divisibility = 16 : i32} loc("K"(#loc)), %V: !tt.ptr<f16> {tt.divisibility = 16 : i32} loc("V"(#loc)), %Out: !tt.ptr<f16> {tt.divisibility = 16 : i32} loc("Out"(#loc)), %M_lse: !tt.ptr<f32> {tt.divisibility = 16 : i32} loc("M_lse"(#loc)), %sm_scale: f32 loc("sm_scale"(#loc)), %H: i32 loc("H"(#loc)), %N_CTX: i32 {tt.divisibility = 16 : i32} loc("N_CTX"(#loc))) attributes {noinline = false} {
    %pid_m = tt.get_program_id x : i32 loc(#loc69)
    %pid_bh = tt.get_program_id y : i32 loc(#loc70)
    %kv_base = arith.muli %pid_bh, %N_CTX : i32 loc(#loc71)
    %qo_offset = arith.constant 128 : i32 loc(#loc72)
    %qo_offset_0 = arith.constant 128 : i32 loc(#loc72)
    %qo_offset_1 = arith.muli %pid_m, %qo_offset_0 : i32 loc(#loc72)
    %qo_offset_2 = arith.addi %kv_base, %qo_offset_1 : i32 loc(#loc73)
    %rows = arith.muli %H, %N_CTX : i32 loc(#loc74)
    %qo_desc = arith.constant 128 : i32 loc(#loc75)
    %qo_desc_3 = arith.constant 128 : i64 loc(#loc75)
    %qo_desc_4 = arith.constant 1 : i64 loc(#loc75)
    %qo_desc_5 = tt.make_tensor_descriptor %Q, [%rows, %qo_desc], [%qo_desc_3, %qo_desc_4] : !tt.ptr<f16>, !tt.tensordesc<128x128xf16> loc(#loc75)
    %k_desc = arith.constant 128 : i32 loc(#loc76)
    %k_desc_6 = arith.constant 128 : i64 loc(#loc76)
    %k_desc_7 = arith.constant 1 : i64 loc(#loc76)
    %k_desc_8 = tt.make_tensor_descriptor %K, [%rows, %k_desc], [%k_desc_6, %k_desc_7] : !tt.ptr<f16>, !tt.tensordesc<64x128xf16> loc(#loc76)
    %v_desc = arith.constant 128 : i32 loc(#loc77)
    %v_desc_9 = arith.constant 128 : i64 loc(#loc77)
    %v_desc_10 = arith.constant 1 : i64 loc(#loc77)
    %v_desc_11 = tt.make_tensor_descriptor %V, [%rows, %v_desc], [%v_desc_9, %v_desc_10] : !tt.ptr<f16>, !tt.tensordesc<64x128xf16> loc(#loc77)
    %out_desc = arith.constant 128 : i32 loc(#loc78)
    %out_desc_12 = arith.constant 128 : i64 loc(#loc78)
    %out_desc_13 = arith.constant 1 : i64 loc(#loc78)
    %out_desc_14 = tt.make_tensor_descriptor %Out, [%rows, %out_desc], [%out_desc_12, %out_desc_13] : !tt.ptr<f16>, !tt.tensordesc<128x128xf16> loc(#loc78)
    %q = arith.constant 0 : i32 loc(#loc79)
    %q_15 = tt.descriptor_load %qo_desc_5[%qo_offset_2, %q] : !tt.tensordesc<128x128xf16> -> tensor<128x128xf16> loc(#loc79)
    %m_i = arith.constant 0xFF800000 : f32 loc(#loc80)
    %m_i_16 = arith.constant dense<0xFF800000> : tensor<128xf32> loc(#loc80)
    %l_i = arith.constant 1.000000e+00 : f32 loc(#loc81)
    %l_i_17 = arith.constant dense<1.000000e+00> : tensor<128xf32> loc(#loc81)
    %acc = tt.call @"triton.language.standard.zeros____(0, 0)cconstexpr_128__(0, 1)cconstexpr_128__(1,)cconstexpr_fp32_"() : () -> tensor<128x128xf32> loc(#loc82)
    %qk_scale = arith.constant 1.44269502 : f32 loc(#loc83)
    %qk_scale_18 = arith.constant 1.44269502 : f32 loc(#loc83)
    %qk_scale_19 = arith.mulf %sm_scale, %qk_scale_18 : f32 loc(#loc83)
    %c64_i32 = arith.constant 64 : i32 loc(#loc16)
    %c64_i32_20 = arith.constant 64 : i32 loc(#loc16)
    %0 = arith.divsi %N_CTX, %c64_i32_20 : i32 loc(#loc16)
    %c64_i32_21 = arith.constant 64 : i32 loc(#loc16)
    %c64_i32_22 = arith.constant 64 : i32 loc(#loc16)
    %1 = arith.divsi %N_CTX, %c64_i32_22 : i32 loc(#loc16)
    %c0_i32 = arith.constant 0 : i32 loc(#loc17)
    %c1_i32 = arith.constant 1 : i32 loc(#loc17)
    %2 = arith.bitcast %c0_i32 : i32 to i32 loc(#loc17)
    %3 = arith.bitcast %1 : i32 to i32 loc(#loc17)
    %4 = arith.bitcast %c1_i32 : i32 to i32 loc(#loc17)
    %5 = ub.poison : i32 loc(#loc17)
    %acc_23:3 = scf.for %kv = %2 to %3 step %4 iter_args(%m_i_33 = %m_i_16, %l_i_34 = %l_i_17, %acc_35 = %acc) -> (tensor<128xf32>, tensor<128xf32>, tensor<128x128xf32>)  : i32 {
      %koff = arith.constant 64 : i32 loc(#loc85)
      %koff_36 = arith.constant 64 : i32 loc(#loc85)
      %koff_37 = arith.muli %kv, %koff_36 : i32 loc(#loc85)
      %koff_38 = arith.addi %kv_base, %koff_37 : i32 loc(#loc86)
      %k = arith.constant 0 : i32 loc(#loc87)
      %k_39 = tt.descriptor_load %k_desc_8[%koff_38, %k] : !tt.tensordesc<64x128xf16> -> tensor<64x128xf16> loc(#loc87)
      %v = arith.constant 0 : i32 loc(#loc88)
      %v_40 = tt.descriptor_load %v_desc_11[%koff_38, %v] : !tt.tensordesc<64x128xf16> -> tensor<64x128xf16> loc(#loc88)
      %qk = tt.trans %k_39 {order = array<i32: 1, 0>} : tensor<64x128xf16> -> tensor<128x64xf16> loc(#loc89)
      %qk_41 = arith.constant 0.000000e+00 : f32 loc(#loc90)
      %qk_42 = arith.constant dense<0.000000e+00> : tensor<128x64xf32> loc(#loc90)
      %qk_43 = tt.dot %q_15, %qk, %qk_42, inputPrecision = tf32 : tensor<128x128xf16> * tensor<128x64xf16> -> tensor<128x64xf32> loc(#loc90)
      %m_ij = tt.call @"triton.language.standard.max__fp32S128_64S__(1,)cconstexpr_1__(2,)cconstexpr_False__(3,)cconstexpr_True__(4,)cconstexpr_False__(5,)cNone"(%qk_43) : (tensor<128x64xf32>) -> tensor<128xf32> loc(#loc91)
      %m_ij_44 = tt.splat %qk_scale_19 : f32 -> tensor<128xf32> loc(#loc91)
      %m_ij_45 = arith.mulf %m_ij, %m_ij_44 : tensor<128xf32> loc(#loc91)
      %m_ij_46 = arith.maxnumf %m_i_33, %m_ij_45 : tensor<128xf32> loc(#loc92)
      %alpha = arith.subf %m_i_33, %m_ij_46 : tensor<128xf32> loc(#loc93)
      %alpha_47 = math.exp2 %alpha : tensor<128xf32> loc(#loc94)
      %p = tt.splat %qk_scale_19 : f32 -> tensor<128x64xf32> loc(#loc95)
      %p_48 = arith.mulf %qk_43, %p : tensor<128x64xf32> loc(#loc95)
      %p_49 = tt.expand_dims %m_ij_46 {axis = 1 : i32} : tensor<128xf32> -> tensor<128x1xf32> loc(#loc96)
      %p_50 = tt.broadcast %p_49 : tensor<128x1xf32> -> tensor<128x64xf32> loc(#loc95)
      %p_51 = arith.subf %p_48, %p_50 : tensor<128x64xf32> loc(#loc95)
      %p_52 = math.exp2 %p_51 : tensor<128x64xf32> loc(#loc97)
      %l_ij = tt.call @"triton.language.standard.sum__fp32S128_64S__(1,)cconstexpr_1__(2,)cconstexpr_False__(3,)cNone_(4,)cNone"(%p_52) : (tensor<128x64xf32>) -> tensor<128xf32> loc(#loc98)
      %acc_53 = arith.truncf %p_52 : tensor<128x64xf32> to tensor<128x64xf16> loc(#loc99)
      %acc_54 = tt.expand_dims %alpha_47 {axis = 1 : i32} : tensor<128xf32> -> tensor<128x1xf32> loc(#loc100)
      %acc_55 = tt.broadcast %acc_54 : tensor<128x1xf32> -> tensor<128x128xf32> loc(#loc101)
      %acc_56 = arith.mulf %acc_35, %acc_55 : tensor<128x128xf32> loc(#loc101)
      %acc_57 = arith.constant 0.000000e+00 : f32 loc(#loc102)
      %acc_58 = tt.dot %acc_53, %v_40, %acc_56, inputPrecision = tf32 : tensor<128x64xf16> * tensor<64x128xf16> -> tensor<128x128xf32> loc(#loc102)
      %l_i_59 = arith.mulf %l_i_34, %alpha_47 : tensor<128xf32> loc(#loc103)
      %l_i_60 = arith.addf %l_i_59, %l_ij : tensor<128xf32> loc(#loc103)
      scf.yield %m_ij_46, %l_i_60, %acc_58 : tensor<128xf32>, tensor<128xf32>, tensor<128x128xf32> loc(#loc17)
    } loc(#loc113)
    %acc_24 = tt.expand_dims %acc_23#1 {axis = 1 : i32} : tensor<128xf32> -> tensor<128x1xf32> loc(#loc104)
    %acc_25 = tt.broadcast %acc_24 : tensor<128x1xf32> -> tensor<128x128xf32> loc(#loc105)
    %acc_26 = arith.divf %acc_23#2, %acc_25 : tensor<128x128xf32> loc(#loc105)
    %6 = arith.truncf %acc_26 : tensor<128x128xf32> to tensor<128x128xf16> loc(#loc39)
    %c0_i32_27 = arith.constant 0 : i32 loc(#loc40)
    tt.descriptor_store %out_desc_14[%qo_offset_2, %c0_i32_27], %6 : !tt.tensordesc<128x128xf16>, tensor<128x128xf16> loc(#loc40)
    %offs_m = arith.constant 128 : i32 loc(#loc106)
    %offs_m_28 = arith.constant 128 : i32 loc(#loc106)
    %offs_m_29 = arith.muli %pid_m, %offs_m_28 : i32 loc(#loc106)
    %offs_m_30 = tt.make_range {end = 128 : i32, start = 0 : i32} : tensor<128xi32> loc(#loc107)
    %offs_m_31 = tt.splat %offs_m_29 : i32 -> tensor<128xi32> loc(#loc106)
    %offs_m_32 = arith.addi %offs_m_31, %offs_m_30 : tensor<128xi32> loc(#loc106)
    %7 = tt.addptr %M_lse, %kv_base : !tt.ptr<f32>, i32 loc(#loc43)
    %8 = tt.splat %7 : !tt.ptr<f32> -> tensor<128x!tt.ptr<f32>> loc(#loc43)
    %9 = tt.addptr %8, %offs_m_32 : tensor<128x!tt.ptr<f32>>, tensor<128xi32> loc(#loc43)
    %10 = math.log2 %acc_23#1 : tensor<128xf32> loc(#loc44)
    %11 = arith.addf %acc_23#0, %10 : tensor<128xf32> loc(#loc45)
    tt.store %9, %11 : tensor<128x!tt.ptr<f32>> loc(#loc46)
    tt.return loc(#loc)
  } loc(#loc)
  tt.func private @"triton.language.standard.zeros____(0, 0)cconstexpr_128__(0, 1)cconstexpr_128__(1,)cconstexpr_fp32_"() -> tensor<128x128xf32> attributes {noinline = false} {
    %cst = arith.constant dense<0.000000e+00> : tensor<128x128xf32> loc(#loc48)
    tt.return %cst : tensor<128x128xf32> loc(#loc49)
  } loc(#loc47)
  tt.func private @"triton.language.standard.max__fp32S128_64S__(1,)cconstexpr_1__(2,)cconstexpr_False__(3,)cconstexpr_True__(4,)cconstexpr_False__(5,)cNone"(%input: tensor<128x64xf32> loc("input"(#loc50))) -> tensor<128xf32> attributes {noinline = false} {
    %0 = "tt.reduce"(%input) <{axis = 1 : i32, reduction_ordering = "unordered"}> ({
    ^bb0(%arg1: f32 loc(unknown), %arg2: f32 loc(unknown)):
      %1 = arith.maxnumf %arg1, %arg2 : f32 loc(#loc109)
      tt.reduce.return %1 : f32 loc(#loc51)
    }) : (tensor<128x64xf32>) -> tensor<128xf32> loc(#loc51)
    tt.return %0 : tensor<128xf32> loc(#loc54)
  } loc(#loc50)
  tt.func private @triton.language.standard._elementwise_max__fp32_fp32__(f32, f32) -> f32 attributes {noinline = false} loc(#loc55)
  tt.func private @"triton.language.standard.sum__fp32S128_64S__(1,)cconstexpr_1__(2,)cconstexpr_False__(3,)cNone_(4,)cNone"(%input: tensor<128x64xf32> loc("input"(#loc56))) -> tensor<128xf32> attributes {noinline = false} {
    %0 = "tt.reduce"(%input) <{axis = 1 : i32, reduction_ordering = "unordered"}> ({
    ^bb0(%arg1: f32 loc(unknown), %arg2: f32 loc(unknown)):
      %1 = arith.addf %arg1, %arg2 : f32 loc(#loc111)
      tt.reduce.return %1 : f32 loc(#loc57)
    }) : (tensor<128x64xf32>) -> tensor<128xf32> loc(#loc57)
    tt.return %0 : tensor<128xf32> loc(#loc59)
  } loc(#loc56)
  tt.func private @triton.language.standard._sum_combine__fp32_fp32__(f32, f32) -> f32 attributes {noinline = false} loc(#loc60)
} loc(#loc)
#loc1 = loc("/projects/kzhou6/hwu27/triton-beta-3-paper-solver-wt/third_party/tlx/tools/sched2tlx/examples/case3_FA_fp16/fa_fwd_nows_fp16.py":28:13)
#loc2 = loc("/projects/kzhou6/hwu27/triton-beta-3-paper-solver-wt/third_party/tlx/tools/sched2tlx/examples/case3_FA_fp16/fa_fwd_nows_fp16.py":29:14)
#loc3 = loc("/projects/kzhou6/hwu27/triton-beta-3-paper-solver-wt/third_party/tlx/tools/sched2tlx/examples/case3_FA_fp16/fa_fwd_nows_fp16.py":30:15)
#loc4 = loc("/projects/kzhou6/hwu27/triton-beta-3-paper-solver-wt/third_party/tlx/tools/sched2tlx/examples/case3_FA_fp16/fa_fwd_nows_fp16.py":31:27)
#loc5 = loc("/projects/kzhou6/hwu27/triton-beta-3-paper-solver-wt/third_party/tlx/tools/sched2tlx/examples/case3_FA_fp16/fa_fwd_nows_fp16.py":31:17)
#loc6 = loc("/projects/kzhou6/hwu27/triton-beta-3-paper-solver-wt/third_party/tlx/tools/sched2tlx/examples/case3_FA_fp16/fa_fwd_nows_fp16.py":32:12)
#loc7 = loc("/projects/kzhou6/hwu27/triton-beta-3-paper-solver-wt/third_party/tlx/tools/sched2tlx/examples/case3_FA_fp16/fa_fwd_nows_fp16.py":33:15)
#loc8 = loc("/projects/kzhou6/hwu27/triton-beta-3-paper-solver-wt/third_party/tlx/tools/sched2tlx/examples/case3_FA_fp16/fa_fwd_nows_fp16.py":35:14)
#loc9 = loc("/projects/kzhou6/hwu27/triton-beta-3-paper-solver-wt/third_party/tlx/tools/sched2tlx/examples/case3_FA_fp16/fa_fwd_nows_fp16.py":37:14)
#loc10 = loc("/projects/kzhou6/hwu27/triton-beta-3-paper-solver-wt/third_party/tlx/tools/sched2tlx/examples/case3_FA_fp16/fa_fwd_nows_fp16.py":39:16)
#loc11 = loc("/projects/kzhou6/hwu27/triton-beta-3-paper-solver-wt/third_party/tlx/tools/sched2tlx/examples/case3_FA_fp16/fa_fwd_nows_fp16.py":41:9)
#loc12 = loc("/projects/kzhou6/hwu27/triton-beta-3-paper-solver-wt/third_party/tlx/tools/sched2tlx/examples/case3_FA_fp16/fa_fwd_nows_fp16.py":42:11)
#loc13 = loc("/projects/kzhou6/hwu27/triton-beta-3-paper-solver-wt/third_party/tlx/tools/sched2tlx/examples/case3_FA_fp16/fa_fwd_nows_fp16.py":43:11)
#loc14 = loc("/projects/kzhou6/hwu27/triton-beta-3-paper-solver-wt/third_party/tlx/tools/sched2tlx/examples/case3_FA_fp16/fa_fwd_nows_fp16.py":44:11)
#loc15 = loc("/projects/kzhou6/hwu27/triton-beta-3-paper-solver-wt/third_party/tlx/tools/sched2tlx/examples/case3_FA_fp16/fa_fwd_nows_fp16.py":45:16)
#loc16 = loc("/projects/kzhou6/hwu27/triton-beta-3-paper-solver-wt/third_party/tlx/tools/sched2tlx/examples/case3_FA_fp16/fa_fwd_nows_fp16.py":46:21)
#loc17 = loc("/projects/kzhou6/hwu27/triton-beta-3-paper-solver-wt/third_party/tlx/tools/sched2tlx/examples/case3_FA_fp16/fa_fwd_nows_fp16.py":46:5)
#loc18 = loc("/projects/kzhou6/hwu27/triton-beta-3-paper-solver-wt/third_party/tlx/tools/sched2tlx/examples/case3_FA_fp16/fa_fwd_nows_fp16.py":47:26)
#loc19 = loc("/projects/kzhou6/hwu27/triton-beta-3-paper-solver-wt/third_party/tlx/tools/sched2tlx/examples/case3_FA_fp16/fa_fwd_nows_fp16.py":47:16)
#loc20 = loc("/projects/kzhou6/hwu27/triton-beta-3-paper-solver-wt/third_party/tlx/tools/sched2tlx/examples/case3_FA_fp16/fa_fwd_nows_fp16.py":48:13)
#loc21 = loc("/projects/kzhou6/hwu27/triton-beta-3-paper-solver-wt/third_party/tlx/tools/sched2tlx/examples/case3_FA_fp16/fa_fwd_nows_fp16.py":49:13)
#loc22 = loc("/projects/kzhou6/hwu27/triton-beta-3-paper-solver-wt/third_party/tlx/tools/sched2tlx/examples/case3_FA_fp16/fa_fwd_nows_fp16.py":50:24)
#loc23 = loc("/projects/kzhou6/hwu27/triton-beta-3-paper-solver-wt/third_party/tlx/tools/sched2tlx/examples/case3_FA_fp16/fa_fwd_nows_fp16.py":50:14)
#loc24 = loc("/projects/kzhou6/hwu27/triton-beta-3-paper-solver-wt/third_party/tlx/tools/sched2tlx/examples/case3_FA_fp16/fa_fwd_nows_fp16.py":51:32)
#loc25 = loc("/projects/kzhou6/hwu27/triton-beta-3-paper-solver-wt/third_party/tlx/tools/sched2tlx/examples/case3_FA_fp16/fa_fwd_nows_fp16.py":51:16)
#loc26 = loc("/projects/kzhou6/hwu27/triton-beta-3-paper-solver-wt/third_party/tlx/tools/sched2tlx/examples/case3_FA_fp16/fa_fwd_nows_fp16.py":52:30)
#loc27 = loc("/projects/kzhou6/hwu27/triton-beta-3-paper-solver-wt/third_party/tlx/tools/sched2tlx/examples/case3_FA_fp16/fa_fwd_nows_fp16.py":52:17)
#loc28 = loc("/projects/kzhou6/hwu27/triton-beta-3-paper-solver-wt/third_party/tlx/tools/sched2tlx/examples/case3_FA_fp16/fa_fwd_nows_fp16.py":53:26)
#loc29 = loc("/projects/kzhou6/hwu27/triton-beta-3-paper-solver-wt/third_party/tlx/tools/sched2tlx/examples/case3_FA_fp16/fa_fwd_nows_fp16.py":53:42)
#loc30 = loc("/projects/kzhou6/hwu27/triton-beta-3-paper-solver-wt/third_party/tlx/tools/sched2tlx/examples/case3_FA_fp16/fa_fwd_nows_fp16.py":53:13)
#loc31 = loc("/projects/kzhou6/hwu27/triton-beta-3-paper-solver-wt/third_party/tlx/tools/sched2tlx/examples/case3_FA_fp16/fa_fwd_nows_fp16.py":54:16)
#loc32 = loc("/projects/kzhou6/hwu27/triton-beta-3-paper-solver-wt/third_party/tlx/tools/sched2tlx/examples/case3_FA_fp16/fa_fwd_nows_fp16.py":55:22)
#loc33 = loc("/projects/kzhou6/hwu27/triton-beta-3-paper-solver-wt/third_party/tlx/tools/sched2tlx/examples/case3_FA_fp16/fa_fwd_nows_fp16.py":55:49)
#loc34 = loc("/projects/kzhou6/hwu27/triton-beta-3-paper-solver-wt/third_party/tlx/tools/sched2tlx/examples/case3_FA_fp16/fa_fwd_nows_fp16.py":55:43)
#loc35 = loc("/projects/kzhou6/hwu27/triton-beta-3-paper-solver-wt/third_party/tlx/tools/sched2tlx/examples/case3_FA_fp16/fa_fwd_nows_fp16.py":55:15)
#loc36 = loc("/projects/kzhou6/hwu27/triton-beta-3-paper-solver-wt/third_party/tlx/tools/sched2tlx/examples/case3_FA_fp16/fa_fwd_nows_fp16.py":56:15)
#loc37 = loc("/projects/kzhou6/hwu27/triton-beta-3-paper-solver-wt/third_party/tlx/tools/sched2tlx/examples/case3_FA_fp16/fa_fwd_nows_fp16.py":58:17)
#loc38 = loc("/projects/kzhou6/hwu27/triton-beta-3-paper-solver-wt/third_party/tlx/tools/sched2tlx/examples/case3_FA_fp16/fa_fwd_nows_fp16.py":58:11)
#loc39 = loc("/projects/kzhou6/hwu27/triton-beta-3-paper-solver-wt/third_party/tlx/tools/sched2tlx/examples/case3_FA_fp16/fa_fwd_nows_fp16.py":59:36)
#loc40 = loc("/projects/kzhou6/hwu27/triton-beta-3-paper-solver-wt/third_party/tlx/tools/sched2tlx/examples/case3_FA_fp16/fa_fwd_nows_fp16.py":59:5)
#loc41 = loc("/projects/kzhou6/hwu27/triton-beta-3-paper-solver-wt/third_party/tlx/tools/sched2tlx/examples/case3_FA_fp16/fa_fwd_nows_fp16.py":60:14)
#loc42 = loc("/projects/kzhou6/hwu27/triton-beta-3-paper-solver-wt/third_party/tlx/tools/sched2tlx/examples/case3_FA_fp16/fa_fwd_nows_fp16.py":60:32)
#loc43 = loc("/projects/kzhou6/hwu27/triton-beta-3-paper-solver-wt/third_party/tlx/tools/sched2tlx/examples/case3_FA_fp16/fa_fwd_nows_fp16.py":61:14)
#loc44 = loc("/projects/kzhou6/hwu27/triton-beta-3-paper-solver-wt/third_party/tlx/tools/sched2tlx/examples/case3_FA_fp16/fa_fwd_nows_fp16.py":61:46)
#loc45 = loc("/projects/kzhou6/hwu27/triton-beta-3-paper-solver-wt/third_party/tlx/tools/sched2tlx/examples/case3_FA_fp16/fa_fwd_nows_fp16.py":61:40)
#loc46 = loc("/projects/kzhou6/hwu27/triton-beta-3-paper-solver-wt/third_party/tlx/tools/sched2tlx/examples/case3_FA_fp16/fa_fwd_nows_fp16.py":61:5)
#loc47 = loc("/projects/kzhou6/hwu27/triton-beta-3-paper-solver-wt/python/triton/language/standard.py":120:1)
#loc48 = loc("/projects/kzhou6/hwu27/triton-beta-3-paper-solver-wt/python/triton/language/standard.py":129:12)
#loc49 = loc("/projects/kzhou6/hwu27/triton-beta-3-paper-solver-wt/python/triton/language/standard.py":129:5)
#loc51 = loc("/projects/kzhou6/hwu27/triton-beta-3-paper-solver-wt/python/triton/language/standard.py":194:16)
#loc53 = loc("/projects/kzhou6/hwu27/triton-beta-3-paper-solver-wt/python/triton/language/standard.py":170:12)
#loc54 = loc("/projects/kzhou6/hwu27/triton-beta-3-paper-solver-wt/python/triton/language/standard.py":194:9)
#loc55 = loc("/projects/kzhou6/hwu27/triton-beta-3-paper-solver-wt/python/triton/language/standard.py":169:1)
#loc57 = loc("/projects/kzhou6/hwu27/triton-beta-3-paper-solver-wt/python/triton/language/standard.py":313:12)
#loc58 = loc("/projects/kzhou6/hwu27/triton-beta-3-paper-solver-wt/python/triton/language/standard.py":273:12)
#loc59 = loc("/projects/kzhou6/hwu27/triton-beta-3-paper-solver-wt/python/triton/language/standard.py":313:5)
#loc60 = loc("/projects/kzhou6/hwu27/triton-beta-3-paper-solver-wt/python/triton/language/standard.py":272:1)
#loc69 = loc("pid_m"(#loc1))
#loc70 = loc("pid_bh"(#loc2))
#loc71 = loc("kv_base"(#loc3))
#loc72 = loc("qo_offset"(#loc4))
#loc73 = loc("qo_offset"(#loc5))
#loc74 = loc("rows"(#loc6))
#loc75 = loc("qo_desc"(#loc7))
#loc76 = loc("k_desc"(#loc8))
#loc77 = loc("v_desc"(#loc9))
#loc78 = loc("out_desc"(#loc10))
#loc79 = loc("q"(#loc11))
#loc80 = loc("m_i"(#loc12))
#loc81 = loc("l_i"(#loc13))
#loc82 = loc("acc"(#loc14))
#loc83 = loc("qk_scale"(#loc15))
#loc84 = loc("m_i"(#loc17))
#loc85 = loc("koff"(#loc18))
#loc86 = loc("koff"(#loc19))
#loc87 = loc("k"(#loc20))
#loc88 = loc("v"(#loc21))
#loc89 = loc("qk"(#loc22))
#loc90 = loc("qk"(#loc23))
#loc91 = loc("m_ij"(#loc24))
#loc92 = loc("m_ij"(#loc25))
#loc93 = loc("alpha"(#loc26))
#loc94 = loc("alpha"(#loc27))
#loc95 = loc("p"(#loc28))
#loc96 = loc("p"(#loc29))
#loc97 = loc("p"(#loc30))
#loc98 = loc("l_ij"(#loc31))
#loc99 = loc("acc"(#loc32))
#loc100 = loc("acc"(#loc33))
#loc101 = loc("acc"(#loc34))
#loc102 = loc("acc"(#loc35))
#loc103 = loc("l_i"(#loc36))
#loc104 = loc("acc"(#loc37))
#loc105 = loc("acc"(#loc38))
#loc106 = loc("offs_m"(#loc41))
#loc107 = loc("offs_m"(#loc42))
#loc109 = loc(callsite(#loc53 at #loc51))
#loc111 = loc(callsite(#loc58 at #loc57))
#loc112 = loc("l_i"(#loc84))
#loc113 = loc("acc"(#loc112))


// -----// IR Dump Before CanonicalizerPass: canonicalize{cse-between-iterations=false    max-iterations=10 max-num-rewrites=-1 region-simplify=normal test-convergence=false top-down=true} ('tt.func' operation: @fa_fwd_kernel_nows) //----- //
#loc = loc("/projects/kzhou6/hwu27/triton-beta-3-paper-solver-wt/third_party/tlx/tools/sched2tlx/examples/case3_FA_fp16/fa_fwd_nows_fp16.py":25:1)
#loc2 = loc(unknown)
#loc27 = loc("/projects/kzhou6/hwu27/triton-beta-3-paper-solver-wt/third_party/tlx/tools/sched2tlx/examples/case3_FA_fp16/fa_fwd_nows_fp16.py":51:32)
#loc36 = loc("/projects/kzhou6/hwu27/triton-beta-3-paper-solver-wt/third_party/tlx/tools/sched2tlx/examples/case3_FA_fp16/fa_fwd_nows_fp16.py":54:16)
#loc58 = loc("Q"(#loc))
#loc59 = loc("K"(#loc))
#loc60 = loc("V"(#loc))
#loc61 = loc("Out"(#loc))
#loc62 = loc("M_lse"(#loc))
#loc63 = loc("sm_scale"(#loc))
#loc64 = loc("H"(#loc))
#loc65 = loc("N_CTX"(#loc))
#loc88 = loc("m_ij"(#loc27))
#loc95 = loc("l_ij"(#loc36))
#loc108 = loc(callsite(#loc2 at #loc88))
#loc110 = loc(callsite(#loc2 at #loc95))
module {
  tt.func public @fa_fwd_kernel_nows(%Q: !tt.ptr<f16> {tt.divisibility = 16 : i32} loc("Q"(#loc)), %K: !tt.ptr<f16> {tt.divisibility = 16 : i32} loc("K"(#loc)), %V: !tt.ptr<f16> {tt.divisibility = 16 : i32} loc("V"(#loc)), %Out: !tt.ptr<f16> {tt.divisibility = 16 : i32} loc("Out"(#loc)), %M_lse: !tt.ptr<f32> {tt.divisibility = 16 : i32} loc("M_lse"(#loc)), %sm_scale: f32 loc("sm_scale"(#loc)), %H: i32 loc("H"(#loc)), %N_CTX: i32 {tt.divisibility = 16 : i32} loc("N_CTX"(#loc))) attributes {noinline = false} {
    %c1_i32 = arith.constant 1 : i32 loc(#loc1)
    %cst = arith.constant dense<0.000000e+00> : tensor<128x64xf32> loc(#loc2)
    %c64_i32 = arith.constant 64 : i32 loc(#loc2)
    %cst_0 = arith.constant 1.44269502 : f32 loc(#loc2)
    %l_i = arith.constant dense<1.000000e+00> : tensor<128xf32> loc(#loc66)
    %m_i = arith.constant dense<0xFF800000> : tensor<128xf32> loc(#loc67)
    %c0_i32 = arith.constant 0 : i32 loc(#loc2)
    %c1_i64 = arith.constant 1 : i64 loc(#loc2)
    %c128_i64 = arith.constant 128 : i64 loc(#loc2)
    %c128_i32 = arith.constant 128 : i32 loc(#loc2)
    %pid_m = tt.get_program_id x : i32 loc(#loc68)
    %pid_bh = tt.get_program_id y : i32 loc(#loc69)
    %kv_base = arith.muli %pid_bh, %N_CTX : i32 loc(#loc70)
    %qo_offset = arith.muli %pid_m, %c128_i32 : i32 loc(#loc71)
    %qo_offset_1 = arith.addi %kv_base, %qo_offset : i32 loc(#loc72)
    %rows = arith.muli %H, %N_CTX : i32 loc(#loc73)
    %qo_desc = tt.make_tensor_descriptor %Q, [%rows, %c128_i32], [%c128_i64, %c1_i64] : !tt.ptr<f16>, !tt.tensordesc<128x128xf16> loc(#loc74)
    %k_desc = tt.make_tensor_descriptor %K, [%rows, %c128_i32], [%c128_i64, %c1_i64] : !tt.ptr<f16>, !tt.tensordesc<64x128xf16> loc(#loc75)
    %v_desc = tt.make_tensor_descriptor %V, [%rows, %c128_i32], [%c128_i64, %c1_i64] : !tt.ptr<f16>, !tt.tensordesc<64x128xf16> loc(#loc76)
    %out_desc = tt.make_tensor_descriptor %Out, [%rows, %c128_i32], [%c128_i64, %c1_i64] : !tt.ptr<f16>, !tt.tensordesc<128x128xf16> loc(#loc77)
    %q = tt.descriptor_load %qo_desc[%qo_offset_1, %c0_i32] : !tt.tensordesc<128x128xf16> -> tensor<128x128xf16> loc(#loc78)
    %acc = arith.constant dense<0.000000e+00> : tensor<128x128xf32> loc(#loc105)
    %qk_scale = arith.mulf %sm_scale, %cst_0 : f32 loc(#loc80)
    %0 = arith.divsi %N_CTX, %c64_i32 : i32 loc(#loc19)
    %acc_2:3 = scf.for %kv = %c0_i32 to %0 step %c1_i32 iter_args(%m_i_9 = %m_i, %l_i_10 = %l_i, %acc_11 = %acc) -> (tensor<128xf32>, tensor<128xf32>, tensor<128x128xf32>)  : i32 {
      %koff = arith.muli %kv, %c64_i32 : i32 loc(#loc82)
      %koff_12 = arith.addi %kv_base, %koff : i32 loc(#loc83)
      %k = tt.descriptor_load %k_desc[%koff_12, %c0_i32] : !tt.tensordesc<64x128xf16> -> tensor<64x128xf16> loc(#loc84)
      %v = tt.descriptor_load %v_desc[%koff_12, %c0_i32] : !tt.tensordesc<64x128xf16> -> tensor<64x128xf16> loc(#loc85)
      %qk = tt.trans %k {order = array<i32: 1, 0>} : tensor<64x128xf16> -> tensor<128x64xf16> loc(#loc86)
      %qk_13 = tt.dot %q, %qk, %cst, inputPrecision = tf32 : tensor<128x128xf16> * tensor<128x64xf16> -> tensor<128x64xf32> loc(#loc87)
      %m_ij = "tt.reduce"(%qk_13) <{axis = 1 : i32, reduction_ordering = "unordered"}> ({
      ^bb0(%m_ij_30: f32 loc(callsite(#loc2 at #loc88)), %m_ij_31: f32 loc(callsite(#loc2 at #loc88))):
        %m_ij_32 = arith.maxnumf %m_ij_30, %m_ij_31 : f32 loc(#loc112)
        tt.reduce.return %m_ij_32 : f32 loc(#loc107)
      }) : (tensor<128x64xf32>) -> tensor<128xf32> loc(#loc107)
      %m_ij_14 = tt.splat %qk_scale : f32 -> tensor<128xf32> loc(#loc88)
      %m_ij_15 = arith.mulf %m_ij, %m_ij_14 : tensor<128xf32> loc(#loc88)
      %m_ij_16 = arith.maxnumf %m_i_9, %m_ij_15 : tensor<128xf32> loc(#loc89)
      %alpha = arith.subf %m_i_9, %m_ij_16 : tensor<128xf32> loc(#loc90)
      %alpha_17 = math.exp2 %alpha : tensor<128xf32> loc(#loc91)
      %p = tt.splat %qk_scale : f32 -> tensor<128x64xf32> loc(#loc92)
      %p_18 = arith.mulf %qk_13, %p : tensor<128x64xf32> loc(#loc92)
      %p_19 = tt.expand_dims %m_ij_16 {axis = 1 : i32} : tensor<128xf32> -> tensor<128x1xf32> loc(#loc93)
      %p_20 = tt.broadcast %p_19 : tensor<128x1xf32> -> tensor<128x64xf32> loc(#loc92)
      %p_21 = arith.subf %p_18, %p_20 : tensor<128x64xf32> loc(#loc92)
      %p_22 = math.exp2 %p_21 : tensor<128x64xf32> loc(#loc94)
      %l_ij = "tt.reduce"(%p_22) <{axis = 1 : i32, reduction_ordering = "unordered"}> ({
      ^bb0(%l_ij_30: f32 loc(callsite(#loc2 at #loc95)), %l_ij_31: f32 loc(callsite(#loc2 at #loc95))):
        %l_ij_32 = arith.addf %l_ij_30, %l_ij_31 : f32 loc(#loc113)
        tt.reduce.return %l_ij_32 : f32 loc(#loc109)
      }) : (tensor<128x64xf32>) -> tensor<128xf32> loc(#loc109)
      %acc_23 = arith.truncf %p_22 : tensor<128x64xf32> to tensor<128x64xf16> loc(#loc96)
      %acc_24 = tt.expand_dims %alpha_17 {axis = 1 : i32} : tensor<128xf32> -> tensor<128x1xf32> loc(#loc97)
      %acc_25 = tt.broadcast %acc_24 : tensor<128x1xf32> -> tensor<128x128xf32> loc(#loc98)
      %acc_26 = arith.mulf %acc_11, %acc_25 : tensor<128x128xf32> loc(#loc98)
      %acc_27 = tt.dot %acc_23, %v, %acc_26, inputPrecision = tf32 : tensor<128x64xf16> * tensor<64x128xf16> -> tensor<128x128xf32> loc(#loc99)
      %l_i_28 = arith.mulf %l_i_10, %alpha_17 : tensor<128xf32> loc(#loc100)
      %l_i_29 = arith.addf %l_i_28, %l_ij : tensor<128xf32> loc(#loc100)
      scf.yield %m_ij_16, %l_i_29, %acc_27 : tensor<128xf32>, tensor<128xf32>, tensor<128x128xf32> loc(#loc1)
    } loc(#loc111)
    %acc_3 = tt.expand_dims %acc_2#1 {axis = 1 : i32} : tensor<128xf32> -> tensor<128x1xf32> loc(#loc101)
    %acc_4 = tt.broadcast %acc_3 : tensor<128x1xf32> -> tensor<128x128xf32> loc(#loc102)
    %acc_5 = arith.divf %acc_2#2, %acc_4 : tensor<128x128xf32> loc(#loc102)
    %1 = arith.truncf %acc_5 : tensor<128x128xf32> to tensor<128x128xf16> loc(#loc45)
    tt.descriptor_store %out_desc[%qo_offset_1, %c0_i32], %1 : !tt.tensordesc<128x128xf16>, tensor<128x128xf16> loc(#loc46)
    %offs_m = arith.muli %pid_m, %c128_i32 : i32 loc(#loc103)
    %offs_m_6 = tt.make_range {end = 128 : i32, start = 0 : i32} : tensor<128xi32> loc(#loc104)
    %offs_m_7 = tt.splat %offs_m : i32 -> tensor<128xi32> loc(#loc103)
    %offs_m_8 = arith.addi %offs_m_7, %offs_m_6 : tensor<128xi32> loc(#loc103)
    %2 = tt.addptr %M_lse, %kv_base : !tt.ptr<f32>, i32 loc(#loc49)
    %3 = tt.splat %2 : !tt.ptr<f32> -> tensor<128x!tt.ptr<f32>> loc(#loc49)
    %4 = tt.addptr %3, %offs_m_8 : tensor<128x!tt.ptr<f32>>, tensor<128xi32> loc(#loc49)
    %5 = math.log2 %acc_2#1 : tensor<128xf32> loc(#loc50)
    %6 = arith.addf %acc_2#0, %5 : tensor<128xf32> loc(#loc51)
    tt.store %4, %6 : tensor<128x!tt.ptr<f32>> loc(#loc52)
    tt.return loc(#loc)
  } loc(#loc)
  tt.func private @"triton.language.standard.zeros____(0, 0)cconstexpr_128__(0, 1)cconstexpr_128__(1,)cconstexpr_fp32_"() -> tensor<128x128xf32> attributes {noinline = false} loc(#loc53)
  tt.func private @"triton.language.standard.max__fp32S128_64S__(1,)cconstexpr_1__(2,)cconstexpr_False__(3,)cconstexpr_True__(4,)cconstexpr_False__(5,)cNone"(tensor<128x64xf32>) -> tensor<128xf32> attributes {noinline = false} loc(#loc54)
  tt.func private @triton.language.standard._elementwise_max__fp32_fp32__(f32, f32) -> f32 attributes {noinline = false} loc(#loc55)
  tt.func private @"triton.language.standard.sum__fp32S128_64S__(1,)cconstexpr_1__(2,)cconstexpr_False__(3,)cNone_(4,)cNone"(tensor<128x64xf32>) -> tensor<128xf32> attributes {noinline = false} loc(#loc56)
  tt.func private @triton.language.standard._sum_combine__fp32_fp32__(f32, f32) -> f32 attributes {noinline = false} loc(#loc57)
} loc(#loc)
#loc1 = loc("/projects/kzhou6/hwu27/triton-beta-3-paper-solver-wt/third_party/tlx/tools/sched2tlx/examples/case3_FA_fp16/fa_fwd_nows_fp16.py":46:5)
#loc3 = loc("/projects/kzhou6/hwu27/triton-beta-3-paper-solver-wt/third_party/tlx/tools/sched2tlx/examples/case3_FA_fp16/fa_fwd_nows_fp16.py":43:11)
#loc4 = loc("/projects/kzhou6/hwu27/triton-beta-3-paper-solver-wt/third_party/tlx/tools/sched2tlx/examples/case3_FA_fp16/fa_fwd_nows_fp16.py":42:11)
#loc5 = loc("/projects/kzhou6/hwu27/triton-beta-3-paper-solver-wt/third_party/tlx/tools/sched2tlx/examples/case3_FA_fp16/fa_fwd_nows_fp16.py":28:13)
#loc6 = loc("/projects/kzhou6/hwu27/triton-beta-3-paper-solver-wt/third_party/tlx/tools/sched2tlx/examples/case3_FA_fp16/fa_fwd_nows_fp16.py":29:14)
#loc7 = loc("/projects/kzhou6/hwu27/triton-beta-3-paper-solver-wt/third_party/tlx/tools/sched2tlx/examples/case3_FA_fp16/fa_fwd_nows_fp16.py":30:15)
#loc8 = loc("/projects/kzhou6/hwu27/triton-beta-3-paper-solver-wt/third_party/tlx/tools/sched2tlx/examples/case3_FA_fp16/fa_fwd_nows_fp16.py":31:27)
#loc9 = loc("/projects/kzhou6/hwu27/triton-beta-3-paper-solver-wt/third_party/tlx/tools/sched2tlx/examples/case3_FA_fp16/fa_fwd_nows_fp16.py":31:17)
#loc10 = loc("/projects/kzhou6/hwu27/triton-beta-3-paper-solver-wt/third_party/tlx/tools/sched2tlx/examples/case3_FA_fp16/fa_fwd_nows_fp16.py":32:12)
#loc11 = loc("/projects/kzhou6/hwu27/triton-beta-3-paper-solver-wt/third_party/tlx/tools/sched2tlx/examples/case3_FA_fp16/fa_fwd_nows_fp16.py":33:15)
#loc12 = loc("/projects/kzhou6/hwu27/triton-beta-3-paper-solver-wt/third_party/tlx/tools/sched2tlx/examples/case3_FA_fp16/fa_fwd_nows_fp16.py":35:14)
#loc13 = loc("/projects/kzhou6/hwu27/triton-beta-3-paper-solver-wt/third_party/tlx/tools/sched2tlx/examples/case3_FA_fp16/fa_fwd_nows_fp16.py":37:14)
#loc14 = loc("/projects/kzhou6/hwu27/triton-beta-3-paper-solver-wt/third_party/tlx/tools/sched2tlx/examples/case3_FA_fp16/fa_fwd_nows_fp16.py":39:16)
#loc15 = loc("/projects/kzhou6/hwu27/triton-beta-3-paper-solver-wt/third_party/tlx/tools/sched2tlx/examples/case3_FA_fp16/fa_fwd_nows_fp16.py":41:9)
#loc16 = loc("/projects/kzhou6/hwu27/triton-beta-3-paper-solver-wt/python/triton/language/standard.py":129:12)
#loc17 = loc("/projects/kzhou6/hwu27/triton-beta-3-paper-solver-wt/third_party/tlx/tools/sched2tlx/examples/case3_FA_fp16/fa_fwd_nows_fp16.py":44:11)
#loc18 = loc("/projects/kzhou6/hwu27/triton-beta-3-paper-solver-wt/third_party/tlx/tools/sched2tlx/examples/case3_FA_fp16/fa_fwd_nows_fp16.py":45:16)
#loc19 = loc("/projects/kzhou6/hwu27/triton-beta-3-paper-solver-wt/third_party/tlx/tools/sched2tlx/examples/case3_FA_fp16/fa_fwd_nows_fp16.py":46:21)
#loc20 = loc("/projects/kzhou6/hwu27/triton-beta-3-paper-solver-wt/third_party/tlx/tools/sched2tlx/examples/case3_FA_fp16/fa_fwd_nows_fp16.py":47:26)
#loc21 = loc("/projects/kzhou6/hwu27/triton-beta-3-paper-solver-wt/third_party/tlx/tools/sched2tlx/examples/case3_FA_fp16/fa_fwd_nows_fp16.py":47:16)
#loc22 = loc("/projects/kzhou6/hwu27/triton-beta-3-paper-solver-wt/third_party/tlx/tools/sched2tlx/examples/case3_FA_fp16/fa_fwd_nows_fp16.py":48:13)
#loc23 = loc("/projects/kzhou6/hwu27/triton-beta-3-paper-solver-wt/third_party/tlx/tools/sched2tlx/examples/case3_FA_fp16/fa_fwd_nows_fp16.py":49:13)
#loc24 = loc("/projects/kzhou6/hwu27/triton-beta-3-paper-solver-wt/third_party/tlx/tools/sched2tlx/examples/case3_FA_fp16/fa_fwd_nows_fp16.py":50:24)
#loc25 = loc("/projects/kzhou6/hwu27/triton-beta-3-paper-solver-wt/third_party/tlx/tools/sched2tlx/examples/case3_FA_fp16/fa_fwd_nows_fp16.py":50:14)
#loc26 = loc("/projects/kzhou6/hwu27/triton-beta-3-paper-solver-wt/python/triton/language/standard.py":194:16)
#loc28 = loc("/projects/kzhou6/hwu27/triton-beta-3-paper-solver-wt/python/triton/language/standard.py":170:12)
#loc29 = loc("/projects/kzhou6/hwu27/triton-beta-3-paper-solver-wt/third_party/tlx/tools/sched2tlx/examples/case3_FA_fp16/fa_fwd_nows_fp16.py":51:16)
#loc30 = loc("/projects/kzhou6/hwu27/triton-beta-3-paper-solver-wt/third_party/tlx/tools/sched2tlx/examples/case3_FA_fp16/fa_fwd_nows_fp16.py":52:30)
#loc31 = loc("/projects/kzhou6/hwu27/triton-beta-3-paper-solver-wt/third_party/tlx/tools/sched2tlx/examples/case3_FA_fp16/fa_fwd_nows_fp16.py":52:17)
#loc32 = loc("/projects/kzhou6/hwu27/triton-beta-3-paper-solver-wt/third_party/tlx/tools/sched2tlx/examples/case3_FA_fp16/fa_fwd_nows_fp16.py":53:26)
#loc33 = loc("/projects/kzhou6/hwu27/triton-beta-3-paper-solver-wt/third_party/tlx/tools/sched2tlx/examples/case3_FA_fp16/fa_fwd_nows_fp16.py":53:42)
#loc34 = loc("/projects/kzhou6/hwu27/triton-beta-3-paper-solver-wt/third_party/tlx/tools/sched2tlx/examples/case3_FA_fp16/fa_fwd_nows_fp16.py":53:13)
#loc35 = loc("/projects/kzhou6/hwu27/triton-beta-3-paper-solver-wt/python/triton/language/standard.py":313:12)
#loc37 = loc("/projects/kzhou6/hwu27/triton-beta-3-paper-solver-wt/python/triton/language/standard.py":273:12)
#loc38 = loc("/projects/kzhou6/hwu27/triton-beta-3-paper-solver-wt/third_party/tlx/tools/sched2tlx/examples/case3_FA_fp16/fa_fwd_nows_fp16.py":55:22)
#loc39 = loc("/projects/kzhou6/hwu27/triton-beta-3-paper-solver-wt/third_party/tlx/tools/sched2tlx/examples/case3_FA_fp16/fa_fwd_nows_fp16.py":55:49)
#loc40 = loc("/projects/kzhou6/hwu27/triton-beta-3-paper-solver-wt/third_party/tlx/tools/sched2tlx/examples/case3_FA_fp16/fa_fwd_nows_fp16.py":55:43)
#loc41 = loc("/projects/kzhou6/hwu27/triton-beta-3-paper-solver-wt/third_party/tlx/tools/sched2tlx/examples/case3_FA_fp16/fa_fwd_nows_fp16.py":55:15)
#loc42 = loc("/projects/kzhou6/hwu27/triton-beta-3-paper-solver-wt/third_party/tlx/tools/sched2tlx/examples/case3_FA_fp16/fa_fwd_nows_fp16.py":56:15)
#loc43 = loc("/projects/kzhou6/hwu27/triton-beta-3-paper-solver-wt/third_party/tlx/tools/sched2tlx/examples/case3_FA_fp16/fa_fwd_nows_fp16.py":58:17)
#loc44 = loc("/projects/kzhou6/hwu27/triton-beta-3-paper-solver-wt/third_party/tlx/tools/sched2tlx/examples/case3_FA_fp16/fa_fwd_nows_fp16.py":58:11)
#loc45 = loc("/projects/kzhou6/hwu27/triton-beta-3-paper-solver-wt/third_party/tlx/tools/sched2tlx/examples/case3_FA_fp16/fa_fwd_nows_fp16.py":59:36)
#loc46 = loc("/projects/kzhou6/hwu27/triton-beta-3-paper-solver-wt/third_party/tlx/tools/sched2tlx/examples/case3_FA_fp16/fa_fwd_nows_fp16.py":59:5)
#loc47 = loc("/projects/kzhou6/hwu27/triton-beta-3-paper-solver-wt/third_party/tlx/tools/sched2tlx/examples/case3_FA_fp16/fa_fwd_nows_fp16.py":60:14)
#loc48 = loc("/projects/kzhou6/hwu27/triton-beta-3-paper-solver-wt/third_party/tlx/tools/sched2tlx/examples/case3_FA_fp16/fa_fwd_nows_fp16.py":60:32)
#loc49 = loc("/projects/kzhou6/hwu27/triton-beta-3-paper-solver-wt/third_party/tlx/tools/sched2tlx/examples/case3_FA_fp16/fa_fwd_nows_fp16.py":61:14)
#loc50 = loc("/projects/kzhou6/hwu27/triton-beta-3-paper-solver-wt/third_party/tlx/tools/sched2tlx/examples/case3_FA_fp16/fa_fwd_nows_fp16.py":61:46)
#loc51 = loc("/projects/kzhou6/hwu27/triton-beta-3-paper-solver-wt/third_party/tlx/tools/sched2tlx/examples/case3_FA_fp16/fa_fwd_nows_fp16.py":61:40)
#loc52 = loc("/projects/kzhou6/hwu27/triton-beta-3-paper-solver-wt/third_party/tlx/tools/sched2tlx/examples/case3_FA_fp16/fa_fwd_nows_fp16.py":61:5)
#loc53 = loc("/projects/kzhou6/hwu27/triton-beta-3-paper-solver-wt/python/triton/language/standard.py":120:1)
#loc54 = loc("/projects/kzhou6/hwu27/triton-beta-3-paper-solver-wt/python/triton/language/standard.py":177:1)
#loc55 = loc("/projects/kzhou6/hwu27/triton-beta-3-paper-solver-wt/python/triton/language/standard.py":169:1)
#loc56 = loc("/projects/kzhou6/hwu27/triton-beta-3-paper-solver-wt/python/triton/language/standard.py":297:1)
#loc57 = loc("/projects/kzhou6/hwu27/triton-beta-3-paper-solver-wt/python/triton/language/standard.py":272:1)
#loc66 = loc("l_i"(#loc3))
#loc67 = loc("m_i"(#loc4))
#loc68 = loc("pid_m"(#loc5))
#loc69 = loc("pid_bh"(#loc6))
#loc70 = loc("kv_base"(#loc7))
#loc71 = loc("qo_offset"(#loc8))
#loc72 = loc("qo_offset"(#loc9))
#loc73 = loc("rows"(#loc10))
#loc74 = loc("qo_desc"(#loc11))
#loc75 = loc("k_desc"(#loc12))
#loc76 = loc("v_desc"(#loc13))
#loc77 = loc("out_desc"(#loc14))
#loc78 = loc("q"(#loc15))
#loc79 = loc("acc"(#loc17))
#loc80 = loc("qk_scale"(#loc18))
#loc81 = loc("m_i"(#loc1))
#loc82 = loc("koff"(#loc20))
#loc83 = loc("koff"(#loc21))
#loc84 = loc("k"(#loc22))
#loc85 = loc("v"(#loc23))
#loc86 = loc("qk"(#loc24))
#loc87 = loc("qk"(#loc25))
#loc89 = loc("m_ij"(#loc29))
#loc90 = loc("alpha"(#loc30))
#loc91 = loc("alpha"(#loc31))
#loc92 = loc("p"(#loc32))
#loc93 = loc("p"(#loc33))
#loc94 = loc("p"(#loc34))
#loc96 = loc("acc"(#loc38))
#loc97 = loc("acc"(#loc39))
#loc98 = loc("acc"(#loc40))
#loc99 = loc("acc"(#loc41))
#loc100 = loc("l_i"(#loc42))
#loc101 = loc("acc"(#loc43))
#loc102 = loc("acc"(#loc44))
#loc103 = loc("offs_m"(#loc47))
#loc104 = loc("offs_m"(#loc48))
#loc105 = loc(callsite(#loc16 at #loc79))
#loc106 = loc("l_i"(#loc81))
#loc107 = loc(callsite(#loc26 at #loc88))
#loc109 = loc(callsite(#loc35 at #loc95))
#loc111 = loc("acc"(#loc106))
#loc112 = loc(callsite(#loc28 at #loc107))
#loc113 = loc(callsite(#loc37 at #loc109))


// -----// IR Dump Before CanonicalizerPass: canonicalize{cse-between-iterations=false    max-iterations=10 max-num-rewrites=-1 region-simplify=normal test-convergence=false top-down=true} ('builtin.module' operation) //----- //
#loc = loc("/projects/kzhou6/hwu27/triton-beta-3-paper-solver-wt/third_party/tlx/tools/sched2tlx/examples/case3_FA_fp16/fa_fwd_nows_fp16.py":25:1)
#loc4 = loc(unknown)
#loc27 = loc("/projects/kzhou6/hwu27/triton-beta-3-paper-solver-wt/third_party/tlx/tools/sched2tlx/examples/case3_FA_fp16/fa_fwd_nows_fp16.py":51:32)
#loc36 = loc("/projects/kzhou6/hwu27/triton-beta-3-paper-solver-wt/third_party/tlx/tools/sched2tlx/examples/case3_FA_fp16/fa_fwd_nows_fp16.py":54:16)
#loc53 = loc("Q"(#loc))
#loc54 = loc("K"(#loc))
#loc55 = loc("V"(#loc))
#loc56 = loc("Out"(#loc))
#loc57 = loc("M_lse"(#loc))
#loc58 = loc("sm_scale"(#loc))
#loc59 = loc("H"(#loc))
#loc60 = loc("N_CTX"(#loc))
#loc83 = loc("m_ij"(#loc27))
#loc90 = loc("l_ij"(#loc36))
#loc103 = loc(callsite(#loc4 at #loc83))
#loc105 = loc(callsite(#loc4 at #loc90))
module {
  tt.func public @fa_fwd_kernel_nows(%Q: !tt.ptr<f16> {tt.divisibility = 16 : i32} loc("Q"(#loc)), %K: !tt.ptr<f16> {tt.divisibility = 16 : i32} loc("K"(#loc)), %V: !tt.ptr<f16> {tt.divisibility = 16 : i32} loc("V"(#loc)), %Out: !tt.ptr<f16> {tt.divisibility = 16 : i32} loc("Out"(#loc)), %M_lse: !tt.ptr<f32> {tt.divisibility = 16 : i32} loc("M_lse"(#loc)), %sm_scale: f32 loc("sm_scale"(#loc)), %H: i32 loc("H"(#loc)), %N_CTX: i32 {tt.divisibility = 16 : i32} loc("N_CTX"(#loc))) attributes {noinline = false} {
    %acc = arith.constant dense<0.000000e+00> : tensor<128x128xf32> loc(#loc100)
    %c1_i32 = arith.constant 1 : i32 loc(#loc3)
    %cst = arith.constant dense<0.000000e+00> : tensor<128x64xf32> loc(#loc4)
    %c64_i32 = arith.constant 64 : i32 loc(#loc4)
    %cst_0 = arith.constant 1.44269502 : f32 loc(#loc4)
    %l_i = arith.constant dense<1.000000e+00> : tensor<128xf32> loc(#loc62)
    %m_i = arith.constant dense<0xFF800000> : tensor<128xf32> loc(#loc63)
    %c0_i32 = arith.constant 0 : i32 loc(#loc4)
    %c1_i64 = arith.constant 1 : i64 loc(#loc4)
    %c128_i64 = arith.constant 128 : i64 loc(#loc4)
    %c128_i32 = arith.constant 128 : i32 loc(#loc4)
    %pid_m = tt.get_program_id x : i32 loc(#loc64)
    %pid_bh = tt.get_program_id y : i32 loc(#loc65)
    %kv_base = arith.muli %pid_bh, %N_CTX : i32 loc(#loc66)
    %qo_offset = arith.muli %pid_m, %c128_i32 : i32 loc(#loc67)
    %qo_offset_1 = arith.addi %kv_base, %qo_offset : i32 loc(#loc68)
    %rows = arith.muli %H, %N_CTX : i32 loc(#loc69)
    %qo_desc = tt.make_tensor_descriptor %Q, [%rows, %c128_i32], [%c128_i64, %c1_i64] : !tt.ptr<f16>, !tt.tensordesc<128x128xf16> loc(#loc70)
    %k_desc = tt.make_tensor_descriptor %K, [%rows, %c128_i32], [%c128_i64, %c1_i64] : !tt.ptr<f16>, !tt.tensordesc<64x128xf16> loc(#loc71)
    %v_desc = tt.make_tensor_descriptor %V, [%rows, %c128_i32], [%c128_i64, %c1_i64] : !tt.ptr<f16>, !tt.tensordesc<64x128xf16> loc(#loc72)
    %out_desc = tt.make_tensor_descriptor %Out, [%rows, %c128_i32], [%c128_i64, %c1_i64] : !tt.ptr<f16>, !tt.tensordesc<128x128xf16> loc(#loc73)
    %q = tt.descriptor_load %qo_desc[%qo_offset_1, %c0_i32] : !tt.tensordesc<128x128xf16> -> tensor<128x128xf16> loc(#loc74)
    %qk_scale = arith.mulf %sm_scale, %cst_0 : f32 loc(#loc75)
    %0 = arith.divsi %N_CTX, %c64_i32 : i32 loc(#loc19)
    %acc_2:3 = scf.for %kv = %c0_i32 to %0 step %c1_i32 iter_args(%m_i_9 = %m_i, %l_i_10 = %l_i, %acc_11 = %acc) -> (tensor<128xf32>, tensor<128xf32>, tensor<128x128xf32>)  : i32 {
      %koff = arith.muli %kv, %c64_i32 : i32 loc(#loc77)
      %koff_12 = arith.addi %kv_base, %koff : i32 loc(#loc78)
      %k = tt.descriptor_load %k_desc[%koff_12, %c0_i32] : !tt.tensordesc<64x128xf16> -> tensor<64x128xf16> loc(#loc79)
      %v = tt.descriptor_load %v_desc[%koff_12, %c0_i32] : !tt.tensordesc<64x128xf16> -> tensor<64x128xf16> loc(#loc80)
      %qk = tt.trans %k {order = array<i32: 1, 0>} : tensor<64x128xf16> -> tensor<128x64xf16> loc(#loc81)
      %qk_13 = tt.dot %q, %qk, %cst, inputPrecision = tf32 : tensor<128x128xf16> * tensor<128x64xf16> -> tensor<128x64xf32> loc(#loc82)
      %m_ij = "tt.reduce"(%qk_13) <{axis = 1 : i32, reduction_ordering = "unordered"}> ({
      ^bb0(%m_ij_30: f32 loc(callsite(#loc4 at #loc83)), %m_ij_31: f32 loc(callsite(#loc4 at #loc83))):
        %m_ij_32 = arith.maxnumf %m_ij_30, %m_ij_31 : f32 loc(#loc107)
        tt.reduce.return %m_ij_32 : f32 loc(#loc102)
      }) : (tensor<128x64xf32>) -> tensor<128xf32> loc(#loc102)
      %m_ij_14 = tt.splat %qk_scale : f32 -> tensor<128xf32> loc(#loc83)
      %m_ij_15 = arith.mulf %m_ij, %m_ij_14 : tensor<128xf32> loc(#loc83)
      %m_ij_16 = arith.maxnumf %m_i_9, %m_ij_15 : tensor<128xf32> loc(#loc84)
      %alpha = arith.subf %m_i_9, %m_ij_16 : tensor<128xf32> loc(#loc85)
      %alpha_17 = math.exp2 %alpha : tensor<128xf32> loc(#loc86)
      %p = tt.splat %qk_scale : f32 -> tensor<128x64xf32> loc(#loc87)
      %p_18 = arith.mulf %qk_13, %p : tensor<128x64xf32> loc(#loc87)
      %p_19 = tt.expand_dims %m_ij_16 {axis = 1 : i32} : tensor<128xf32> -> tensor<128x1xf32> loc(#loc88)
      %p_20 = tt.broadcast %p_19 : tensor<128x1xf32> -> tensor<128x64xf32> loc(#loc87)
      %p_21 = arith.subf %p_18, %p_20 : tensor<128x64xf32> loc(#loc87)
      %p_22 = math.exp2 %p_21 : tensor<128x64xf32> loc(#loc89)
      %l_ij = "tt.reduce"(%p_22) <{axis = 1 : i32, reduction_ordering = "unordered"}> ({
      ^bb0(%l_ij_30: f32 loc(callsite(#loc4 at #loc90)), %l_ij_31: f32 loc(callsite(#loc4 at #loc90))):
        %l_ij_32 = arith.addf %l_ij_30, %l_ij_31 : f32 loc(#loc108)
        tt.reduce.return %l_ij_32 : f32 loc(#loc104)
      }) : (tensor<128x64xf32>) -> tensor<128xf32> loc(#loc104)
      %acc_23 = arith.truncf %p_22 : tensor<128x64xf32> to tensor<128x64xf16> loc(#loc91)
      %acc_24 = tt.expand_dims %alpha_17 {axis = 1 : i32} : tensor<128xf32> -> tensor<128x1xf32> loc(#loc92)
      %acc_25 = tt.broadcast %acc_24 : tensor<128x1xf32> -> tensor<128x128xf32> loc(#loc93)
      %acc_26 = arith.mulf %acc_11, %acc_25 : tensor<128x128xf32> loc(#loc93)
      %acc_27 = tt.dot %acc_23, %v, %acc_26, inputPrecision = tf32 : tensor<128x64xf16> * tensor<64x128xf16> -> tensor<128x128xf32> loc(#loc94)
      %l_i_28 = arith.mulf %l_i_10, %alpha_17 : tensor<128xf32> loc(#loc95)
      %l_i_29 = arith.addf %l_i_28, %l_ij : tensor<128xf32> loc(#loc95)
      scf.yield %m_ij_16, %l_i_29, %acc_27 : tensor<128xf32>, tensor<128xf32>, tensor<128x128xf32> loc(#loc3)
    } loc(#loc106)
    %acc_3 = tt.expand_dims %acc_2#1 {axis = 1 : i32} : tensor<128xf32> -> tensor<128x1xf32> loc(#loc96)
    %acc_4 = tt.broadcast %acc_3 : tensor<128x1xf32> -> tensor<128x128xf32> loc(#loc97)
    %acc_5 = arith.divf %acc_2#2, %acc_4 : tensor<128x128xf32> loc(#loc97)
    %1 = arith.truncf %acc_5 : tensor<128x128xf32> to tensor<128x128xf16> loc(#loc45)
    tt.descriptor_store %out_desc[%qo_offset_1, %c0_i32], %1 : !tt.tensordesc<128x128xf16>, tensor<128x128xf16> loc(#loc46)
    %offs_m = arith.muli %pid_m, %c128_i32 : i32 loc(#loc98)
    %offs_m_6 = tt.make_range {end = 128 : i32, start = 0 : i32} : tensor<128xi32> loc(#loc99)
    %offs_m_7 = tt.splat %offs_m : i32 -> tensor<128xi32> loc(#loc98)
    %offs_m_8 = arith.addi %offs_m_7, %offs_m_6 : tensor<128xi32> loc(#loc98)
    %2 = tt.addptr %M_lse, %kv_base : !tt.ptr<f32>, i32 loc(#loc49)
    %3 = tt.splat %2 : !tt.ptr<f32> -> tensor<128x!tt.ptr<f32>> loc(#loc49)
    %4 = tt.addptr %3, %offs_m_8 : tensor<128x!tt.ptr<f32>>, tensor<128xi32> loc(#loc49)
    %5 = math.log2 %acc_2#1 : tensor<128xf32> loc(#loc50)
    %6 = arith.addf %acc_2#0, %5 : tensor<128xf32> loc(#loc51)
    tt.store %4, %6 : tensor<128x!tt.ptr<f32>> loc(#loc52)
    tt.return loc(#loc)
  } loc(#loc)
} loc(#loc)
#loc1 = loc("/projects/kzhou6/hwu27/triton-beta-3-paper-solver-wt/python/triton/language/standard.py":129:12)
#loc2 = loc("/projects/kzhou6/hwu27/triton-beta-3-paper-solver-wt/third_party/tlx/tools/sched2tlx/examples/case3_FA_fp16/fa_fwd_nows_fp16.py":44:11)
#loc3 = loc("/projects/kzhou6/hwu27/triton-beta-3-paper-solver-wt/third_party/tlx/tools/sched2tlx/examples/case3_FA_fp16/fa_fwd_nows_fp16.py":46:5)
#loc5 = loc("/projects/kzhou6/hwu27/triton-beta-3-paper-solver-wt/third_party/tlx/tools/sched2tlx/examples/case3_FA_fp16/fa_fwd_nows_fp16.py":43:11)
#loc6 = loc("/projects/kzhou6/hwu27/triton-beta-3-paper-solver-wt/third_party/tlx/tools/sched2tlx/examples/case3_FA_fp16/fa_fwd_nows_fp16.py":42:11)
#loc7 = loc("/projects/kzhou6/hwu27/triton-beta-3-paper-solver-wt/third_party/tlx/tools/sched2tlx/examples/case3_FA_fp16/fa_fwd_nows_fp16.py":28:13)
#loc8 = loc("/projects/kzhou6/hwu27/triton-beta-3-paper-solver-wt/third_party/tlx/tools/sched2tlx/examples/case3_FA_fp16/fa_fwd_nows_fp16.py":29:14)
#loc9 = loc("/projects/kzhou6/hwu27/triton-beta-3-paper-solver-wt/third_party/tlx/tools/sched2tlx/examples/case3_FA_fp16/fa_fwd_nows_fp16.py":30:15)
#loc10 = loc("/projects/kzhou6/hwu27/triton-beta-3-paper-solver-wt/third_party/tlx/tools/sched2tlx/examples/case3_FA_fp16/fa_fwd_nows_fp16.py":31:27)
#loc11 = loc("/projects/kzhou6/hwu27/triton-beta-3-paper-solver-wt/third_party/tlx/tools/sched2tlx/examples/case3_FA_fp16/fa_fwd_nows_fp16.py":31:17)
#loc12 = loc("/projects/kzhou6/hwu27/triton-beta-3-paper-solver-wt/third_party/tlx/tools/sched2tlx/examples/case3_FA_fp16/fa_fwd_nows_fp16.py":32:12)
#loc13 = loc("/projects/kzhou6/hwu27/triton-beta-3-paper-solver-wt/third_party/tlx/tools/sched2tlx/examples/case3_FA_fp16/fa_fwd_nows_fp16.py":33:15)
#loc14 = loc("/projects/kzhou6/hwu27/triton-beta-3-paper-solver-wt/third_party/tlx/tools/sched2tlx/examples/case3_FA_fp16/fa_fwd_nows_fp16.py":35:14)
#loc15 = loc("/projects/kzhou6/hwu27/triton-beta-3-paper-solver-wt/third_party/tlx/tools/sched2tlx/examples/case3_FA_fp16/fa_fwd_nows_fp16.py":37:14)
#loc16 = loc("/projects/kzhou6/hwu27/triton-beta-3-paper-solver-wt/third_party/tlx/tools/sched2tlx/examples/case3_FA_fp16/fa_fwd_nows_fp16.py":39:16)
#loc17 = loc("/projects/kzhou6/hwu27/triton-beta-3-paper-solver-wt/third_party/tlx/tools/sched2tlx/examples/case3_FA_fp16/fa_fwd_nows_fp16.py":41:9)
#loc18 = loc("/projects/kzhou6/hwu27/triton-beta-3-paper-solver-wt/third_party/tlx/tools/sched2tlx/examples/case3_FA_fp16/fa_fwd_nows_fp16.py":45:16)
#loc19 = loc("/projects/kzhou6/hwu27/triton-beta-3-paper-solver-wt/third_party/tlx/tools/sched2tlx/examples/case3_FA_fp16/fa_fwd_nows_fp16.py":46:21)
#loc20 = loc("/projects/kzhou6/hwu27/triton-beta-3-paper-solver-wt/third_party/tlx/tools/sched2tlx/examples/case3_FA_fp16/fa_fwd_nows_fp16.py":47:26)
#loc21 = loc("/projects/kzhou6/hwu27/triton-beta-3-paper-solver-wt/third_party/tlx/tools/sched2tlx/examples/case3_FA_fp16/fa_fwd_nows_fp16.py":47:16)
#loc22 = loc("/projects/kzhou6/hwu27/triton-beta-3-paper-solver-wt/third_party/tlx/tools/sched2tlx/examples/case3_FA_fp16/fa_fwd_nows_fp16.py":48:13)
#loc23 = loc("/projects/kzhou6/hwu27/triton-beta-3-paper-solver-wt/third_party/tlx/tools/sched2tlx/examples/case3_FA_fp16/fa_fwd_nows_fp16.py":49:13)
#loc24 = loc("/projects/kzhou6/hwu27/triton-beta-3-paper-solver-wt/third_party/tlx/tools/sched2tlx/examples/case3_FA_fp16/fa_fwd_nows_fp16.py":50:24)
#loc25 = loc("/projects/kzhou6/hwu27/triton-beta-3-paper-solver-wt/third_party/tlx/tools/sched2tlx/examples/case3_FA_fp16/fa_fwd_nows_fp16.py":50:14)
#loc26 = loc("/projects/kzhou6/hwu27/triton-beta-3-paper-solver-wt/python/triton/language/standard.py":194:16)
#loc28 = loc("/projects/kzhou6/hwu27/triton-beta-3-paper-solver-wt/python/triton/language/standard.py":170:12)
#loc29 = loc("/projects/kzhou6/hwu27/triton-beta-3-paper-solver-wt/third_party/tlx/tools/sched2tlx/examples/case3_FA_fp16/fa_fwd_nows_fp16.py":51:16)
#loc30 = loc("/projects/kzhou6/hwu27/triton-beta-3-paper-solver-wt/third_party/tlx/tools/sched2tlx/examples/case3_FA_fp16/fa_fwd_nows_fp16.py":52:30)
#loc31 = loc("/projects/kzhou6/hwu27/triton-beta-3-paper-solver-wt/third_party/tlx/tools/sched2tlx/examples/case3_FA_fp16/fa_fwd_nows_fp16.py":52:17)
#loc32 = loc("/projects/kzhou6/hwu27/triton-beta-3-paper-solver-wt/third_party/tlx/tools/sched2tlx/examples/case3_FA_fp16/fa_fwd_nows_fp16.py":53:26)
#loc33 = loc("/projects/kzhou6/hwu27/triton-beta-3-paper-solver-wt/third_party/tlx/tools/sched2tlx/examples/case3_FA_fp16/fa_fwd_nows_fp16.py":53:42)
#loc34 = loc("/projects/kzhou6/hwu27/triton-beta-3-paper-solver-wt/third_party/tlx/tools/sched2tlx/examples/case3_FA_fp16/fa_fwd_nows_fp16.py":53:13)
#loc35 = loc("/projects/kzhou6/hwu27/triton-beta-3-paper-solver-wt/python/triton/language/standard.py":313:12)
#loc37 = loc("/projects/kzhou6/hwu27/triton-beta-3-paper-solver-wt/python/triton/language/standard.py":273:12)
#loc38 = loc("/projects/kzhou6/hwu27/triton-beta-3-paper-solver-wt/third_party/tlx/tools/sched2tlx/examples/case3_FA_fp16/fa_fwd_nows_fp16.py":55:22)
#loc39 = loc("/projects/kzhou6/hwu27/triton-beta-3-paper-solver-wt/third_party/tlx/tools/sched2tlx/examples/case3_FA_fp16/fa_fwd_nows_fp16.py":55:49)
#loc40 = loc("/projects/kzhou6/hwu27/triton-beta-3-paper-solver-wt/third_party/tlx/tools/sched2tlx/examples/case3_FA_fp16/fa_fwd_nows_fp16.py":55:43)
#loc41 = loc("/projects/kzhou6/hwu27/triton-beta-3-paper-solver-wt/third_party/tlx/tools/sched2tlx/examples/case3_FA_fp16/fa_fwd_nows_fp16.py":55:15)
#loc42 = loc("/projects/kzhou6/hwu27/triton-beta-3-paper-solver-wt/third_party/tlx/tools/sched2tlx/examples/case3_FA_fp16/fa_fwd_nows_fp16.py":56:15)
#loc43 = loc("/projects/kzhou6/hwu27/triton-beta-3-paper-solver-wt/third_party/tlx/tools/sched2tlx/examples/case3_FA_fp16/fa_fwd_nows_fp16.py":58:17)
#loc44 = loc("/projects/kzhou6/hwu27/triton-beta-3-paper-solver-wt/third_party/tlx/tools/sched2tlx/examples/case3_FA_fp16/fa_fwd_nows_fp16.py":58:11)
#loc45 = loc("/projects/kzhou6/hwu27/triton-beta-3-paper-solver-wt/third_party/tlx/tools/sched2tlx/examples/case3_FA_fp16/fa_fwd_nows_fp16.py":59:36)
#loc46 = loc("/projects/kzhou6/hwu27/triton-beta-3-paper-solver-wt/third_party/tlx/tools/sched2tlx/examples/case3_FA_fp16/fa_fwd_nows_fp16.py":59:5)
#loc47 = loc("/projects/kzhou6/hwu27/triton-beta-3-paper-solver-wt/third_party/tlx/tools/sched2tlx/examples/case3_FA_fp16/fa_fwd_nows_fp16.py":60:14)
#loc48 = loc("/projects/kzhou6/hwu27/triton-beta-3-paper-solver-wt/third_party/tlx/tools/sched2tlx/examples/case3_FA_fp16/fa_fwd_nows_fp16.py":60:32)
#loc49 = loc("/projects/kzhou6/hwu27/triton-beta-3-paper-solver-wt/third_party/tlx/tools/sched2tlx/examples/case3_FA_fp16/fa_fwd_nows_fp16.py":61:14)
#loc50 = loc("/projects/kzhou6/hwu27/triton-beta-3-paper-solver-wt/third_party/tlx/tools/sched2tlx/examples/case3_FA_fp16/fa_fwd_nows_fp16.py":61:46)
#loc51 = loc("/projects/kzhou6/hwu27/triton-beta-3-paper-solver-wt/third_party/tlx/tools/sched2tlx/examples/case3_FA_fp16/fa_fwd_nows_fp16.py":61:40)
#loc52 = loc("/projects/kzhou6/hwu27/triton-beta-3-paper-solver-wt/third_party/tlx/tools/sched2tlx/examples/case3_FA_fp16/fa_fwd_nows_fp16.py":61:5)
#loc61 = loc("acc"(#loc2))
#loc62 = loc("l_i"(#loc5))
#loc63 = loc("m_i"(#loc6))
#loc64 = loc("pid_m"(#loc7))
#loc65 = loc("pid_bh"(#loc8))
#loc66 = loc("kv_base"(#loc9))
#loc67 = loc("qo_offset"(#loc10))
#loc68 = loc("qo_offset"(#loc11))
#loc69 = loc("rows"(#loc12))
#loc70 = loc("qo_desc"(#loc13))
#loc71 = loc("k_desc"(#loc14))
#loc72 = loc("v_desc"(#loc15))
#loc73 = loc("out_desc"(#loc16))
#loc74 = loc("q"(#loc17))
#loc75 = loc("qk_scale"(#loc18))
#loc76 = loc("m_i"(#loc3))
#loc77 = loc("koff"(#loc20))
#loc78 = loc("koff"(#loc21))
#loc79 = loc("k"(#loc22))
#loc80 = loc("v"(#loc23))
#loc81 = loc("qk"(#loc24))
#loc82 = loc("qk"(#loc25))
#loc84 = loc("m_ij"(#loc29))
#loc85 = loc("alpha"(#loc30))
#loc86 = loc("alpha"(#loc31))
#loc87 = loc("p"(#loc32))
#loc88 = loc("p"(#loc33))
#loc89 = loc("p"(#loc34))
#loc91 = loc("acc"(#loc38))
#loc92 = loc("acc"(#loc39))
#loc93 = loc("acc"(#loc40))
#loc94 = loc("acc"(#loc41))
#loc95 = loc("l_i"(#loc42))
#loc96 = loc("acc"(#loc43))
#loc97 = loc("acc"(#loc44))
#loc98 = loc("offs_m"(#loc47))
#loc99 = loc("offs_m"(#loc48))
#loc100 = loc(callsite(#loc1 at #loc61))
#loc101 = loc("l_i"(#loc76))
#loc102 = loc(callsite(#loc26 at #loc83))
#loc104 = loc(callsite(#loc35 at #loc90))
#loc106 = loc("acc"(#loc101))
#loc107 = loc(callsite(#loc28 at #loc102))
#loc108 = loc(callsite(#loc37 at #loc104))


// -----// IR Dump Before TritonSimplifySingleTripWhile: triton-simplify-single-trip-while ('builtin.module' operation) //----- //
#loc = loc("/projects/kzhou6/hwu27/triton-beta-3-paper-solver-wt/third_party/tlx/tools/sched2tlx/examples/case3_FA_fp16/fa_fwd_nows_fp16.py":25:1)
#loc4 = loc(unknown)
#loc27 = loc("/projects/kzhou6/hwu27/triton-beta-3-paper-solver-wt/third_party/tlx/tools/sched2tlx/examples/case3_FA_fp16/fa_fwd_nows_fp16.py":51:32)
#loc36 = loc("/projects/kzhou6/hwu27/triton-beta-3-paper-solver-wt/third_party/tlx/tools/sched2tlx/examples/case3_FA_fp16/fa_fwd_nows_fp16.py":54:16)
#loc53 = loc("Q"(#loc))
#loc54 = loc("K"(#loc))
#loc55 = loc("V"(#loc))
#loc56 = loc("Out"(#loc))
#loc57 = loc("M_lse"(#loc))
#loc58 = loc("sm_scale"(#loc))
#loc59 = loc("H"(#loc))
#loc60 = loc("N_CTX"(#loc))
#loc83 = loc("m_ij"(#loc27))
#loc90 = loc("l_ij"(#loc36))
#loc103 = loc(callsite(#loc4 at #loc83))
#loc105 = loc(callsite(#loc4 at #loc90))
module {
  tt.func public @fa_fwd_kernel_nows(%Q: !tt.ptr<f16> {tt.divisibility = 16 : i32} loc("Q"(#loc)), %K: !tt.ptr<f16> {tt.divisibility = 16 : i32} loc("K"(#loc)), %V: !tt.ptr<f16> {tt.divisibility = 16 : i32} loc("V"(#loc)), %Out: !tt.ptr<f16> {tt.divisibility = 16 : i32} loc("Out"(#loc)), %M_lse: !tt.ptr<f32> {tt.divisibility = 16 : i32} loc("M_lse"(#loc)), %sm_scale: f32 loc("sm_scale"(#loc)), %H: i32 loc("H"(#loc)), %N_CTX: i32 {tt.divisibility = 16 : i32} loc("N_CTX"(#loc))) attributes {noinline = false} {
    %acc = arith.constant dense<0.000000e+00> : tensor<128x128xf32> loc(#loc100)
    %c1_i32 = arith.constant 1 : i32 loc(#loc3)
    %cst = arith.constant dense<0.000000e+00> : tensor<128x64xf32> loc(#loc4)
    %c64_i32 = arith.constant 64 : i32 loc(#loc4)
    %cst_0 = arith.constant 1.44269502 : f32 loc(#loc4)
    %l_i = arith.constant dense<1.000000e+00> : tensor<128xf32> loc(#loc62)
    %m_i = arith.constant dense<0xFF800000> : tensor<128xf32> loc(#loc63)
    %c0_i32 = arith.constant 0 : i32 loc(#loc4)
    %c1_i64 = arith.constant 1 : i64 loc(#loc4)
    %c128_i64 = arith.constant 128 : i64 loc(#loc4)
    %c128_i32 = arith.constant 128 : i32 loc(#loc4)
    %pid_m = tt.get_program_id x : i32 loc(#loc64)
    %pid_bh = tt.get_program_id y : i32 loc(#loc65)
    %kv_base = arith.muli %pid_bh, %N_CTX : i32 loc(#loc66)
    %qo_offset = arith.muli %pid_m, %c128_i32 : i32 loc(#loc67)
    %qo_offset_1 = arith.addi %kv_base, %qo_offset : i32 loc(#loc68)
    %rows = arith.muli %H, %N_CTX : i32 loc(#loc69)
    %qo_desc = tt.make_tensor_descriptor %Q, [%rows, %c128_i32], [%c128_i64, %c1_i64] : !tt.ptr<f16>, !tt.tensordesc<128x128xf16> loc(#loc70)
    %k_desc = tt.make_tensor_descriptor %K, [%rows, %c128_i32], [%c128_i64, %c1_i64] : !tt.ptr<f16>, !tt.tensordesc<64x128xf16> loc(#loc71)
    %v_desc = tt.make_tensor_descriptor %V, [%rows, %c128_i32], [%c128_i64, %c1_i64] : !tt.ptr<f16>, !tt.tensordesc<64x128xf16> loc(#loc72)
    %out_desc = tt.make_tensor_descriptor %Out, [%rows, %c128_i32], [%c128_i64, %c1_i64] : !tt.ptr<f16>, !tt.tensordesc<128x128xf16> loc(#loc73)
    %q = tt.descriptor_load %qo_desc[%qo_offset_1, %c0_i32] : !tt.tensordesc<128x128xf16> -> tensor<128x128xf16> loc(#loc74)
    %qk_scale = arith.mulf %sm_scale, %cst_0 : f32 loc(#loc75)
    %0 = arith.divsi %N_CTX, %c64_i32 : i32 loc(#loc19)
    %acc_2:3 = scf.for %kv = %c0_i32 to %0 step %c1_i32 iter_args(%m_i_9 = %m_i, %l_i_10 = %l_i, %acc_11 = %acc) -> (tensor<128xf32>, tensor<128xf32>, tensor<128x128xf32>)  : i32 {
      %koff = arith.muli %kv, %c64_i32 : i32 loc(#loc77)
      %koff_12 = arith.addi %kv_base, %koff : i32 loc(#loc78)
      %k = tt.descriptor_load %k_desc[%koff_12, %c0_i32] : !tt.tensordesc<64x128xf16> -> tensor<64x128xf16> loc(#loc79)
      %v = tt.descriptor_load %v_desc[%koff_12, %c0_i32] : !tt.tensordesc<64x128xf16> -> tensor<64x128xf16> loc(#loc80)
      %qk = tt.trans %k {order = array<i32: 1, 0>} : tensor<64x128xf16> -> tensor<128x64xf16> loc(#loc81)
      %qk_13 = tt.dot %q, %qk, %cst, inputPrecision = tf32 : tensor<128x128xf16> * tensor<128x64xf16> -> tensor<128x64xf32> loc(#loc82)
      %m_ij = "tt.reduce"(%qk_13) <{axis = 1 : i32, reduction_ordering = "unordered"}> ({
      ^bb0(%m_ij_30: f32 loc(callsite(#loc4 at #loc83)), %m_ij_31: f32 loc(callsite(#loc4 at #loc83))):
        %m_ij_32 = arith.maxnumf %m_ij_30, %m_ij_31 : f32 loc(#loc107)
        tt.reduce.return %m_ij_32 : f32 loc(#loc102)
      }) : (tensor<128x64xf32>) -> tensor<128xf32> loc(#loc102)
      %m_ij_14 = tt.splat %qk_scale : f32 -> tensor<128xf32> loc(#loc83)
      %m_ij_15 = arith.mulf %m_ij, %m_ij_14 : tensor<128xf32> loc(#loc83)
      %m_ij_16 = arith.maxnumf %m_i_9, %m_ij_15 : tensor<128xf32> loc(#loc84)
      %alpha = arith.subf %m_i_9, %m_ij_16 : tensor<128xf32> loc(#loc85)
      %alpha_17 = math.exp2 %alpha : tensor<128xf32> loc(#loc86)
      %p = tt.splat %qk_scale : f32 -> tensor<128x64xf32> loc(#loc87)
      %p_18 = arith.mulf %qk_13, %p : tensor<128x64xf32> loc(#loc87)
      %p_19 = tt.expand_dims %m_ij_16 {axis = 1 : i32} : tensor<128xf32> -> tensor<128x1xf32> loc(#loc88)
      %p_20 = tt.broadcast %p_19 : tensor<128x1xf32> -> tensor<128x64xf32> loc(#loc87)
      %p_21 = arith.subf %p_18, %p_20 : tensor<128x64xf32> loc(#loc87)
      %p_22 = math.exp2 %p_21 : tensor<128x64xf32> loc(#loc89)
      %l_ij = "tt.reduce"(%p_22) <{axis = 1 : i32, reduction_ordering = "unordered"}> ({
      ^bb0(%l_ij_30: f32 loc(callsite(#loc4 at #loc90)), %l_ij_31: f32 loc(callsite(#loc4 at #loc90))):
        %l_ij_32 = arith.addf %l_ij_30, %l_ij_31 : f32 loc(#loc108)
        tt.reduce.return %l_ij_32 : f32 loc(#loc104)
      }) : (tensor<128x64xf32>) -> tensor<128xf32> loc(#loc104)
      %acc_23 = arith.truncf %p_22 : tensor<128x64xf32> to tensor<128x64xf16> loc(#loc91)
      %acc_24 = tt.expand_dims %alpha_17 {axis = 1 : i32} : tensor<128xf32> -> tensor<128x1xf32> loc(#loc92)
      %acc_25 = tt.broadcast %acc_24 : tensor<128x1xf32> -> tensor<128x128xf32> loc(#loc93)
      %acc_26 = arith.mulf %acc_11, %acc_25 : tensor<128x128xf32> loc(#loc93)
      %acc_27 = tt.dot %acc_23, %v, %acc_26, inputPrecision = tf32 : tensor<128x64xf16> * tensor<64x128xf16> -> tensor<128x128xf32> loc(#loc94)
      %l_i_28 = arith.mulf %l_i_10, %alpha_17 : tensor<128xf32> loc(#loc95)
      %l_i_29 = arith.addf %l_i_28, %l_ij : tensor<128xf32> loc(#loc95)
      scf.yield %m_ij_16, %l_i_29, %acc_27 : tensor<128xf32>, tensor<128xf32>, tensor<128x128xf32> loc(#loc3)
    } loc(#loc106)
    %acc_3 = tt.expand_dims %acc_2#1 {axis = 1 : i32} : tensor<128xf32> -> tensor<128x1xf32> loc(#loc96)
    %acc_4 = tt.broadcast %acc_3 : tensor<128x1xf32> -> tensor<128x128xf32> loc(#loc97)
    %acc_5 = arith.divf %acc_2#2, %acc_4 : tensor<128x128xf32> loc(#loc97)
    %1 = arith.truncf %acc_5 : tensor<128x128xf32> to tensor<128x128xf16> loc(#loc45)
    tt.descriptor_store %out_desc[%qo_offset_1, %c0_i32], %1 : !tt.tensordesc<128x128xf16>, tensor<128x128xf16> loc(#loc46)
    %offs_m = arith.muli %pid_m, %c128_i32 : i32 loc(#loc98)
    %offs_m_6 = tt.make_range {end = 128 : i32, start = 0 : i32} : tensor<128xi32> loc(#loc99)
    %offs_m_7 = tt.splat %offs_m : i32 -> tensor<128xi32> loc(#loc98)
    %offs_m_8 = arith.addi %offs_m_7, %offs_m_6 : tensor<128xi32> loc(#loc98)
    %2 = tt.addptr %M_lse, %kv_base : !tt.ptr<f32>, i32 loc(#loc49)
    %3 = tt.splat %2 : !tt.ptr<f32> -> tensor<128x!tt.ptr<f32>> loc(#loc49)
    %4 = tt.addptr %3, %offs_m_8 : tensor<128x!tt.ptr<f32>>, tensor<128xi32> loc(#loc49)
    %5 = math.log2 %acc_2#1 : tensor<128xf32> loc(#loc50)
    %6 = arith.addf %acc_2#0, %5 : tensor<128xf32> loc(#loc51)
    tt.store %4, %6 : tensor<128x!tt.ptr<f32>> loc(#loc52)
    tt.return loc(#loc)
  } loc(#loc)
} loc(#loc)
#loc1 = loc("/projects/kzhou6/hwu27/triton-beta-3-paper-solver-wt/python/triton/language/standard.py":129:12)
#loc2 = loc("/projects/kzhou6/hwu27/triton-beta-3-paper-solver-wt/third_party/tlx/tools/sched2tlx/examples/case3_FA_fp16/fa_fwd_nows_fp16.py":44:11)
#loc3 = loc("/projects/kzhou6/hwu27/triton-beta-3-paper-solver-wt/third_party/tlx/tools/sched2tlx/examples/case3_FA_fp16/fa_fwd_nows_fp16.py":46:5)
#loc5 = loc("/projects/kzhou6/hwu27/triton-beta-3-paper-solver-wt/third_party/tlx/tools/sched2tlx/examples/case3_FA_fp16/fa_fwd_nows_fp16.py":43:11)
#loc6 = loc("/projects/kzhou6/hwu27/triton-beta-3-paper-solver-wt/third_party/tlx/tools/sched2tlx/examples/case3_FA_fp16/fa_fwd_nows_fp16.py":42:11)
#loc7 = loc("/projects/kzhou6/hwu27/triton-beta-3-paper-solver-wt/third_party/tlx/tools/sched2tlx/examples/case3_FA_fp16/fa_fwd_nows_fp16.py":28:13)
#loc8 = loc("/projects/kzhou6/hwu27/triton-beta-3-paper-solver-wt/third_party/tlx/tools/sched2tlx/examples/case3_FA_fp16/fa_fwd_nows_fp16.py":29:14)
#loc9 = loc("/projects/kzhou6/hwu27/triton-beta-3-paper-solver-wt/third_party/tlx/tools/sched2tlx/examples/case3_FA_fp16/fa_fwd_nows_fp16.py":30:15)
#loc10 = loc("/projects/kzhou6/hwu27/triton-beta-3-paper-solver-wt/third_party/tlx/tools/sched2tlx/examples/case3_FA_fp16/fa_fwd_nows_fp16.py":31:27)
#loc11 = loc("/projects/kzhou6/hwu27/triton-beta-3-paper-solver-wt/third_party/tlx/tools/sched2tlx/examples/case3_FA_fp16/fa_fwd_nows_fp16.py":31:17)
#loc12 = loc("/projects/kzhou6/hwu27/triton-beta-3-paper-solver-wt/third_party/tlx/tools/sched2tlx/examples/case3_FA_fp16/fa_fwd_nows_fp16.py":32:12)
#loc13 = loc("/projects/kzhou6/hwu27/triton-beta-3-paper-solver-wt/third_party/tlx/tools/sched2tlx/examples/case3_FA_fp16/fa_fwd_nows_fp16.py":33:15)
#loc14 = loc("/projects/kzhou6/hwu27/triton-beta-3-paper-solver-wt/third_party/tlx/tools/sched2tlx/examples/case3_FA_fp16/fa_fwd_nows_fp16.py":35:14)
#loc15 = loc("/projects/kzhou6/hwu27/triton-beta-3-paper-solver-wt/third_party/tlx/tools/sched2tlx/examples/case3_FA_fp16/fa_fwd_nows_fp16.py":37:14)
#loc16 = loc("/projects/kzhou6/hwu27/triton-beta-3-paper-solver-wt/third_party/tlx/tools/sched2tlx/examples/case3_FA_fp16/fa_fwd_nows_fp16.py":39:16)
#loc17 = loc("/projects/kzhou6/hwu27/triton-beta-3-paper-solver-wt/third_party/tlx/tools/sched2tlx/examples/case3_FA_fp16/fa_fwd_nows_fp16.py":41:9)
#loc18 = loc("/projects/kzhou6/hwu27/triton-beta-3-paper-solver-wt/third_party/tlx/tools/sched2tlx/examples/case3_FA_fp16/fa_fwd_nows_fp16.py":45:16)
#loc19 = loc("/projects/kzhou6/hwu27/triton-beta-3-paper-solver-wt/third_party/tlx/tools/sched2tlx/examples/case3_FA_fp16/fa_fwd_nows_fp16.py":46:21)
#loc20 = loc("/projects/kzhou6/hwu27/triton-beta-3-paper-solver-wt/third_party/tlx/tools/sched2tlx/examples/case3_FA_fp16/fa_fwd_nows_fp16.py":47:26)
#loc21 = loc("/projects/kzhou6/hwu27/triton-beta-3-paper-solver-wt/third_party/tlx/tools/sched2tlx/examples/case3_FA_fp16/fa_fwd_nows_fp16.py":47:16)
#loc22 = loc("/projects/kzhou6/hwu27/triton-beta-3-paper-solver-wt/third_party/tlx/tools/sched2tlx/examples/case3_FA_fp16/fa_fwd_nows_fp16.py":48:13)
#loc23 = loc("/projects/kzhou6/hwu27/triton-beta-3-paper-solver-wt/third_party/tlx/tools/sched2tlx/examples/case3_FA_fp16/fa_fwd_nows_fp16.py":49:13)
#loc24 = loc("/projects/kzhou6/hwu27/triton-beta-3-paper-solver-wt/third_party/tlx/tools/sched2tlx/examples/case3_FA_fp16/fa_fwd_nows_fp16.py":50:24)
#loc25 = loc("/projects/kzhou6/hwu27/triton-beta-3-paper-solver-wt/third_party/tlx/tools/sched2tlx/examples/case3_FA_fp16/fa_fwd_nows_fp16.py":50:14)
#loc26 = loc("/projects/kzhou6/hwu27/triton-beta-3-paper-solver-wt/python/triton/language/standard.py":194:16)
#loc28 = loc("/projects/kzhou6/hwu27/triton-beta-3-paper-solver-wt/python/triton/language/standard.py":170:12)
#loc29 = loc("/projects/kzhou6/hwu27/triton-beta-3-paper-solver-wt/third_party/tlx/tools/sched2tlx/examples/case3_FA_fp16/fa_fwd_nows_fp16.py":51:16)
#loc30 = loc("/projects/kzhou6/hwu27/triton-beta-3-paper-solver-wt/third_party/tlx/tools/sched2tlx/examples/case3_FA_fp16/fa_fwd_nows_fp16.py":52:30)
#loc31 = loc("/projects/kzhou6/hwu27/triton-beta-3-paper-solver-wt/third_party/tlx/tools/sched2tlx/examples/case3_FA_fp16/fa_fwd_nows_fp16.py":52:17)
#loc32 = loc("/projects/kzhou6/hwu27/triton-beta-3-paper-solver-wt/third_party/tlx/tools/sched2tlx/examples/case3_FA_fp16/fa_fwd_nows_fp16.py":53:26)
#loc33 = loc("/projects/kzhou6/hwu27/triton-beta-3-paper-solver-wt/third_party/tlx/tools/sched2tlx/examples/case3_FA_fp16/fa_fwd_nows_fp16.py":53:42)
#loc34 = loc("/projects/kzhou6/hwu27/triton-beta-3-paper-solver-wt/third_party/tlx/tools/sched2tlx/examples/case3_FA_fp16/fa_fwd_nows_fp16.py":53:13)
#loc35 = loc("/projects/kzhou6/hwu27/triton-beta-3-paper-solver-wt/python/triton/language/standard.py":313:12)
#loc37 = loc("/projects/kzhou6/hwu27/triton-beta-3-paper-solver-wt/python/triton/language/standard.py":273:12)
#loc38 = loc("/projects/kzhou6/hwu27/triton-beta-3-paper-solver-wt/third_party/tlx/tools/sched2tlx/examples/case3_FA_fp16/fa_fwd_nows_fp16.py":55:22)
#loc39 = loc("/projects/kzhou6/hwu27/triton-beta-3-paper-solver-wt/third_party/tlx/tools/sched2tlx/examples/case3_FA_fp16/fa_fwd_nows_fp16.py":55:49)
#loc40 = loc("/projects/kzhou6/hwu27/triton-beta-3-paper-solver-wt/third_party/tlx/tools/sched2tlx/examples/case3_FA_fp16/fa_fwd_nows_fp16.py":55:43)
#loc41 = loc("/projects/kzhou6/hwu27/triton-beta-3-paper-solver-wt/third_party/tlx/tools/sched2tlx/examples/case3_FA_fp16/fa_fwd_nows_fp16.py":55:15)
#loc42 = loc("/projects/kzhou6/hwu27/triton-beta-3-paper-solver-wt/third_party/tlx/tools/sched2tlx/examples/case3_FA_fp16/fa_fwd_nows_fp16.py":56:15)
#loc43 = loc("/projects/kzhou6/hwu27/triton-beta-3-paper-solver-wt/third_party/tlx/tools/sched2tlx/examples/case3_FA_fp16/fa_fwd_nows_fp16.py":58:17)
#loc44 = loc("/projects/kzhou6/hwu27/triton-beta-3-paper-solver-wt/third_party/tlx/tools/sched2tlx/examples/case3_FA_fp16/fa_fwd_nows_fp16.py":58:11)
#loc45 = loc("/projects/kzhou6/hwu27/triton-beta-3-paper-solver-wt/third_party/tlx/tools/sched2tlx/examples/case3_FA_fp16/fa_fwd_nows_fp16.py":59:36)
#loc46 = loc("/projects/kzhou6/hwu27/triton-beta-3-paper-solver-wt/third_party/tlx/tools/sched2tlx/examples/case3_FA_fp16/fa_fwd_nows_fp16.py":59:5)
#loc47 = loc("/projects/kzhou6/hwu27/triton-beta-3-paper-solver-wt/third_party/tlx/tools/sched2tlx/examples/case3_FA_fp16/fa_fwd_nows_fp16.py":60:14)
#loc48 = loc("/projects/kzhou6/hwu27/triton-beta-3-paper-solver-wt/third_party/tlx/tools/sched2tlx/examples/case3_FA_fp16/fa_fwd_nows_fp16.py":60:32)
#loc49 = loc("/projects/kzhou6/hwu27/triton-beta-3-paper-solver-wt/third_party/tlx/tools/sched2tlx/examples/case3_FA_fp16/fa_fwd_nows_fp16.py":61:14)
#loc50 = loc("/projects/kzhou6/hwu27/triton-beta-3-paper-solver-wt/third_party/tlx/tools/sched2tlx/examples/case3_FA_fp16/fa_fwd_nows_fp16.py":61:46)
#loc51 = loc("/projects/kzhou6/hwu27/triton-beta-3-paper-solver-wt/third_party/tlx/tools/sched2tlx/examples/case3_FA_fp16/fa_fwd_nows_fp16.py":61:40)
#loc52 = loc("/projects/kzhou6/hwu27/triton-beta-3-paper-solver-wt/third_party/tlx/tools/sched2tlx/examples/case3_FA_fp16/fa_fwd_nows_fp16.py":61:5)
#loc61 = loc("acc"(#loc2))
#loc62 = loc("l_i"(#loc5))
#loc63 = loc("m_i"(#loc6))
#loc64 = loc("pid_m"(#loc7))
#loc65 = loc("pid_bh"(#loc8))
#loc66 = loc("kv_base"(#loc9))
#loc67 = loc("qo_offset"(#loc10))
#loc68 = loc("qo_offset"(#loc11))
#loc69 = loc("rows"(#loc12))
#loc70 = loc("qo_desc"(#loc13))
#loc71 = loc("k_desc"(#loc14))
#loc72 = loc("v_desc"(#loc15))
#loc73 = loc("out_desc"(#loc16))
#loc74 = loc("q"(#loc17))
#loc75 = loc("qk_scale"(#loc18))
#loc76 = loc("m_i"(#loc3))
#loc77 = loc("koff"(#loc20))
#loc78 = loc("koff"(#loc21))
#loc79 = loc("k"(#loc22))
#loc80 = loc("v"(#loc23))
#loc81 = loc("qk"(#loc24))
#loc82 = loc("qk"(#loc25))
#loc84 = loc("m_ij"(#loc29))
#loc85 = loc("alpha"(#loc30))
#loc86 = loc("alpha"(#loc31))
#loc87 = loc("p"(#loc32))
#loc88 = loc("p"(#loc33))
#loc89 = loc("p"(#loc34))
#loc91 = loc("acc"(#loc38))
#loc92 = loc("acc"(#loc39))
#loc93 = loc("acc"(#loc40))
#loc94 = loc("acc"(#loc41))
#loc95 = loc("l_i"(#loc42))
#loc96 = loc("acc"(#loc43))
#loc97 = loc("acc"(#loc44))
#loc98 = loc("offs_m"(#loc47))
#loc99 = loc("offs_m"(#loc48))
#loc100 = loc(callsite(#loc1 at #loc61))
#loc101 = loc("l_i"(#loc76))
#loc102 = loc(callsite(#loc26 at #loc83))
#loc104 = loc(callsite(#loc35 at #loc90))
#loc106 = loc("acc"(#loc101))
#loc107 = loc(callsite(#loc28 at #loc102))
#loc108 = loc(callsite(#loc37 at #loc104))


// -----// IR Dump Before TritonCombineOps: triton-combine ('builtin.module' operation) //----- //
#loc = loc("/projects/kzhou6/hwu27/triton-beta-3-paper-solver-wt/third_party/tlx/tools/sched2tlx/examples/case3_FA_fp16/fa_fwd_nows_fp16.py":25:1)
#loc4 = loc(unknown)
#loc27 = loc("/projects/kzhou6/hwu27/triton-beta-3-paper-solver-wt/third_party/tlx/tools/sched2tlx/examples/case3_FA_fp16/fa_fwd_nows_fp16.py":51:32)
#loc36 = loc("/projects/kzhou6/hwu27/triton-beta-3-paper-solver-wt/third_party/tlx/tools/sched2tlx/examples/case3_FA_fp16/fa_fwd_nows_fp16.py":54:16)
#loc53 = loc("Q"(#loc))
#loc54 = loc("K"(#loc))
#loc55 = loc("V"(#loc))
#loc56 = loc("Out"(#loc))
#loc57 = loc("M_lse"(#loc))
#loc58 = loc("sm_scale"(#loc))
#loc59 = loc("H"(#loc))
#loc60 = loc("N_CTX"(#loc))
#loc83 = loc("m_ij"(#loc27))
#loc90 = loc("l_ij"(#loc36))
#loc103 = loc(callsite(#loc4 at #loc83))
#loc105 = loc(callsite(#loc4 at #loc90))
module {
  tt.func public @fa_fwd_kernel_nows(%Q: !tt.ptr<f16> {tt.divisibility = 16 : i32} loc("Q"(#loc)), %K: !tt.ptr<f16> {tt.divisibility = 16 : i32} loc("K"(#loc)), %V: !tt.ptr<f16> {tt.divisibility = 16 : i32} loc("V"(#loc)), %Out: !tt.ptr<f16> {tt.divisibility = 16 : i32} loc("Out"(#loc)), %M_lse: !tt.ptr<f32> {tt.divisibility = 16 : i32} loc("M_lse"(#loc)), %sm_scale: f32 loc("sm_scale"(#loc)), %H: i32 loc("H"(#loc)), %N_CTX: i32 {tt.divisibility = 16 : i32} loc("N_CTX"(#loc))) attributes {noinline = false} {
    %acc = arith.constant dense<0.000000e+00> : tensor<128x128xf32> loc(#loc100)
    %c1_i32 = arith.constant 1 : i32 loc(#loc3)
    %cst = arith.constant dense<0.000000e+00> : tensor<128x64xf32> loc(#loc4)
    %c64_i32 = arith.constant 64 : i32 loc(#loc4)
    %cst_0 = arith.constant 1.44269502 : f32 loc(#loc4)
    %l_i = arith.constant dense<1.000000e+00> : tensor<128xf32> loc(#loc62)
    %m_i = arith.constant dense<0xFF800000> : tensor<128xf32> loc(#loc63)
    %c0_i32 = arith.constant 0 : i32 loc(#loc4)
    %c1_i64 = arith.constant 1 : i64 loc(#loc4)
    %c128_i64 = arith.constant 128 : i64 loc(#loc4)
    %c128_i32 = arith.constant 128 : i32 loc(#loc4)
    %pid_m = tt.get_program_id x : i32 loc(#loc64)
    %pid_bh = tt.get_program_id y : i32 loc(#loc65)
    %kv_base = arith.muli %pid_bh, %N_CTX : i32 loc(#loc66)
    %qo_offset = arith.muli %pid_m, %c128_i32 : i32 loc(#loc67)
    %qo_offset_1 = arith.addi %kv_base, %qo_offset : i32 loc(#loc68)
    %rows = arith.muli %H, %N_CTX : i32 loc(#loc69)
    %qo_desc = tt.make_tensor_descriptor %Q, [%rows, %c128_i32], [%c128_i64, %c1_i64] : !tt.ptr<f16>, !tt.tensordesc<128x128xf16> loc(#loc70)
    %k_desc = tt.make_tensor_descriptor %K, [%rows, %c128_i32], [%c128_i64, %c1_i64] : !tt.ptr<f16>, !tt.tensordesc<64x128xf16> loc(#loc71)
    %v_desc = tt.make_tensor_descriptor %V, [%rows, %c128_i32], [%c128_i64, %c1_i64] : !tt.ptr<f16>, !tt.tensordesc<64x128xf16> loc(#loc72)
    %out_desc = tt.make_tensor_descriptor %Out, [%rows, %c128_i32], [%c128_i64, %c1_i64] : !tt.ptr<f16>, !tt.tensordesc<128x128xf16> loc(#loc73)
    %q = tt.descriptor_load %qo_desc[%qo_offset_1, %c0_i32] : !tt.tensordesc<128x128xf16> -> tensor<128x128xf16> loc(#loc74)
    %qk_scale = arith.mulf %sm_scale, %cst_0 : f32 loc(#loc75)
    %0 = arith.divsi %N_CTX, %c64_i32 : i32 loc(#loc19)
    %acc_2:3 = scf.for %kv = %c0_i32 to %0 step %c1_i32 iter_args(%m_i_9 = %m_i, %l_i_10 = %l_i, %acc_11 = %acc) -> (tensor<128xf32>, tensor<128xf32>, tensor<128x128xf32>)  : i32 {
      %koff = arith.muli %kv, %c64_i32 : i32 loc(#loc77)
      %koff_12 = arith.addi %kv_base, %koff : i32 loc(#loc78)
      %k = tt.descriptor_load %k_desc[%koff_12, %c0_i32] : !tt.tensordesc<64x128xf16> -> tensor<64x128xf16> loc(#loc79)
      %v = tt.descriptor_load %v_desc[%koff_12, %c0_i32] : !tt.tensordesc<64x128xf16> -> tensor<64x128xf16> loc(#loc80)
      %qk = tt.trans %k {order = array<i32: 1, 0>} : tensor<64x128xf16> -> tensor<128x64xf16> loc(#loc81)
      %qk_13 = tt.dot %q, %qk, %cst, inputPrecision = tf32 : tensor<128x128xf16> * tensor<128x64xf16> -> tensor<128x64xf32> loc(#loc82)
      %m_ij = "tt.reduce"(%qk_13) <{axis = 1 : i32, reduction_ordering = "unordered"}> ({
      ^bb0(%m_ij_30: f32 loc(callsite(#loc4 at #loc83)), %m_ij_31: f32 loc(callsite(#loc4 at #loc83))):
        %m_ij_32 = arith.maxnumf %m_ij_30, %m_ij_31 : f32 loc(#loc107)
        tt.reduce.return %m_ij_32 : f32 loc(#loc102)
      }) : (tensor<128x64xf32>) -> tensor<128xf32> loc(#loc102)
      %m_ij_14 = tt.splat %qk_scale : f32 -> tensor<128xf32> loc(#loc83)
      %m_ij_15 = arith.mulf %m_ij, %m_ij_14 : tensor<128xf32> loc(#loc83)
      %m_ij_16 = arith.maxnumf %m_i_9, %m_ij_15 : tensor<128xf32> loc(#loc84)
      %alpha = arith.subf %m_i_9, %m_ij_16 : tensor<128xf32> loc(#loc85)
      %alpha_17 = math.exp2 %alpha : tensor<128xf32> loc(#loc86)
      %p = tt.splat %qk_scale : f32 -> tensor<128x64xf32> loc(#loc87)
      %p_18 = arith.mulf %qk_13, %p : tensor<128x64xf32> loc(#loc87)
      %p_19 = tt.expand_dims %m_ij_16 {axis = 1 : i32} : tensor<128xf32> -> tensor<128x1xf32> loc(#loc88)
      %p_20 = tt.broadcast %p_19 : tensor<128x1xf32> -> tensor<128x64xf32> loc(#loc87)
      %p_21 = arith.subf %p_18, %p_20 : tensor<128x64xf32> loc(#loc87)
      %p_22 = math.exp2 %p_21 : tensor<128x64xf32> loc(#loc89)
      %l_ij = "tt.reduce"(%p_22) <{axis = 1 : i32, reduction_ordering = "unordered"}> ({
      ^bb0(%l_ij_30: f32 loc(callsite(#loc4 at #loc90)), %l_ij_31: f32 loc(callsite(#loc4 at #loc90))):
        %l_ij_32 = arith.addf %l_ij_30, %l_ij_31 : f32 loc(#loc108)
        tt.reduce.return %l_ij_32 : f32 loc(#loc104)
      }) : (tensor<128x64xf32>) -> tensor<128xf32> loc(#loc104)
      %acc_23 = arith.truncf %p_22 : tensor<128x64xf32> to tensor<128x64xf16> loc(#loc91)
      %acc_24 = tt.expand_dims %alpha_17 {axis = 1 : i32} : tensor<128xf32> -> tensor<128x1xf32> loc(#loc92)
      %acc_25 = tt.broadcast %acc_24 : tensor<128x1xf32> -> tensor<128x128xf32> loc(#loc93)
      %acc_26 = arith.mulf %acc_11, %acc_25 : tensor<128x128xf32> loc(#loc93)
      %acc_27 = tt.dot %acc_23, %v, %acc_26, inputPrecision = tf32 : tensor<128x64xf16> * tensor<64x128xf16> -> tensor<128x128xf32> loc(#loc94)
      %l_i_28 = arith.mulf %l_i_10, %alpha_17 : tensor<128xf32> loc(#loc95)
      %l_i_29 = arith.addf %l_i_28, %l_ij : tensor<128xf32> loc(#loc95)
      scf.yield %m_ij_16, %l_i_29, %acc_27 : tensor<128xf32>, tensor<128xf32>, tensor<128x128xf32> loc(#loc3)
    } loc(#loc106)
    %acc_3 = tt.expand_dims %acc_2#1 {axis = 1 : i32} : tensor<128xf32> -> tensor<128x1xf32> loc(#loc96)
    %acc_4 = tt.broadcast %acc_3 : tensor<128x1xf32> -> tensor<128x128xf32> loc(#loc97)
    %acc_5 = arith.divf %acc_2#2, %acc_4 : tensor<128x128xf32> loc(#loc97)
    %1 = arith.truncf %acc_5 : tensor<128x128xf32> to tensor<128x128xf16> loc(#loc45)
    tt.descriptor_store %out_desc[%qo_offset_1, %c0_i32], %1 : !tt.tensordesc<128x128xf16>, tensor<128x128xf16> loc(#loc46)
    %offs_m = arith.muli %pid_m, %c128_i32 : i32 loc(#loc98)
    %offs_m_6 = tt.make_range {end = 128 : i32, start = 0 : i32} : tensor<128xi32> loc(#loc99)
    %offs_m_7 = tt.splat %offs_m : i32 -> tensor<128xi32> loc(#loc98)
    %offs_m_8 = arith.addi %offs_m_7, %offs_m_6 : tensor<128xi32> loc(#loc98)
    %2 = tt.addptr %M_lse, %kv_base : !tt.ptr<f32>, i32 loc(#loc49)
    %3 = tt.splat %2 : !tt.ptr<f32> -> tensor<128x!tt.ptr<f32>> loc(#loc49)
    %4 = tt.addptr %3, %offs_m_8 : tensor<128x!tt.ptr<f32>>, tensor<128xi32> loc(#loc49)
    %5 = math.log2 %acc_2#1 : tensor<128xf32> loc(#loc50)
    %6 = arith.addf %acc_2#0, %5 : tensor<128xf32> loc(#loc51)
    tt.store %4, %6 : tensor<128x!tt.ptr<f32>> loc(#loc52)
    tt.return loc(#loc)
  } loc(#loc)
} loc(#loc)
#loc1 = loc("/projects/kzhou6/hwu27/triton-beta-3-paper-solver-wt/python/triton/language/standard.py":129:12)
#loc2 = loc("/projects/kzhou6/hwu27/triton-beta-3-paper-solver-wt/third_party/tlx/tools/sched2tlx/examples/case3_FA_fp16/fa_fwd_nows_fp16.py":44:11)
#loc3 = loc("/projects/kzhou6/hwu27/triton-beta-3-paper-solver-wt/third_party/tlx/tools/sched2tlx/examples/case3_FA_fp16/fa_fwd_nows_fp16.py":46:5)
#loc5 = loc("/projects/kzhou6/hwu27/triton-beta-3-paper-solver-wt/third_party/tlx/tools/sched2tlx/examples/case3_FA_fp16/fa_fwd_nows_fp16.py":43:11)
#loc6 = loc("/projects/kzhou6/hwu27/triton-beta-3-paper-solver-wt/third_party/tlx/tools/sched2tlx/examples/case3_FA_fp16/fa_fwd_nows_fp16.py":42:11)
#loc7 = loc("/projects/kzhou6/hwu27/triton-beta-3-paper-solver-wt/third_party/tlx/tools/sched2tlx/examples/case3_FA_fp16/fa_fwd_nows_fp16.py":28:13)
#loc8 = loc("/projects/kzhou6/hwu27/triton-beta-3-paper-solver-wt/third_party/tlx/tools/sched2tlx/examples/case3_FA_fp16/fa_fwd_nows_fp16.py":29:14)
#loc9 = loc("/projects/kzhou6/hwu27/triton-beta-3-paper-solver-wt/third_party/tlx/tools/sched2tlx/examples/case3_FA_fp16/fa_fwd_nows_fp16.py":30:15)
#loc10 = loc("/projects/kzhou6/hwu27/triton-beta-3-paper-solver-wt/third_party/tlx/tools/sched2tlx/examples/case3_FA_fp16/fa_fwd_nows_fp16.py":31:27)
#loc11 = loc("/projects/kzhou6/hwu27/triton-beta-3-paper-solver-wt/third_party/tlx/tools/sched2tlx/examples/case3_FA_fp16/fa_fwd_nows_fp16.py":31:17)
#loc12 = loc("/projects/kzhou6/hwu27/triton-beta-3-paper-solver-wt/third_party/tlx/tools/sched2tlx/examples/case3_FA_fp16/fa_fwd_nows_fp16.py":32:12)
#loc13 = loc("/projects/kzhou6/hwu27/triton-beta-3-paper-solver-wt/third_party/tlx/tools/sched2tlx/examples/case3_FA_fp16/fa_fwd_nows_fp16.py":33:15)
#loc14 = loc("/projects/kzhou6/hwu27/triton-beta-3-paper-solver-wt/third_party/tlx/tools/sched2tlx/examples/case3_FA_fp16/fa_fwd_nows_fp16.py":35:14)
#loc15 = loc("/projects/kzhou6/hwu27/triton-beta-3-paper-solver-wt/third_party/tlx/tools/sched2tlx/examples/case3_FA_fp16/fa_fwd_nows_fp16.py":37:14)
#loc16 = loc("/projects/kzhou6/hwu27/triton-beta-3-paper-solver-wt/third_party/tlx/tools/sched2tlx/examples/case3_FA_fp16/fa_fwd_nows_fp16.py":39:16)
#loc17 = loc("/projects/kzhou6/hwu27/triton-beta-3-paper-solver-wt/third_party/tlx/tools/sched2tlx/examples/case3_FA_fp16/fa_fwd_nows_fp16.py":41:9)
#loc18 = loc("/projects/kzhou6/hwu27/triton-beta-3-paper-solver-wt/third_party/tlx/tools/sched2tlx/examples/case3_FA_fp16/fa_fwd_nows_fp16.py":45:16)
#loc19 = loc("/projects/kzhou6/hwu27/triton-beta-3-paper-solver-wt/third_party/tlx/tools/sched2tlx/examples/case3_FA_fp16/fa_fwd_nows_fp16.py":46:21)
#loc20 = loc("/projects/kzhou6/hwu27/triton-beta-3-paper-solver-wt/third_party/tlx/tools/sched2tlx/examples/case3_FA_fp16/fa_fwd_nows_fp16.py":47:26)
#loc21 = loc("/projects/kzhou6/hwu27/triton-beta-3-paper-solver-wt/third_party/tlx/tools/sched2tlx/examples/case3_FA_fp16/fa_fwd_nows_fp16.py":47:16)
#loc22 = loc("/projects/kzhou6/hwu27/triton-beta-3-paper-solver-wt/third_party/tlx/tools/sched2tlx/examples/case3_FA_fp16/fa_fwd_nows_fp16.py":48:13)
#loc23 = loc("/projects/kzhou6/hwu27/triton-beta-3-paper-solver-wt/third_party/tlx/tools/sched2tlx/examples/case3_FA_fp16/fa_fwd_nows_fp16.py":49:13)
#loc24 = loc("/projects/kzhou6/hwu27/triton-beta-3-paper-solver-wt/third_party/tlx/tools/sched2tlx/examples/case3_FA_fp16/fa_fwd_nows_fp16.py":50:24)
#loc25 = loc("/projects/kzhou6/hwu27/triton-beta-3-paper-solver-wt/third_party/tlx/tools/sched2tlx/examples/case3_FA_fp16/fa_fwd_nows_fp16.py":50:14)
#loc26 = loc("/projects/kzhou6/hwu27/triton-beta-3-paper-solver-wt/python/triton/language/standard.py":194:16)
#loc28 = loc("/projects/kzhou6/hwu27/triton-beta-3-paper-solver-wt/python/triton/language/standard.py":170:12)
#loc29 = loc("/projects/kzhou6/hwu27/triton-beta-3-paper-solver-wt/third_party/tlx/tools/sched2tlx/examples/case3_FA_fp16/fa_fwd_nows_fp16.py":51:16)
#loc30 = loc("/projects/kzhou6/hwu27/triton-beta-3-paper-solver-wt/third_party/tlx/tools/sched2tlx/examples/case3_FA_fp16/fa_fwd_nows_fp16.py":52:30)
#loc31 = loc("/projects/kzhou6/hwu27/triton-beta-3-paper-solver-wt/third_party/tlx/tools/sched2tlx/examples/case3_FA_fp16/fa_fwd_nows_fp16.py":52:17)
#loc32 = loc("/projects/kzhou6/hwu27/triton-beta-3-paper-solver-wt/third_party/tlx/tools/sched2tlx/examples/case3_FA_fp16/fa_fwd_nows_fp16.py":53:26)
#loc33 = loc("/projects/kzhou6/hwu27/triton-beta-3-paper-solver-wt/third_party/tlx/tools/sched2tlx/examples/case3_FA_fp16/fa_fwd_nows_fp16.py":53:42)
#loc34 = loc("/projects/kzhou6/hwu27/triton-beta-3-paper-solver-wt/third_party/tlx/tools/sched2tlx/examples/case3_FA_fp16/fa_fwd_nows_fp16.py":53:13)
#loc35 = loc("/projects/kzhou6/hwu27/triton-beta-3-paper-solver-wt/python/triton/language/standard.py":313:12)
#loc37 = loc("/projects/kzhou6/hwu27/triton-beta-3-paper-solver-wt/python/triton/language/standard.py":273:12)
#loc38 = loc("/projects/kzhou6/hwu27/triton-beta-3-paper-solver-wt/third_party/tlx/tools/sched2tlx/examples/case3_FA_fp16/fa_fwd_nows_fp16.py":55:22)
#loc39 = loc("/projects/kzhou6/hwu27/triton-beta-3-paper-solver-wt/third_party/tlx/tools/sched2tlx/examples/case3_FA_fp16/fa_fwd_nows_fp16.py":55:49)
#loc40 = loc("/projects/kzhou6/hwu27/triton-beta-3-paper-solver-wt/third_party/tlx/tools/sched2tlx/examples/case3_FA_fp16/fa_fwd_nows_fp16.py":55:43)
#loc41 = loc("/projects/kzhou6/hwu27/triton-beta-3-paper-solver-wt/third_party/tlx/tools/sched2tlx/examples/case3_FA_fp16/fa_fwd_nows_fp16.py":55:15)
#loc42 = loc("/projects/kzhou6/hwu27/triton-beta-3-paper-solver-wt/third_party/tlx/tools/sched2tlx/examples/case3_FA_fp16/fa_fwd_nows_fp16.py":56:15)
#loc43 = loc("/projects/kzhou6/hwu27/triton-beta-3-paper-solver-wt/third_party/tlx/tools/sched2tlx/examples/case3_FA_fp16/fa_fwd_nows_fp16.py":58:17)
#loc44 = loc("/projects/kzhou6/hwu27/triton-beta-3-paper-solver-wt/third_party/tlx/tools/sched2tlx/examples/case3_FA_fp16/fa_fwd_nows_fp16.py":58:11)
#loc45 = loc("/projects/kzhou6/hwu27/triton-beta-3-paper-solver-wt/third_party/tlx/tools/sched2tlx/examples/case3_FA_fp16/fa_fwd_nows_fp16.py":59:36)
#loc46 = loc("/projects/kzhou6/hwu27/triton-beta-3-paper-solver-wt/third_party/tlx/tools/sched2tlx/examples/case3_FA_fp16/fa_fwd_nows_fp16.py":59:5)
#loc47 = loc("/projects/kzhou6/hwu27/triton-beta-3-paper-solver-wt/third_party/tlx/tools/sched2tlx/examples/case3_FA_fp16/fa_fwd_nows_fp16.py":60:14)
#loc48 = loc("/projects/kzhou6/hwu27/triton-beta-3-paper-solver-wt/third_party/tlx/tools/sched2tlx/examples/case3_FA_fp16/fa_fwd_nows_fp16.py":60:32)
#loc49 = loc("/projects/kzhou6/hwu27/triton-beta-3-paper-solver-wt/third_party/tlx/tools/sched2tlx/examples/case3_FA_fp16/fa_fwd_nows_fp16.py":61:14)
#loc50 = loc("/projects/kzhou6/hwu27/triton-beta-3-paper-solver-wt/third_party/tlx/tools/sched2tlx/examples/case3_FA_fp16/fa_fwd_nows_fp16.py":61:46)
#loc51 = loc("/projects/kzhou6/hwu27/triton-beta-3-paper-solver-wt/third_party/tlx/tools/sched2tlx/examples/case3_FA_fp16/fa_fwd_nows_fp16.py":61:40)
#loc52 = loc("/projects/kzhou6/hwu27/triton-beta-3-paper-solver-wt/third_party/tlx/tools/sched2tlx/examples/case3_FA_fp16/fa_fwd_nows_fp16.py":61:5)
#loc61 = loc("acc"(#loc2))
#loc62 = loc("l_i"(#loc5))
#loc63 = loc("m_i"(#loc6))
#loc64 = loc("pid_m"(#loc7))
#loc65 = loc("pid_bh"(#loc8))
#loc66 = loc("kv_base"(#loc9))
#loc67 = loc("qo_offset"(#loc10))
#loc68 = loc("qo_offset"(#loc11))
#loc69 = loc("rows"(#loc12))
#loc70 = loc("qo_desc"(#loc13))
#loc71 = loc("k_desc"(#loc14))
#loc72 = loc("v_desc"(#loc15))
#loc73 = loc("out_desc"(#loc16))
#loc74 = loc("q"(#loc17))
#loc75 = loc("qk_scale"(#loc18))
#loc76 = loc("m_i"(#loc3))
#loc77 = loc("koff"(#loc20))
#loc78 = loc("koff"(#loc21))
#loc79 = loc("k"(#loc22))
#loc80 = loc("v"(#loc23))
#loc81 = loc("qk"(#loc24))
#loc82 = loc("qk"(#loc25))
#loc84 = loc("m_ij"(#loc29))
#loc85 = loc("alpha"(#loc30))
#loc86 = loc("alpha"(#loc31))
#loc87 = loc("p"(#loc32))
#loc88 = loc("p"(#loc33))
#loc89 = loc("p"(#loc34))
#loc91 = loc("acc"(#loc38))
#loc92 = loc("acc"(#loc39))
#loc93 = loc("acc"(#loc40))
#loc94 = loc("acc"(#loc41))
#loc95 = loc("l_i"(#loc42))
#loc96 = loc("acc"(#loc43))
#loc97 = loc("acc"(#loc44))
#loc98 = loc("offs_m"(#loc47))
#loc99 = loc("offs_m"(#loc48))
#loc100 = loc(callsite(#loc1 at #loc61))
#loc101 = loc("l_i"(#loc76))
#loc102 = loc(callsite(#loc26 at #loc83))
#loc104 = loc(callsite(#loc35 at #loc90))
#loc106 = loc("acc"(#loc101))
#loc107 = loc(callsite(#loc28 at #loc102))
#loc108 = loc(callsite(#loc37 at #loc104))


// -----// IR Dump Before TritonReorderBroadcast: triton-reorder-broadcast ('builtin.module' operation) //----- //
#loc = loc("/projects/kzhou6/hwu27/triton-beta-3-paper-solver-wt/third_party/tlx/tools/sched2tlx/examples/case3_FA_fp16/fa_fwd_nows_fp16.py":25:1)
#loc4 = loc(unknown)
#loc27 = loc("/projects/kzhou6/hwu27/triton-beta-3-paper-solver-wt/third_party/tlx/tools/sched2tlx/examples/case3_FA_fp16/fa_fwd_nows_fp16.py":51:32)
#loc36 = loc("/projects/kzhou6/hwu27/triton-beta-3-paper-solver-wt/third_party/tlx/tools/sched2tlx/examples/case3_FA_fp16/fa_fwd_nows_fp16.py":54:16)
#loc53 = loc("Q"(#loc))
#loc54 = loc("K"(#loc))
#loc55 = loc("V"(#loc))
#loc56 = loc("Out"(#loc))
#loc57 = loc("M_lse"(#loc))
#loc58 = loc("sm_scale"(#loc))
#loc59 = loc("H"(#loc))
#loc60 = loc("N_CTX"(#loc))
#loc83 = loc("m_ij"(#loc27))
#loc90 = loc("l_ij"(#loc36))
#loc103 = loc(callsite(#loc4 at #loc83))
#loc105 = loc(callsite(#loc4 at #loc90))
module {
  tt.func public @fa_fwd_kernel_nows(%Q: !tt.ptr<f16> {tt.divisibility = 16 : i32} loc("Q"(#loc)), %K: !tt.ptr<f16> {tt.divisibility = 16 : i32} loc("K"(#loc)), %V: !tt.ptr<f16> {tt.divisibility = 16 : i32} loc("V"(#loc)), %Out: !tt.ptr<f16> {tt.divisibility = 16 : i32} loc("Out"(#loc)), %M_lse: !tt.ptr<f32> {tt.divisibility = 16 : i32} loc("M_lse"(#loc)), %sm_scale: f32 loc("sm_scale"(#loc)), %H: i32 loc("H"(#loc)), %N_CTX: i32 {tt.divisibility = 16 : i32} loc("N_CTX"(#loc))) attributes {noinline = false} {
    %acc = arith.constant dense<0.000000e+00> : tensor<128x128xf32> loc(#loc100)
    %c1_i32 = arith.constant 1 : i32 loc(#loc3)
    %cst = arith.constant dense<0.000000e+00> : tensor<128x64xf32> loc(#loc4)
    %c64_i32 = arith.constant 64 : i32 loc(#loc4)
    %cst_0 = arith.constant 1.44269502 : f32 loc(#loc4)
    %l_i = arith.constant dense<1.000000e+00> : tensor<128xf32> loc(#loc62)
    %m_i = arith.constant dense<0xFF800000> : tensor<128xf32> loc(#loc63)
    %c0_i32 = arith.constant 0 : i32 loc(#loc4)
    %c1_i64 = arith.constant 1 : i64 loc(#loc4)
    %c128_i64 = arith.constant 128 : i64 loc(#loc4)
    %c128_i32 = arith.constant 128 : i32 loc(#loc4)
    %pid_m = tt.get_program_id x : i32 loc(#loc64)
    %pid_bh = tt.get_program_id y : i32 loc(#loc65)
    %kv_base = arith.muli %pid_bh, %N_CTX : i32 loc(#loc66)
    %qo_offset = arith.muli %pid_m, %c128_i32 : i32 loc(#loc67)
    %qo_offset_1 = arith.addi %kv_base, %qo_offset : i32 loc(#loc68)
    %rows = arith.muli %H, %N_CTX : i32 loc(#loc69)
    %qo_desc = tt.make_tensor_descriptor %Q, [%rows, %c128_i32], [%c128_i64, %c1_i64] : !tt.ptr<f16>, !tt.tensordesc<128x128xf16> loc(#loc70)
    %k_desc = tt.make_tensor_descriptor %K, [%rows, %c128_i32], [%c128_i64, %c1_i64] : !tt.ptr<f16>, !tt.tensordesc<64x128xf16> loc(#loc71)
    %v_desc = tt.make_tensor_descriptor %V, [%rows, %c128_i32], [%c128_i64, %c1_i64] : !tt.ptr<f16>, !tt.tensordesc<64x128xf16> loc(#loc72)
    %out_desc = tt.make_tensor_descriptor %Out, [%rows, %c128_i32], [%c128_i64, %c1_i64] : !tt.ptr<f16>, !tt.tensordesc<128x128xf16> loc(#loc73)
    %q = tt.descriptor_load %qo_desc[%qo_offset_1, %c0_i32] : !tt.tensordesc<128x128xf16> -> tensor<128x128xf16> loc(#loc74)
    %qk_scale = arith.mulf %sm_scale, %cst_0 : f32 loc(#loc75)
    %0 = arith.divsi %N_CTX, %c64_i32 : i32 loc(#loc19)
    %acc_2:3 = scf.for %kv = %c0_i32 to %0 step %c1_i32 iter_args(%m_i_9 = %m_i, %l_i_10 = %l_i, %acc_11 = %acc) -> (tensor<128xf32>, tensor<128xf32>, tensor<128x128xf32>)  : i32 {
      %koff = arith.muli %kv, %c64_i32 : i32 loc(#loc77)
      %koff_12 = arith.addi %kv_base, %koff : i32 loc(#loc78)
      %k = tt.descriptor_load %k_desc[%koff_12, %c0_i32] : !tt.tensordesc<64x128xf16> -> tensor<64x128xf16> loc(#loc79)
      %v = tt.descriptor_load %v_desc[%koff_12, %c0_i32] : !tt.tensordesc<64x128xf16> -> tensor<64x128xf16> loc(#loc80)
      %qk = tt.trans %k {order = array<i32: 1, 0>} : tensor<64x128xf16> -> tensor<128x64xf16> loc(#loc81)
      %qk_13 = tt.dot %q, %qk, %cst, inputPrecision = tf32 : tensor<128x128xf16> * tensor<128x64xf16> -> tensor<128x64xf32> loc(#loc82)
      %m_ij = "tt.reduce"(%qk_13) <{axis = 1 : i32, reduction_ordering = "unordered"}> ({
      ^bb0(%m_ij_30: f32 loc(callsite(#loc4 at #loc83)), %m_ij_31: f32 loc(callsite(#loc4 at #loc83))):
        %m_ij_32 = arith.maxnumf %m_ij_30, %m_ij_31 : f32 loc(#loc107)
        tt.reduce.return %m_ij_32 : f32 loc(#loc102)
      }) : (tensor<128x64xf32>) -> tensor<128xf32> loc(#loc102)
      %m_ij_14 = tt.splat %qk_scale : f32 -> tensor<128xf32> loc(#loc83)
      %m_ij_15 = arith.mulf %m_ij, %m_ij_14 : tensor<128xf32> loc(#loc83)
      %m_ij_16 = arith.maxnumf %m_i_9, %m_ij_15 : tensor<128xf32> loc(#loc84)
      %alpha = arith.subf %m_i_9, %m_ij_16 : tensor<128xf32> loc(#loc85)
      %alpha_17 = math.exp2 %alpha : tensor<128xf32> loc(#loc86)
      %p = tt.splat %qk_scale : f32 -> tensor<128x64xf32> loc(#loc87)
      %p_18 = arith.mulf %qk_13, %p : tensor<128x64xf32> loc(#loc87)
      %p_19 = tt.expand_dims %m_ij_16 {axis = 1 : i32} : tensor<128xf32> -> tensor<128x1xf32> loc(#loc88)
      %p_20 = tt.broadcast %p_19 : tensor<128x1xf32> -> tensor<128x64xf32> loc(#loc87)
      %p_21 = arith.subf %p_18, %p_20 : tensor<128x64xf32> loc(#loc87)
      %p_22 = math.exp2 %p_21 : tensor<128x64xf32> loc(#loc89)
      %l_ij = "tt.reduce"(%p_22) <{axis = 1 : i32, reduction_ordering = "unordered"}> ({
      ^bb0(%l_ij_30: f32 loc(callsite(#loc4 at #loc90)), %l_ij_31: f32 loc(callsite(#loc4 at #loc90))):
        %l_ij_32 = arith.addf %l_ij_30, %l_ij_31 : f32 loc(#loc108)
        tt.reduce.return %l_ij_32 : f32 loc(#loc104)
      }) : (tensor<128x64xf32>) -> tensor<128xf32> loc(#loc104)
      %acc_23 = arith.truncf %p_22 : tensor<128x64xf32> to tensor<128x64xf16> loc(#loc91)
      %acc_24 = tt.expand_dims %alpha_17 {axis = 1 : i32} : tensor<128xf32> -> tensor<128x1xf32> loc(#loc92)
      %acc_25 = tt.broadcast %acc_24 : tensor<128x1xf32> -> tensor<128x128xf32> loc(#loc93)
      %acc_26 = arith.mulf %acc_11, %acc_25 : tensor<128x128xf32> loc(#loc93)
      %acc_27 = tt.dot %acc_23, %v, %acc_26, inputPrecision = tf32 : tensor<128x64xf16> * tensor<64x128xf16> -> tensor<128x128xf32> loc(#loc94)
      %l_i_28 = arith.mulf %l_i_10, %alpha_17 : tensor<128xf32> loc(#loc95)
      %l_i_29 = arith.addf %l_i_28, %l_ij : tensor<128xf32> loc(#loc95)
      scf.yield %m_ij_16, %l_i_29, %acc_27 : tensor<128xf32>, tensor<128xf32>, tensor<128x128xf32> loc(#loc3)
    } loc(#loc106)
    %acc_3 = tt.expand_dims %acc_2#1 {axis = 1 : i32} : tensor<128xf32> -> tensor<128x1xf32> loc(#loc96)
    %acc_4 = tt.broadcast %acc_3 : tensor<128x1xf32> -> tensor<128x128xf32> loc(#loc97)
    %acc_5 = arith.divf %acc_2#2, %acc_4 : tensor<128x128xf32> loc(#loc97)
    %1 = arith.truncf %acc_5 : tensor<128x128xf32> to tensor<128x128xf16> loc(#loc45)
    tt.descriptor_store %out_desc[%qo_offset_1, %c0_i32], %1 : !tt.tensordesc<128x128xf16>, tensor<128x128xf16> loc(#loc46)
    %offs_m = arith.muli %pid_m, %c128_i32 : i32 loc(#loc98)
    %offs_m_6 = tt.make_range {end = 128 : i32, start = 0 : i32} : tensor<128xi32> loc(#loc99)
    %offs_m_7 = tt.splat %offs_m : i32 -> tensor<128xi32> loc(#loc98)
    %offs_m_8 = arith.addi %offs_m_7, %offs_m_6 : tensor<128xi32> loc(#loc98)
    %2 = tt.addptr %M_lse, %kv_base : !tt.ptr<f32>, i32 loc(#loc49)
    %3 = tt.splat %2 : !tt.ptr<f32> -> tensor<128x!tt.ptr<f32>> loc(#loc49)
    %4 = tt.addptr %3, %offs_m_8 : tensor<128x!tt.ptr<f32>>, tensor<128xi32> loc(#loc49)
    %5 = math.log2 %acc_2#1 : tensor<128xf32> loc(#loc50)
    %6 = arith.addf %acc_2#0, %5 : tensor<128xf32> loc(#loc51)
    tt.store %4, %6 : tensor<128x!tt.ptr<f32>> loc(#loc52)
    tt.return loc(#loc)
  } loc(#loc)
} loc(#loc)
#loc1 = loc("/projects/kzhou6/hwu27/triton-beta-3-paper-solver-wt/python/triton/language/standard.py":129:12)
#loc2 = loc("/projects/kzhou6/hwu27/triton-beta-3-paper-solver-wt/third_party/tlx/tools/sched2tlx/examples/case3_FA_fp16/fa_fwd_nows_fp16.py":44:11)
#loc3 = loc("/projects/kzhou6/hwu27/triton-beta-3-paper-solver-wt/third_party/tlx/tools/sched2tlx/examples/case3_FA_fp16/fa_fwd_nows_fp16.py":46:5)
#loc5 = loc("/projects/kzhou6/hwu27/triton-beta-3-paper-solver-wt/third_party/tlx/tools/sched2tlx/examples/case3_FA_fp16/fa_fwd_nows_fp16.py":43:11)
#loc6 = loc("/projects/kzhou6/hwu27/triton-beta-3-paper-solver-wt/third_party/tlx/tools/sched2tlx/examples/case3_FA_fp16/fa_fwd_nows_fp16.py":42:11)
#loc7 = loc("/projects/kzhou6/hwu27/triton-beta-3-paper-solver-wt/third_party/tlx/tools/sched2tlx/examples/case3_FA_fp16/fa_fwd_nows_fp16.py":28:13)
#loc8 = loc("/projects/kzhou6/hwu27/triton-beta-3-paper-solver-wt/third_party/tlx/tools/sched2tlx/examples/case3_FA_fp16/fa_fwd_nows_fp16.py":29:14)
#loc9 = loc("/projects/kzhou6/hwu27/triton-beta-3-paper-solver-wt/third_party/tlx/tools/sched2tlx/examples/case3_FA_fp16/fa_fwd_nows_fp16.py":30:15)
#loc10 = loc("/projects/kzhou6/hwu27/triton-beta-3-paper-solver-wt/third_party/tlx/tools/sched2tlx/examples/case3_FA_fp16/fa_fwd_nows_fp16.py":31:27)
#loc11 = loc("/projects/kzhou6/hwu27/triton-beta-3-paper-solver-wt/third_party/tlx/tools/sched2tlx/examples/case3_FA_fp16/fa_fwd_nows_fp16.py":31:17)
#loc12 = loc("/projects/kzhou6/hwu27/triton-beta-3-paper-solver-wt/third_party/tlx/tools/sched2tlx/examples/case3_FA_fp16/fa_fwd_nows_fp16.py":32:12)
#loc13 = loc("/projects/kzhou6/hwu27/triton-beta-3-paper-solver-wt/third_party/tlx/tools/sched2tlx/examples/case3_FA_fp16/fa_fwd_nows_fp16.py":33:15)
#loc14 = loc("/projects/kzhou6/hwu27/triton-beta-3-paper-solver-wt/third_party/tlx/tools/sched2tlx/examples/case3_FA_fp16/fa_fwd_nows_fp16.py":35:14)
#loc15 = loc("/projects/kzhou6/hwu27/triton-beta-3-paper-solver-wt/third_party/tlx/tools/sched2tlx/examples/case3_FA_fp16/fa_fwd_nows_fp16.py":37:14)
#loc16 = loc("/projects/kzhou6/hwu27/triton-beta-3-paper-solver-wt/third_party/tlx/tools/sched2tlx/examples/case3_FA_fp16/fa_fwd_nows_fp16.py":39:16)
#loc17 = loc("/projects/kzhou6/hwu27/triton-beta-3-paper-solver-wt/third_party/tlx/tools/sched2tlx/examples/case3_FA_fp16/fa_fwd_nows_fp16.py":41:9)
#loc18 = loc("/projects/kzhou6/hwu27/triton-beta-3-paper-solver-wt/third_party/tlx/tools/sched2tlx/examples/case3_FA_fp16/fa_fwd_nows_fp16.py":45:16)
#loc19 = loc("/projects/kzhou6/hwu27/triton-beta-3-paper-solver-wt/third_party/tlx/tools/sched2tlx/examples/case3_FA_fp16/fa_fwd_nows_fp16.py":46:21)
#loc20 = loc("/projects/kzhou6/hwu27/triton-beta-3-paper-solver-wt/third_party/tlx/tools/sched2tlx/examples/case3_FA_fp16/fa_fwd_nows_fp16.py":47:26)
#loc21 = loc("/projects/kzhou6/hwu27/triton-beta-3-paper-solver-wt/third_party/tlx/tools/sched2tlx/examples/case3_FA_fp16/fa_fwd_nows_fp16.py":47:16)
#loc22 = loc("/projects/kzhou6/hwu27/triton-beta-3-paper-solver-wt/third_party/tlx/tools/sched2tlx/examples/case3_FA_fp16/fa_fwd_nows_fp16.py":48:13)
#loc23 = loc("/projects/kzhou6/hwu27/triton-beta-3-paper-solver-wt/third_party/tlx/tools/sched2tlx/examples/case3_FA_fp16/fa_fwd_nows_fp16.py":49:13)
#loc24 = loc("/projects/kzhou6/hwu27/triton-beta-3-paper-solver-wt/third_party/tlx/tools/sched2tlx/examples/case3_FA_fp16/fa_fwd_nows_fp16.py":50:24)
#loc25 = loc("/projects/kzhou6/hwu27/triton-beta-3-paper-solver-wt/third_party/tlx/tools/sched2tlx/examples/case3_FA_fp16/fa_fwd_nows_fp16.py":50:14)
#loc26 = loc("/projects/kzhou6/hwu27/triton-beta-3-paper-solver-wt/python/triton/language/standard.py":194:16)
#loc28 = loc("/projects/kzhou6/hwu27/triton-beta-3-paper-solver-wt/python/triton/language/standard.py":170:12)
#loc29 = loc("/projects/kzhou6/hwu27/triton-beta-3-paper-solver-wt/third_party/tlx/tools/sched2tlx/examples/case3_FA_fp16/fa_fwd_nows_fp16.py":51:16)
#loc30 = loc("/projects/kzhou6/hwu27/triton-beta-3-paper-solver-wt/third_party/tlx/tools/sched2tlx/examples/case3_FA_fp16/fa_fwd_nows_fp16.py":52:30)
#loc31 = loc("/projects/kzhou6/hwu27/triton-beta-3-paper-solver-wt/third_party/tlx/tools/sched2tlx/examples/case3_FA_fp16/fa_fwd_nows_fp16.py":52:17)
#loc32 = loc("/projects/kzhou6/hwu27/triton-beta-3-paper-solver-wt/third_party/tlx/tools/sched2tlx/examples/case3_FA_fp16/fa_fwd_nows_fp16.py":53:26)
#loc33 = loc("/projects/kzhou6/hwu27/triton-beta-3-paper-solver-wt/third_party/tlx/tools/sched2tlx/examples/case3_FA_fp16/fa_fwd_nows_fp16.py":53:42)
#loc34 = loc("/projects/kzhou6/hwu27/triton-beta-3-paper-solver-wt/third_party/tlx/tools/sched2tlx/examples/case3_FA_fp16/fa_fwd_nows_fp16.py":53:13)
#loc35 = loc("/projects/kzhou6/hwu27/triton-beta-3-paper-solver-wt/python/triton/language/standard.py":313:12)
#loc37 = loc("/projects/kzhou6/hwu27/triton-beta-3-paper-solver-wt/python/triton/language/standard.py":273:12)
#loc38 = loc("/projects/kzhou6/hwu27/triton-beta-3-paper-solver-wt/third_party/tlx/tools/sched2tlx/examples/case3_FA_fp16/fa_fwd_nows_fp16.py":55:22)
#loc39 = loc("/projects/kzhou6/hwu27/triton-beta-3-paper-solver-wt/third_party/tlx/tools/sched2tlx/examples/case3_FA_fp16/fa_fwd_nows_fp16.py":55:49)
#loc40 = loc("/projects/kzhou6/hwu27/triton-beta-3-paper-solver-wt/third_party/tlx/tools/sched2tlx/examples/case3_FA_fp16/fa_fwd_nows_fp16.py":55:43)
#loc41 = loc("/projects/kzhou6/hwu27/triton-beta-3-paper-solver-wt/third_party/tlx/tools/sched2tlx/examples/case3_FA_fp16/fa_fwd_nows_fp16.py":55:15)
#loc42 = loc("/projects/kzhou6/hwu27/triton-beta-3-paper-solver-wt/third_party/tlx/tools/sched2tlx/examples/case3_FA_fp16/fa_fwd_nows_fp16.py":56:15)
#loc43 = loc("/projects/kzhou6/hwu27/triton-beta-3-paper-solver-wt/third_party/tlx/tools/sched2tlx/examples/case3_FA_fp16/fa_fwd_nows_fp16.py":58:17)
#loc44 = loc("/projects/kzhou6/hwu27/triton-beta-3-paper-solver-wt/third_party/tlx/tools/sched2tlx/examples/case3_FA_fp16/fa_fwd_nows_fp16.py":58:11)
#loc45 = loc("/projects/kzhou6/hwu27/triton-beta-3-paper-solver-wt/third_party/tlx/tools/sched2tlx/examples/case3_FA_fp16/fa_fwd_nows_fp16.py":59:36)
#loc46 = loc("/projects/kzhou6/hwu27/triton-beta-3-paper-solver-wt/third_party/tlx/tools/sched2tlx/examples/case3_FA_fp16/fa_fwd_nows_fp16.py":59:5)
#loc47 = loc("/projects/kzhou6/hwu27/triton-beta-3-paper-solver-wt/third_party/tlx/tools/sched2tlx/examples/case3_FA_fp16/fa_fwd_nows_fp16.py":60:14)
#loc48 = loc("/projects/kzhou6/hwu27/triton-beta-3-paper-solver-wt/third_party/tlx/tools/sched2tlx/examples/case3_FA_fp16/fa_fwd_nows_fp16.py":60:32)
#loc49 = loc("/projects/kzhou6/hwu27/triton-beta-3-paper-solver-wt/third_party/tlx/tools/sched2tlx/examples/case3_FA_fp16/fa_fwd_nows_fp16.py":61:14)
#loc50 = loc("/projects/kzhou6/hwu27/triton-beta-3-paper-solver-wt/third_party/tlx/tools/sched2tlx/examples/case3_FA_fp16/fa_fwd_nows_fp16.py":61:46)
#loc51 = loc("/projects/kzhou6/hwu27/triton-beta-3-paper-solver-wt/third_party/tlx/tools/sched2tlx/examples/case3_FA_fp16/fa_fwd_nows_fp16.py":61:40)
#loc52 = loc("/projects/kzhou6/hwu27/triton-beta-3-paper-solver-wt/third_party/tlx/tools/sched2tlx/examples/case3_FA_fp16/fa_fwd_nows_fp16.py":61:5)
#loc61 = loc("acc"(#loc2))
#loc62 = loc("l_i"(#loc5))
#loc63 = loc("m_i"(#loc6))
#loc64 = loc("pid_m"(#loc7))
#loc65 = loc("pid_bh"(#loc8))
#loc66 = loc("kv_base"(#loc9))
#loc67 = loc("qo_offset"(#loc10))
#loc68 = loc("qo_offset"(#loc11))
#loc69 = loc("rows"(#loc12))
#loc70 = loc("qo_desc"(#loc13))
#loc71 = loc("k_desc"(#loc14))
#loc72 = loc("v_desc"(#loc15))
#loc73 = loc("out_desc"(#loc16))
#loc74 = loc("q"(#loc17))
#loc75 = loc("qk_scale"(#loc18))
#loc76 = loc("m_i"(#loc3))
#loc77 = loc("koff"(#loc20))
#loc78 = loc("koff"(#loc21))
#loc79 = loc("k"(#loc22))
#loc80 = loc("v"(#loc23))
#loc81 = loc("qk"(#loc24))
#loc82 = loc("qk"(#loc25))
#loc84 = loc("m_ij"(#loc29))
#loc85 = loc("alpha"(#loc30))
#loc86 = loc("alpha"(#loc31))
#loc87 = loc("p"(#loc32))
#loc88 = loc("p"(#loc33))
#loc89 = loc("p"(#loc34))
#loc91 = loc("acc"(#loc38))
#loc92 = loc("acc"(#loc39))
#loc93 = loc("acc"(#loc40))
#loc94 = loc("acc"(#loc41))
#loc95 = loc("l_i"(#loc42))
#loc96 = loc("acc"(#loc43))
#loc97 = loc("acc"(#loc44))
#loc98 = loc("offs_m"(#loc47))
#loc99 = loc("offs_m"(#loc48))
#loc100 = loc(callsite(#loc1 at #loc61))
#loc101 = loc("l_i"(#loc76))
#loc102 = loc(callsite(#loc26 at #loc83))
#loc104 = loc(callsite(#loc35 at #loc90))
#loc106 = loc("acc"(#loc101))
#loc107 = loc(callsite(#loc28 at #loc102))
#loc108 = loc(callsite(#loc37 at #loc104))


// -----// IR Dump Before CSEPass: cse ('builtin.module' operation) //----- //
#loc = loc("/projects/kzhou6/hwu27/triton-beta-3-paper-solver-wt/third_party/tlx/tools/sched2tlx/examples/case3_FA_fp16/fa_fwd_nows_fp16.py":25:1)
#loc4 = loc(unknown)
#loc27 = loc("/projects/kzhou6/hwu27/triton-beta-3-paper-solver-wt/third_party/tlx/tools/sched2tlx/examples/case3_FA_fp16/fa_fwd_nows_fp16.py":51:32)
#loc36 = loc("/projects/kzhou6/hwu27/triton-beta-3-paper-solver-wt/third_party/tlx/tools/sched2tlx/examples/case3_FA_fp16/fa_fwd_nows_fp16.py":54:16)
#loc53 = loc("Q"(#loc))
#loc54 = loc("K"(#loc))
#loc55 = loc("V"(#loc))
#loc56 = loc("Out"(#loc))
#loc57 = loc("M_lse"(#loc))
#loc58 = loc("sm_scale"(#loc))
#loc59 = loc("H"(#loc))
#loc60 = loc("N_CTX"(#loc))
#loc83 = loc("m_ij"(#loc27))
#loc90 = loc("l_ij"(#loc36))
#loc103 = loc(callsite(#loc4 at #loc83))
#loc105 = loc(callsite(#loc4 at #loc90))
module {
  tt.func public @fa_fwd_kernel_nows(%Q: !tt.ptr<f16> {tt.divisibility = 16 : i32} loc("Q"(#loc)), %K: !tt.ptr<f16> {tt.divisibility = 16 : i32} loc("K"(#loc)), %V: !tt.ptr<f16> {tt.divisibility = 16 : i32} loc("V"(#loc)), %Out: !tt.ptr<f16> {tt.divisibility = 16 : i32} loc("Out"(#loc)), %M_lse: !tt.ptr<f32> {tt.divisibility = 16 : i32} loc("M_lse"(#loc)), %sm_scale: f32 loc("sm_scale"(#loc)), %H: i32 loc("H"(#loc)), %N_CTX: i32 {tt.divisibility = 16 : i32} loc("N_CTX"(#loc))) attributes {noinline = false} {
    %acc = arith.constant dense<0.000000e+00> : tensor<128x128xf32> loc(#loc100)
    %c1_i32 = arith.constant 1 : i32 loc(#loc3)
    %cst = arith.constant dense<0.000000e+00> : tensor<128x64xf32> loc(#loc4)
    %c64_i32 = arith.constant 64 : i32 loc(#loc4)
    %cst_0 = arith.constant 1.44269502 : f32 loc(#loc4)
    %l_i = arith.constant dense<1.000000e+00> : tensor<128xf32> loc(#loc62)
    %m_i = arith.constant dense<0xFF800000> : tensor<128xf32> loc(#loc63)
    %c0_i32 = arith.constant 0 : i32 loc(#loc4)
    %c1_i64 = arith.constant 1 : i64 loc(#loc4)
    %c128_i64 = arith.constant 128 : i64 loc(#loc4)
    %c128_i32 = arith.constant 128 : i32 loc(#loc4)
    %pid_m = tt.get_program_id x : i32 loc(#loc64)
    %pid_bh = tt.get_program_id y : i32 loc(#loc65)
    %kv_base = arith.muli %pid_bh, %N_CTX : i32 loc(#loc66)
    %qo_offset = arith.muli %pid_m, %c128_i32 : i32 loc(#loc67)
    %qo_offset_1 = arith.addi %kv_base, %qo_offset : i32 loc(#loc68)
    %rows = arith.muli %H, %N_CTX : i32 loc(#loc69)
    %qo_desc = tt.make_tensor_descriptor %Q, [%rows, %c128_i32], [%c128_i64, %c1_i64] : !tt.ptr<f16>, !tt.tensordesc<128x128xf16> loc(#loc70)
    %k_desc = tt.make_tensor_descriptor %K, [%rows, %c128_i32], [%c128_i64, %c1_i64] : !tt.ptr<f16>, !tt.tensordesc<64x128xf16> loc(#loc71)
    %v_desc = tt.make_tensor_descriptor %V, [%rows, %c128_i32], [%c128_i64, %c1_i64] : !tt.ptr<f16>, !tt.tensordesc<64x128xf16> loc(#loc72)
    %out_desc = tt.make_tensor_descriptor %Out, [%rows, %c128_i32], [%c128_i64, %c1_i64] : !tt.ptr<f16>, !tt.tensordesc<128x128xf16> loc(#loc73)
    %q = tt.descriptor_load %qo_desc[%qo_offset_1, %c0_i32] : !tt.tensordesc<128x128xf16> -> tensor<128x128xf16> loc(#loc74)
    %qk_scale = arith.mulf %sm_scale, %cst_0 : f32 loc(#loc75)
    %0 = arith.divsi %N_CTX, %c64_i32 : i32 loc(#loc19)
    %acc_2:3 = scf.for %kv = %c0_i32 to %0 step %c1_i32 iter_args(%m_i_9 = %m_i, %l_i_10 = %l_i, %acc_11 = %acc) -> (tensor<128xf32>, tensor<128xf32>, tensor<128x128xf32>)  : i32 {
      %koff = arith.muli %kv, %c64_i32 : i32 loc(#loc77)
      %koff_12 = arith.addi %kv_base, %koff : i32 loc(#loc78)
      %k = tt.descriptor_load %k_desc[%koff_12, %c0_i32] : !tt.tensordesc<64x128xf16> -> tensor<64x128xf16> loc(#loc79)
      %v = tt.descriptor_load %v_desc[%koff_12, %c0_i32] : !tt.tensordesc<64x128xf16> -> tensor<64x128xf16> loc(#loc80)
…
#loc38 = loc("/projects/kzhou6/hwu27/triton-beta-3-paper-solver-wt/third_party/tlx/tools/sched2tlx/examples/case3_FA_fp16/fa_fwd_nows_fp16.py":56:15)
#loc39 = loc("/projects/kzhou6/hwu27/triton-beta-3-paper-solver-wt/third_party/tlx/tools/sched2tlx/examples/case3_FA_fp16/fa_fwd_nows_fp16.py":58:17)
#loc40 = loc("/projects/kzhou6/hwu27/triton-beta-3-paper-solver-wt/third_party/tlx/tools/sched2tlx/examples/case3_FA_fp16/fa_fwd_nows_fp16.py":58:11)
#loc41 = loc("/projects/kzhou6/hwu27/triton-beta-3-paper-solver-wt/third_party/tlx/tools/sched2tlx/examples/case3_FA_fp16/fa_fwd_nows_fp16.py":59:36)
#loc42 = loc("/projects/kzhou6/hwu27/triton-beta-3-paper-solver-wt/third_party/tlx/tools/sched2tlx/examples/case3_FA_fp16/fa_fwd_nows_fp16.py":59:5)
#loc43 = loc("/projects/kzhou6/hwu27/triton-beta-3-paper-solver-wt/third_party/tlx/tools/sched2tlx/examples/case3_FA_fp16/fa_fwd_nows_fp16.py":60:32)
#loc44 = loc("/projects/kzhou6/hwu27/triton-beta-3-paper-solver-wt/third_party/tlx/tools/sched2tlx/examples/case3_FA_fp16/fa_fwd_nows_fp16.py":60:14)
#loc45 = loc("/projects/kzhou6/hwu27/triton-beta-3-paper-solver-wt/third_party/tlx/tools/sched2tlx/examples/case3_FA_fp16/fa_fwd_nows_fp16.py":61:14)
#loc46 = loc("/projects/kzhou6/hwu27/triton-beta-3-paper-solver-wt/third_party/tlx/tools/sched2tlx/examples/case3_FA_fp16/fa_fwd_nows_fp16.py":61:46)
#loc47 = loc("/projects/kzhou6/hwu27/triton-beta-3-paper-solver-wt/third_party/tlx/tools/sched2tlx/examples/case3_FA_fp16/fa_fwd_nows_fp16.py":61:40)
#loc48 = loc("/projects/kzhou6/hwu27/triton-beta-3-paper-solver-wt/third_party/tlx/tools/sched2tlx/examples/case3_FA_fp16/fa_fwd_nows_fp16.py":61:5)
#loc57 = loc("pid_m"(#loc2))
#loc58 = loc("pid_bh"(#loc3))
#loc59 = loc("kv_base"(#loc4))
#loc60 = loc("qo_offset"(#loc5))
#loc61 = loc("qo_offset"(#loc6))
#loc62 = loc("rows"(#loc7))
#loc63 = loc("qo_desc"(#loc8))
#loc64 = loc("k_desc"(#loc9))
#loc65 = loc("v_desc"(#loc10))
#loc66 = loc("out_desc"(#loc11))
#loc67 = loc("q"(#loc12))
#loc68 = loc("qk_scale"(#loc13))
#loc70 = loc("p"(#loc16))
#loc71 = loc("qk"(#loc17))
#loc72 = loc("acc"(#loc18))
#loc73 = loc("m_i"(#loc19))
#loc74 = loc("koff"(#loc20))
#loc75 = loc("koff"(#loc21))
#loc76 = loc("k"(#loc22))
#loc77 = loc("v"(#loc23))
#loc78 = loc("qk"(#loc24))
#loc79 = loc("m_ij"(#loc27))
#loc80 = loc("alpha"(#loc28))
#loc81 = loc("alpha"(#loc29))
#loc82 = loc("p"(#loc30))
#loc83 = loc("p"(#loc31))
#loc85 = loc("acc"(#loc35))
#loc86 = loc("acc"(#loc36))
#loc87 = loc("acc"(#loc37))
#loc88 = loc("l_i"(#loc38))
#loc89 = loc("acc"(#loc39))
#loc90 = loc("acc"(#loc40))
#loc91 = loc("offs_m"(#loc43))
#loc92 = loc("offs_m"(#loc44))
#loc93 = loc("l_i"(#loc73))
#loc94 = loc(callsite(#loc25 at #loc69))
#loc96 = loc(callsite(#loc32 at #loc84))
#loc98 = loc("acc"(#loc93))
#loc99 = loc(callsite(#loc26 at #loc94))
#loc100 = loc(callsite(#loc34 at #loc96))


// -----// IR Dump After TritonGPUPartitionLoops Failed: tritongpu-partition-loops ('builtin.module' operation) //----- //
#blocked = #ttg.blocked<{sizePerThread = [1, 8], threadsPerWarp = [2, 16], warpsPerCTA = [4, 1], order = [1, 0]}>
#blocked1 = #ttg.blocked<{sizePerThread = [1], threadsPerWarp = [32], warpsPerCTA = [4], order = [0]}>
#linear = #ttg.linear<{register = [[0, 1], [0, 2], [0, 4], [0, 8], [0, 16], [0, 32]], lane = [[1, 0], [2, 0], [4, 0], [8, 0], [16, 0]], warp = [[32, 0], [64, 0]], block = []}>
#linear1 = #ttg.linear<{register = [[0, 1], [0, 2], [0, 4], [0, 8], [0, 16], [0, 32], [0, 64]], lane = [[1, 0], [2, 0], [4, 0], [8, 0], [16, 0]], warp = [[32, 0], [64, 0]], block = []}>
#loc = loc("/projects/kzhou6/hwu27/triton-beta-3-paper-solver-wt/third_party/tlx/tools/sched2tlx/examples/case3_FA_fp16/fa_fwd_nows_fp16.py":25:1)
#loc1 = loc(unknown)
#loc15 = loc("/projects/kzhou6/hwu27/triton-beta-3-paper-solver-wt/third_party/tlx/tools/sched2tlx/examples/case3_FA_fp16/fa_fwd_nows_fp16.py":51:32)
#loc33 = loc("/projects/kzhou6/hwu27/triton-beta-3-paper-solver-wt/third_party/tlx/tools/sched2tlx/examples/case3_FA_fp16/fa_fwd_nows_fp16.py":54:16)
#shared = #ttg.nvmma_shared<{swizzlingByteWidth = 128, transposed = false, elementBitWidth = 16}>
#shared1 = #ttg.nvmma_shared<{swizzlingByteWidth = 128, transposed = true, elementBitWidth = 16}>
#smem = #ttg.shared_memory
#tmem = #ttng.tensor_memory_encoding<blockM = 128, blockN = 64, colStride = 1>
#tmem1 = #ttng.tensor_memory_encoding<blockM = 128, blockN = 128, colStride = 1>
#loc49 = loc("Q"(#loc))
#loc50 = loc("K"(#loc))
#loc51 = loc("V"(#loc))
#loc52 = loc("Out"(#loc))
#loc53 = loc("M_lse"(#loc))
#loc54 = loc("sm_scale"(#loc))
#loc55 = loc("H"(#loc))
#loc56 = loc("N_CTX"(#loc))
#loc69 = loc("m_ij"(#loc15))
#loc84 = loc("l_ij"(#loc33))
#loc95 = loc(callsite(#loc1 at #loc69))
#loc97 = loc(callsite(#loc1 at #loc84))
module attributes {"ttg.cluster-dim-x" = 1 : i32, "ttg.cluster-dim-y" = 1 : i32, "ttg.cluster-dim-z" = 1 : i32, ttg.early_tma_store_lowering = true, ttg.max_reg_auto_ws = 152 : i32, ttg.min_reg_auto_ws = 24 : i32, "ttg.num-ctas" = 1 : i32, "ttg.num-warps" = 4 : i32, ttg.target = "cuda:100", "ttg.threads-per-warp" = 32 : i32} {
  tt.func public @fa_fwd_kernel_nows(%Q: !tt.ptr<f16> {tt.divisibility = 16 : i32} loc("Q"(#loc)), %K: !tt.ptr<f16> {tt.divisibility = 16 : i32} loc("K"(#loc)), %V: !tt.ptr<f16> {tt.divisibility = 16 : i32} loc("V"(#loc)), %Out: !tt.ptr<f16> {tt.divisibility = 16 : i32} loc("Out"(#loc)), %M_lse: !tt.ptr<f32> {tt.divisibility = 16 : i32} loc("M_lse"(#loc)), %sm_scale: f32 loc("sm_scale"(#loc)), %H: i32 loc("H"(#loc)), %N_CTX: i32 {tt.divisibility = 16 : i32} loc("N_CTX"(#loc))) attributes {noinline = false} {
    %cst = arith.constant dense<0xFF800000> : tensor<128xf32, #ttg.slice<{dim = 1, parent = #linear}>> loc(#loc1)
    %cst_0 = arith.constant dense<1.000000e+00> : tensor<128xf32, #ttg.slice<{dim = 1, parent = #linear}>> loc(#loc1)
    %cst_1 = arith.constant dense<0.000000e+00> : tensor<128x128xf32, #linear1> loc(#loc1)
    %c1_i32 = arith.constant 1 : i32 loc(#loc1)
    %c64_i32 = arith.constant 64 : i32 loc(#loc1)
    %cst_2 = arith.constant 1.44269502 : f32 loc(#loc1)
    %c0_i32 = arith.constant 0 : i32 loc(#loc1)
    %c1_i64 = arith.constant 1 : i64 loc(#loc1)
    %c128_i64 = arith.constant 128 : i64 loc(#loc1)
    %c128_i32 = arith.constant 128 : i32 loc(#loc1)
    %true = arith.constant true loc(#loc1)
    %false = arith.constant false loc(#loc1)
    %pid_m = tt.get_program_id x : i32 loc(#loc57)
    %pid_bh = tt.get_program_id y : i32 loc(#loc58)
    %kv_base = arith.muli %pid_bh, %N_CTX : i32 loc(#loc59)
    %qo_offset = arith.muli %pid_m, %c128_i32 : i32 loc(#loc60)
    %qo_offset_3 = arith.addi %kv_base, %qo_offset : i32 loc(#loc61)
    %rows = arith.muli %H, %N_CTX : i32 loc(#loc62)
    %qo_desc = tt.make_tensor_descriptor %Q, [%rows, %c128_i32], [%c128_i64, %c1_i64] : !tt.ptr<f16>, !tt.tensordesc<128x128xf16, #shared> loc(#loc63)
    %k_desc = tt.make_tensor_descriptor %K, [%rows, %c128_i32], [%c128_i64, %c1_i64] : !tt.ptr<f16>, !tt.tensordesc<64x128xf16, #shared> loc(#loc64)
    %v_desc = tt.make_tensor_descriptor %V, [%rows, %c128_i32], [%c128_i64, %c1_i64] : !tt.ptr<f16>, !tt.tensordesc<64x128xf16, #shared> loc(#loc65)
    %out_desc = tt.make_tensor_descriptor %Out, [%rows, %c128_i32], [%c128_i64, %c1_i64] : !tt.ptr<f16>, !tt.tensordesc<128x128xf16, #shared> loc(#loc66)
    %q = tt.descriptor_load %qo_desc[%qo_offset_3, %c0_i32] : !tt.tensordesc<128x128xf16, #shared> -> tensor<128x128xf16, #blocked> loc(#loc67)
    %q_4 = ttg.local_alloc %q : (tensor<128x128xf16, #blocked>) -> !ttg.memdesc<128x128xf16, #shared, #smem> loc(#loc67)
    %qk_scale = arith.mulf %sm_scale, %cst_2 : f32 loc(#loc68)
    %0 = arith.divsi %N_CTX, %c64_i32 : i32 loc(#loc14)
    %m_ij = tt.splat %qk_scale : f32 -> tensor<128xf32, #ttg.slice<{dim = 1, parent = #linear}>> loc(#loc69)
    %p = tt.splat %qk_scale : f32 -> tensor<128x64xf32, #linear> loc(#loc70)
    %qk, %qk_5 = ttng.tmem_alloc : () -> (!ttg.memdesc<128x64xf32, #tmem, #ttng.tensor_memory, mutable>, !ttg.async.token) loc(#loc71)
    %acc, %acc_6 = ttng.tmem_alloc : () -> (!ttg.memdesc<128x128xf32, #tmem1, #ttng.tensor_memory, mutable>, !ttg.async.token) loc(#loc72)
    %acc_7 = ttng.tmem_store %cst_1, %acc[%acc_6], %true : tensor<128x128xf32, #linear1> -> !ttg.memdesc<128x128xf32, #tmem1, #ttng.tensor_memory, mutable> loc(#loc72)
    %acc_8:5 = scf.for %kv = %c0_i32 to %0 step %c1_i32 iter_args(%m_i = %cst, %l_i = %cst_0, %acc_17 = %false, %qk_18 = %qk_5, %acc_19 = %acc_7) -> (tensor<128xf32, #ttg.slice<{dim = 1, parent = #linear}>>, tensor<128xf32, #ttg.slice<{dim = 1, parent = #linear}>>, i1, !ttg.async.token, !ttg.async.token)  : i32 {
      %koff = arith.muli %kv, %c64_i32 {loop.cluster = 0 : i32, loop.stage = 0 : i32} : i32 loc(#loc74)
      %koff_20 = arith.addi %kv_base, %koff {loop.cluster = 1 : i32, loop.stage = 0 : i32, ttg.partition = array<i32: 1>} : i32 loc(#loc75)
      %k = tt.descriptor_load %k_desc[%koff_20, %c0_i32] {loop.cluster = 2 : i32, loop.stage = 0 : i32, ttg.partition = array<i32: 1>} : !tt.tensordesc<64x128xf16, #shared> -> tensor<64x128xf16, #blocked> loc(#loc76)
      %v = tt.descriptor_load %v_desc[%koff_20, %c0_i32] {loop.cluster = 3 : i32, loop.stage = 0 : i32, ttg.partition = array<i32: 2>} : !tt.tensordesc<64x128xf16, #shared> -> tensor<64x128xf16, #blocked> loc(#loc77)
      %v_21 = ttg.local_alloc %v {buffer.id = 0 : i32, buffer.merge_group_id = 0 : i32, loop.cluster = 5 : i32, loop.stage = 0 : i32, tt.num_buffers = 3 : i32, ttg.partition = array<i32: 2>} : (tensor<64x128xf16, #blocked>) -> !ttg.memdesc<64x128xf16, #shared, #smem> loc(#loc77)
      %qk_22 = ttg.local_alloc %k {buffer.id = 1 : i32, buffer.merge_group_id = 1 : i32, loop.cluster = 4 : i32, loop.stage = 0 : i32, tt.num_buffers = 1 : i32, ttg.partition = array<i32: 1>} : (tensor<64x128xf16, #blocked>) -> !ttg.memdesc<64x128xf16, #shared, #smem> loc(#loc78)
      %qk_23 = ttg.memdesc_trans %qk_22 {loop.cluster = 4 : i32, loop.stage = 0 : i32, order = array<i32: 1, 0>, ttg.partition = array<i32: 3>} : !ttg.memdesc<64x128xf16, #shared, #smem> -> !ttg.memdesc<128x64xf16, #shared1, #smem> loc(#loc78)
      %qk_24 = ttng.tc_gen5_mma %q_4, %qk_23, %qk[%qk_18], %false, %true {loop.cluster = 4 : i32, loop.stage = 0 : i32, ttg.partition = array<i32: 3>} : !ttg.memdesc<128x128xf16, #shared, #smem>, !ttg.memdesc<128x64xf16, #shared1, #smem>, !ttg.memdesc<128x64xf32, #tmem, #ttng.tensor_memory, mutable> loc(#loc71)
      %qk_25, %qk_26 = ttng.tmem_load %qk[%qk_24] {loop.cluster = 0 : i32, loop.stage = 1 : i32, ttg.partition = array<i32: 4>} : !ttg.memdesc<128x64xf32, #tmem, #ttng.tensor_memory, mutable> -> tensor<128x64xf32, #linear> loc(#loc71)
      %m_ij_27 = "tt.reduce"(%qk_25) <{axis = 1 : i32, reduction_ordering = "unordered"}> ({
      ^bb0(%m_ij_48: f32 loc(callsite(#loc1 at #loc69)), %m_ij_49: f32 loc(callsite(#loc1 at #loc69))):
        %m_ij_50 = arith.maxnumf %m_ij_48, %m_ij_49 : f32 loc(#loc99)
        tt.reduce.return %m_ij_50 : f32 loc(#loc94)
      }) {loop.cluster = 1 : i32, loop.stage = 1 : i32, ttg.partition = array<i32: 4>} : (tensor<128x64xf32, #linear>) -> tensor<128xf32, #ttg.slice<{dim = 1, parent = #linear}>> loc(#loc94)
      %m_ij_28 = arith.mulf %m_ij_27, %m_ij {loop.cluster = 3 : i32, loop.stage = 1 : i32, ttg.partition = array<i32: 4>} : tensor<128xf32, #ttg.slice<{dim = 1, parent = #linear}>> loc(#loc69)
      %m_ij_29 = arith.maxnumf %m_i, %m_ij_28 {loop.cluster = 4 : i32, loop.stage = 1 : i32, ttg.partition = array<i32: 4>} : tensor<128xf32, #ttg.slice<{dim = 1, parent = #linear}>> loc(#loc79)
      %alpha = arith.subf %m_i, %m_ij_29 {loop.cluster = 7 : i32, loop.stage = 1 : i32, ttg.partition = array<i32: 4>} : tensor<128xf32, #ttg.slice<{dim = 1, parent = #linear}>> loc(#loc80)
      %alpha_30 = math.exp2 %alpha {loop.cluster = 8 : i32, loop.stage = 1 : i32, ttg.partition = array<i32: 4>} : tensor<128xf32, #ttg.slice<{dim = 1, parent = #linear}>> loc(#loc81)
      %p_31 = arith.mulf %qk_25, %p {loop.cluster = 2 : i32, loop.stage = 1 : i32, ttg.partition = array<i32: 4>} : tensor<128x64xf32, #linear> loc(#loc70)
      %p_32 = tt.expand_dims %m_ij_29 {axis = 1 : i32, loop.cluster = 5 : i32, loop.stage = 1 : i32, ttg.partition = array<i32: 4>} : tensor<128xf32, #ttg.slice<{dim = 1, parent = #linear}>> -> tensor<128x1xf32, #linear> loc(#loc82)
      %p_33 = tt.broadcast %p_32 {loop.cluster = 5 : i32, loop.stage = 1 : i32, ttg.partition = array<i32: 4>} : tensor<128x1xf32, #linear> -> tensor<128x64xf32, #linear> loc(#loc70)
      %p_34 = arith.subf %p_31, %p_33 {loop.cluster = 5 : i32, loop.stage = 1 : i32, ttg.partition = array<i32: 4>} : tensor<128x64xf32, #linear> loc(#loc70)
      %p_35 = math.exp2 %p_34 {loop.cluster = 6 : i32, loop.stage = 1 : i32, ttg.partition = array<i32: 4>} : tensor<128x64xf32, #linear> loc(#loc83)
      %l_ij = "tt.reduce"(%p_35) <{axis = 1 : i32, reduction_ordering = "unordered"}> ({
      ^bb0(%l_ij_48: f32 loc(callsite(#loc1 at #loc84)), %l_ij_49: f32 loc(callsite(#loc1 at #loc84))):
        %l_ij_50 = arith.addf %l_ij_48, %l_ij_49 : f32 loc(#loc100)
        tt.reduce.return %l_ij_50 : f32 loc(#loc96)
      }) {loop.cluster = 4 : i32, loop.stage = 2 : i32, ttg.partition = array<i32: 4>} : (tensor<128x64xf32, #linear>) -> tensor<128xf32, #ttg.slice<{dim = 1, parent = #linear}>> loc(#loc96)
      %acc_36 = arith.truncf %p_35 {loop.cluster = 10 : i32, loop.stage = 1 : i32, ttg.partition = array<i32: 4>} : tensor<128x64xf32, #linear> to tensor<128x64xf16, #linear> loc(#loc85)
      %acc_37 = ttng.tmem_alloc %acc_36 {buffer.id = 2 : i32, buffer.merge_group_id = 2 : i32, loop.cluster = 1 : i32, loop.stage = 2 : i32, tt.num_buffers = 1 : i32, ttg.partition = array<i32: 6>} : (tensor<128x64xf16, #linear>) -> !ttg.memdesc<128x64xf16, #tmem, #ttng.tensor_memory> loc(#loc72)
      %acc_38 = tt.expand_dims %alpha_30 {axis = 1 : i32, loop.cluster = 9 : i32, loop.stage = 1 : i32, ttg.partition = array<i32: 5>} : tensor<128xf32, #ttg.slice<{dim = 1, parent = #linear}>> -> tensor<128x1xf32, #linear> loc(#loc86)
      %acc_39 = ttg.convert_layout %acc_38 {loop.cluster = 9 : i32, loop.stage = 1 : i32, ttg.partition = array<i32: 5>} : tensor<128x1xf32, #linear> -> tensor<128x1xf32, #linear1> loc(#loc87)
      %acc_40 = tt.broadcast %acc_39 {loop.cluster = 9 : i32, loop.stage = 1 : i32, ttg.partition = array<i32: 5>} : tensor<128x1xf32, #linear1> -> tensor<128x128xf32, #linear1> loc(#loc87)
      %acc_41, %acc_42 = ttng.tmem_load %acc[%acc_19] {loop.cluster = 6 : i32, loop.stage = 0 : i32, ttg.partition = array<i32: 5>} : !ttg.memdesc<128x128xf32, #tmem1, #ttng.tensor_memory, mutable> -> tensor<128x128xf32, #linear1> loc(#loc72)
      %acc_43 = arith.mulf %acc_41, %acc_40 {loop.cluster = 0 : i32, loop.stage = 2 : i32, ttg.partition = array<i32: 5>} : tensor<128x128xf32, #linear1> loc(#loc87)
      %acc_44 = ttng.tmem_store %acc_43, %acc[%acc_42], %true {loop.cluster = 2 : i32, loop.stage = 2 : i32, ttg.partition = array<i32: 5>} : tensor<128x128xf32, #linear1> -> !ttg.memdesc<128x128xf32, #tmem1, #ttng.tensor_memory, mutable> loc(#loc72)
      %acc_45 = ttng.tc_gen5_mma %acc_37, %v_21, %acc[%acc_44], %acc_17, %true {loop.cluster = 3 : i32, loop.stage = 2 : i32, ttg.partition = array<i32: 6>} : !ttg.memdesc<128x64xf16, #tmem, #ttng.tensor_memory>, !ttg.memdesc<64x128xf16, #shared, #smem>, !ttg.memdesc<128x128xf32, #tmem1, #ttng.tensor_memory, mutable> loc(#loc72)
      %l_i_46 = arith.mulf %l_i, %alpha_30 {loop.cluster = 11 : i32, loop.stage = 1 : i32, ttg.partition = array<i32: 4>} : tensor<128xf32, #ttg.slice<{dim = 1, parent = #linear}>> loc(#loc88)
      %l_i_47 = arith.addf %l_i_46, %l_ij {loop.cluster = 0 : i32, loop.stage = 3 : i32, ttg.partition = array<i32: 4>} : tensor<128xf32, #ttg.slice<{dim = 1, parent = #linear}>> loc(#loc88)
      scf.yield %m_ij_29, %l_i_47, %true, %qk_26, %acc_45 : tensor<128xf32, #ttg.slice<{dim = 1, parent = #linear}>>, tensor<128xf32, #ttg.slice<{dim = 1, parent = #linear}>>, i1, !ttg.async.token, !ttg.async.token loc(#loc19)
    } {tt.modulo_ii = 1325 : i32, tt.num_stages = 3 : i32, tt.scheduled_max_stage = 3 : i32, ttg.partition.stages = [0 : i32, 0 : i32, 0 : i32, 0 : i32, 3 : i32, 2 : i32, 2 : i32], ttg.partition_num_warps = array<i32: 4, 1, 1, 1, 4, 4, 1>, ttg.warp_specialize.tag = 0 : i32} loc(#loc98)
    %acc_9, %acc_10 = ttng.tmem_load %acc[%acc_8#4] {ttg.partition = array<i32: 0>} : !ttg.memdesc<128x128xf32, #tmem1, #ttng.tensor_memory, mutable> -> tensor<128x128xf32, #linear1> loc(#loc72)
    %acc_11 = tt.expand_dims %acc_8#1 {axis = 1 : i32, ttg.partition = array<i32: 0>} : tensor<128xf32, #ttg.slice<{dim = 1, parent = #linear}>> -> tensor<128x1xf32, #linear> loc(#loc89)
    %acc_12 = ttg.convert_layout %acc_11 {ttg.partition = array<i32: 0>} : tensor<128x1xf32, #linear> -> tensor<128x1xf32, #linear1> loc(#loc90)
    %acc_13 = tt.broadcast %acc_12 {ttg.partition = array<i32: 0>} : tensor<128x1xf32, #linear1> -> tensor<128x128xf32, #linear1> loc(#loc90)
    %acc_14 = arith.divf %acc_9, %acc_13 {ttg.partition = array<i32: 0>} : tensor<128x128xf32, #linear1> loc(#loc90)
    %1 = arith.truncf %acc_14 {ttg.partition = array<i32: 0>} : tensor<128x128xf32, #linear1> to tensor<128x128xf16, #linear1> loc(#loc41)
    %2 = ttg.convert_layout %1 {ttg.partition = array<i32: 0>} : tensor<128x128xf16, #linear1> -> tensor<128x128xf16, #blocked> loc(#loc42)
    tt.descriptor_store %out_desc[%qo_offset_3, %c0_i32], %2 {ttg.partition = array<i32: 0>} : !tt.tensordesc<128x128xf16, #shared>, tensor<128x128xf16, #blocked> loc(#loc42)
    %offs_m = tt.make_range {end = 128 : i32, start = 0 : i32} : tensor<128xi32, #blocked1> loc(#loc91)
    %offs_m_15 = tt.splat %qo_offset : i32 -> tensor<128xi32, #blocked1> loc(#loc92)
    %offs_m_16 = arith.addi %offs_m_15, %offs_m : tensor<128xi32, #blocked1> loc(#loc92)
    %3 = tt.addptr %M_lse, %kv_base : !tt.ptr<f32>, i32 loc(#loc45)
    %4 = tt.splat %3 : !tt.ptr<f32> -> tensor<128x!tt.ptr<f32>, #blocked1> loc(#loc45)
    %5 = tt.addptr %4, %offs_m_16 : tensor<128x!tt.ptr<f32>, #blocked1>, tensor<128xi32, #blocked1> loc(#loc45)
    %6 = math.log2 %acc_8#1 {ttg.partition = array<i32: 0>} : tensor<128xf32, #ttg.slice<{dim = 1, parent = #linear}>> loc(#loc46)
    %7 = arith.addf %acc_8#0, %6 {ttg.partition = array<i32: 0>} : tensor<128xf32, #ttg.slice<{dim = 1, parent = #linear}>> loc(#loc47)
    %8 = ttg.convert_layout %7 {ttg.partition = array<i32: 0>} : tensor<128xf32, #ttg.slice<{dim = 1, parent = #linear}>> -> tensor<128xf32, #blocked1> loc(#loc48)
    tt.store %5, %8 {ttg.partition = array<i32: 0>} : tensor<128x!tt.ptr<f32>, #blocked1> loc(#loc48)
    tt.return loc(#loc)
  } loc(#loc)
} loc(#loc)
#loc2 = loc("/projects/kzhou6/hwu27/triton-beta-3-paper-solver-wt/third_party/tlx/tools/sched2tlx/examples/case3_FA_fp16/fa_fwd_nows_fp16.py":28:13)
#loc3 = loc("/projects/kzhou6/hwu27/triton-beta-3-paper-solver-wt/third_party/tlx/tools/sched2tlx/examples/case3_FA_fp16/fa_fwd_nows_fp16.py":29:14)
#loc4 = loc("/projects/kzhou6/hwu27/triton-beta-3-paper-solver-wt/third_party/tlx/tools/sched2tlx/examples/case3_FA_fp16/fa_fwd_nows_fp16.py":30:15)
#loc5 = loc("/projects/kzhou6/hwu27/triton-beta-3-paper-solver-wt/third_party/tlx/tools/sched2tlx/examples/case3_FA_fp16/fa_fwd_nows_fp16.py":31:27)
#loc6 = loc("/projects/kzhou6/hwu27/triton-beta-3-paper-solver-wt/third_party/tlx/tools/sched2tlx/examples/case3_FA_fp16/fa_fwd_nows_fp16.py":31:17)
#loc7 = loc("/projects/kzhou6/hwu27/triton-beta-3-paper-solver-wt/third_party/tlx/tools/sched2tlx/examples/case3_FA_fp16/fa_fwd_nows_fp16.py":32:12)
#loc8 = loc("/projects/kzhou6/hwu27/triton-beta-3-paper-solver-wt/third_party/tlx/tools/sched2tlx/examples/case3_FA_fp16/fa_fwd_nows_fp16.py":33:15)
#loc9 = loc("/projects/kzhou6/hwu27/triton-beta-3-paper-solver-wt/third_party/tlx/tools/sched2tlx/examples/case3_FA_fp16/fa_fwd_nows_fp16.py":35:14)
#loc10 = loc("/projects/kzhou6/hwu27/triton-beta-3-paper-solver-wt/third_party/tlx/tools/sched2tlx/examples/case3_FA_fp16/fa_fwd_nows_fp16.py":37:14)
#loc11 = loc("/projects/kzhou6/hwu27/triton-beta-3-paper-solver-wt/third_party/tlx/tools/sched2tlx/examples/case3_FA_fp16/fa_fwd_nows_fp16.py":39:16)
#loc12 = loc("/projects/kzhou6/hwu27/triton-beta-3-paper-solver-wt/third_party/tlx/tools/sched2tlx/examples/case3_FA_fp16/fa_fwd_nows_fp16.py":41:9)
#loc13 = loc("/projects/kzhou6/hwu27/triton-beta-3-paper-solver-wt/third_party/tlx/tools/sched2tlx/examples/case3_FA_fp16/fa_fwd_nows_fp16.py":45:16)
#loc14 = loc("/projects/kzhou6/hwu27/triton-beta-3-paper-solver-wt/third_party/tlx/tools/sched2tlx/examples/case3_FA_fp16/fa_fwd_nows_fp16.py":46:21)
#loc16 = loc("/projects/kzhou6/hwu27/triton-beta-3-paper-solver-wt/third_party/tlx/tools/sched2tlx/examples/case3_FA_fp16/fa_fwd_nows_fp16.py":53:26)
#loc17 = loc("/projects/kzhou6/hwu27/triton-beta-3-paper-solver-wt/third_party/tlx/tools/sched2tlx/examples/case3_FA_fp16/fa_fwd_nows_fp16.py":50:14)
#loc18 = loc("/projects/kzhou6/hwu27/triton-beta-3-paper-solver-wt/third_party/tlx/tools/sched2tlx/examples/case3_FA_fp16/fa_fwd_nows_fp16.py":55:15)
#loc19 = loc("/projects/kzhou6/hwu27/triton-beta-3-paper-solver-wt/third_party/tlx/tools/sched2tlx/examples/case3_FA_fp16/fa_fwd_nows_fp16.py":46:5)
#loc20 = loc("/projects/kzhou6/hwu27/triton-beta-3-paper-solver-wt/third_party/tlx/tools/sched2tlx/examples/case3_FA_fp16/fa_fwd_nows_fp16.py":47:26)
#loc21 = loc("/projects/kzhou6/hwu27/triton-beta-3-paper-solver-wt/third_party/tlx/tools/sched2tlx/examples/case3_FA_fp16/fa_fwd_nows_fp16.py":47:16)
#loc22 = loc("/projects/kzhou6/hwu27/triton-beta-3-paper-solver-wt/third_party/tlx/tools/sched2tlx/examples/case3_FA_fp16/fa_fwd_nows_fp16.py":48:13)
#loc23 = loc("/projects/kzhou6/hwu27/triton-beta-3-paper-solver-wt/third_party/tlx/tools/sched2tlx/examples/case3_FA_fp16/fa_fwd_nows_fp16.py":49:13)
#loc24 = loc("/projects/kzhou6/hwu27/triton-beta-3-paper-solver-wt/third_party/tlx/tools/sched2tlx/examples/case3_FA_fp16/fa_fwd_nows_fp16.py":50:24)
#loc25 = loc("/projects/kzhou6/hwu27/triton-beta-3-paper-solver-wt/python/triton/language/standard.py":194:16)
#loc26 = loc("/projects/kzhou6/hwu27/triton-beta-3-paper-solver-wt/python/triton/language/standard.py":170:12)
#loc27 = loc("/projects/kzhou6/hwu27/triton-beta-3-paper-solver-wt/third_party/tlx/tools/sched2tlx/examples/case3_FA_fp16/fa_fwd_nows_fp16.py":51:16)
#loc28 = loc("/projects/kzhou6/hwu27/triton-beta-3-paper-solver-wt/third_party/tlx/tools/sched2tlx/examples/case3_FA_fp16/fa_fwd_nows_fp16.py":52:30)
#loc29 = loc("/projects/kzhou6/hwu27/triton-beta-3-paper-solver-wt/third_party/tlx/tools/sched2tlx/examples/case3_FA_fp16/fa_fwd_nows_fp16.py":52:17)
#loc30 = loc("/projects/kzhou6/hwu27/triton-beta-3-paper-solver-wt/third_party/tlx/tools/sched2tlx/examples/case3_FA_fp16/fa_fwd_nows_fp16.py":53:42)
#loc31 = loc("/projects/kzhou6/hwu27/triton-beta-3-paper-solver-wt/third_party/tlx/tools/sched2tlx/examples/case3_FA_fp16/fa_fwd_nows_fp16.py":53:13)
#loc32 = loc("/projects/kzhou6/hwu27/triton-beta-3-paper-solver-wt/python/triton/language/standard.py":313:12)
#loc34 = loc("/projects/kzhou6/hwu27/triton-beta-3-paper-solver-wt/python/triton/language/standard.py":273:12)
#loc35 = loc("/projects/kzhou6/hwu27/triton-beta-3-paper-solver-wt/third_party/tlx/tools/sched2tlx/examples/case3_FA_fp16/fa_fwd_nows_fp16.py":55:22)
#loc36 = loc("/projects/kzhou6/hwu27/triton-beta-3-paper-solver-wt/third_party/tlx/tools/sched2tlx/examples/case3_FA_fp16/fa_fwd_nows_fp16.py":55:49)
#loc37 = loc("/projects/kzhou6/hwu27/triton-beta-3-paper-solver-wt/third_party/tlx/tools/sched2tlx/examples/case3_FA_fp16/fa_fwd_nows_fp16.py":55:43)
#loc38 = loc("/projects/kzhou6/hwu27/triton-beta-3-paper-solver-wt/third_party/tlx/tools/sched2tlx/examples/case3_FA_fp16/fa_fwd_nows_fp16.py":56:15)
#loc39 = loc("/projects/kzhou6/hwu27/triton-beta-3-paper-solver-wt/third_party/tlx/tools/sched2tlx/examples/case3_FA_fp16/fa_fwd_nows_fp16.py":58:17)
#loc40 = loc("/projects/kzhou6/hwu27/triton-beta-3-paper-solver-wt/third_party/tlx/tools/sched2tlx/examples/case3_FA_fp16/fa_fwd_nows_fp16.py":58:11)
#loc41 = loc("/projects/kzhou6/hwu27/triton-beta-3-paper-solver-wt/third_party/tlx/tools/sched2tlx/examples/case3_FA_fp16/fa_fwd_nows_fp16.py":59:36)
#loc42 = loc("/projects/kzhou6/hwu27/triton-beta-3-paper-solver-wt/third_party/tlx/tools/sched2tlx/examples/case3_FA_fp16/fa_fwd_nows_fp16.py":59:5)
#loc43 = loc("/projects/kzhou6/hwu27/triton-beta-3-paper-solver-wt/third_party/tlx/tools/sched2tlx/examples/case3_FA_fp16/fa_fwd_nows_fp16.py":60:32)
#loc44 = loc("/projects/kzhou6/hwu27/triton-beta-3-paper-solver-wt/third_party/tlx/tools/sched2tlx/examples/case3_FA_fp16/fa_fwd_nows_fp16.py":60:14)
#loc45 = loc("/projects/kzhou6/hwu27/triton-beta-3-paper-solver-wt/third_party/tlx/tools/sched2tlx/examples/case3_FA_fp16/fa_fwd_nows_fp16.py":61:14)
#loc46 = loc("/projects/kzhou6/hwu27/triton-beta-3-paper-solver-wt/third_party/tlx/tools/sched2tlx/examples/case3_FA_fp16/fa_fwd_nows_fp16.py":61:46)
#loc47 = loc("/projects/kzhou6/hwu27/triton-beta-3-paper-solver-wt/third_party/tlx/tools/sched2tlx/examples/case3_FA_fp16/fa_fwd_nows_fp16.py":61:40)
#loc48 = loc("/projects/kzhou6/hwu27/triton-beta-3-paper-solver-wt/third_party/tlx/tools/sched2tlx/examples/case3_FA_fp16/fa_fwd_nows_fp16.py":61:5)
#loc57 = loc("pid_m"(#loc2))
#loc58 = loc("pid_bh"(#loc3))
#loc59 = loc("kv_base"(#loc4))
#loc60 = loc("qo_offset"(#loc5))
#loc61 = loc("qo_offset"(#loc6))
#loc62 = loc("rows"(#loc7))
#loc63 = loc("qo_desc"(#loc8))
#loc64 = loc("k_desc"(#loc9))
#loc65 = loc("v_desc"(#loc10))
#loc66 = loc("out_desc"(#loc11))
#loc67 = loc("q"(#loc12))
#loc68 = loc("qk_scale"(#loc13))
#loc70 = loc("p"(#loc16))
#loc71 = loc("qk"(#loc17))
#loc72 = loc("acc"(#loc18))
#loc73 = loc("m_i"(#loc19))
#loc74 = loc("koff"(#loc20))
#loc75 = loc("koff"(#loc21))
#loc76 = loc("k"(#loc22))
#loc77 = loc("v"(#loc23))
#loc78 = loc("qk"(#loc24))
#loc79 = loc("m_ij"(#loc27))
#loc80 = loc("alpha"(#loc28))
#loc81 = loc("alpha"(#loc29))
#loc82 = loc("p"(#loc30))
#loc83 = loc("p"(#loc31))
#loc85 = loc("acc"(#loc35))
#loc86 = loc("acc"(#loc36))
#loc87 = loc("acc"(#loc37))
#loc88 = loc("l_i"(#loc38))
#loc89 = loc("acc"(#loc39))
#loc90 = loc("acc"(#loc40))
#loc91 = loc("offs_m"(#loc43))
#loc92 = loc("offs_m"(#loc44))
#loc93 = loc("l_i"(#loc73))
#loc94 = loc(callsite(#loc25 at #loc69))
#loc96 = loc(callsite(#loc32 at #loc84))
#loc98 = loc("acc"(#loc93))
#loc99 = loc(callsite(#loc26 at #loc94))
#loc100 = loc(callsite(#loc34 at #loc96))


// -----// IR Dump After TritonGPUAutomaticWarpSpecialization Failed: tritongpu-automatic-warp-specialization{num-stages=2} ('builtin.module' operation) //----- //
#blocked = #ttg.blocked<{sizePerThread = [1, 8], threadsPerWarp = [2, 16], warpsPerCTA = [4, 1], order = [1, 0]}>
#blocked1 = #ttg.blocked<{sizePerThread = [1], threadsPerWarp = [32], warpsPerCTA = [4], order = [0]}>
#linear = #ttg.linear<{register = [[0, 1], [0, 2], [0, 4], [0, 8], [0, 16], [0, 32]], lane = [[1, 0], [2, 0], [4, 0], [8, 0], [16, 0]], warp = [[32, 0], [64, 0]], block = []}>
#linear1 = #ttg.linear<{register = [[0, 1], [0, 2], [0, 4], [0, 8], [0, 16], [0, 32], [0, 64]], lane = [[1, 0], [2, 0], [4, 0], [8, 0], [16, 0]], warp = [[32, 0], [64, 0]], block = []}>
#loc = loc("/projects/kzhou6/hwu27/triton-beta-3-paper-solver-wt/third_party/tlx/tools/sched2tlx/examples/case3_FA_fp16/fa_fwd_nows_fp16.py":25:1)
#loc1 = loc(unknown)
#loc15 = loc("/projects/kzhou6/hwu27/triton-beta-3-paper-solver-wt/third_party/tlx/tools/sched2tlx/examples/case3_FA_fp16/fa_fwd_nows_fp16.py":51:32)
#loc33 = loc("/projects/kzhou6/hwu27/triton-beta-3-paper-solver-wt/third_party/tlx/tools/sched2tlx/examples/case3_FA_fp16/fa_fwd_nows_fp16.py":54:16)
#shared = #ttg.nvmma_shared<{swizzlingByteWidth = 128, transposed = false, elementBitWidth = 16}>
#shared1 = #ttg.nvmma_shared<{swizzlingByteWidth = 128, transposed = true, elementBitWidth = 16}>
#smem = #ttg.shared_memory
#tmem = #ttng.tensor_memory_encoding<blockM = 128, blockN = 64, colStride = 1>
#tmem1 = #ttng.tensor_memory_encoding<blockM = 128, blockN = 128, colStride = 1>
#loc49 = loc("Q"(#loc))
#loc50 = loc("K"(#loc))
#loc51 = loc("V"(#loc))
#loc52 = loc("Out"(#loc))
#loc53 = loc("M_lse"(#loc))
#loc54 = loc("sm_scale"(#loc))
#loc55 = loc("H"(#loc))
#loc56 = loc("N_CTX"(#loc))
#loc69 = loc("m_ij"(#loc15))
#loc84 = loc("l_ij"(#loc33))
#loc95 = loc(callsite(#loc1 at #loc69))
#loc97 = loc(callsite(#loc1 at #loc84))
module attributes {"ttg.cluster-dim-x" = 1 : i32, "ttg.cluster-dim-y" = 1 : i32, "ttg.cluster-dim-z" = 1 : i32, ttg.early_tma_store_lowering = true, ttg.max_reg_auto_ws = 152 : i32, ttg.min_reg_auto_ws = 24 : i32, "ttg.num-ctas" = 1 : i32, "ttg.num-warps" = 4 : i32, ttg.target = "cuda:100", "ttg.threads-per-warp" = 32 : i32} {
  tt.func public @fa_fwd_kernel_nows(%Q: !tt.ptr<f16> {tt.divisibility = 16 : i32} loc("Q"(#loc)), %K: !tt.ptr<f16> {tt.divisibility = 16 : i32} loc("K"(#loc)), %V: !tt.ptr<f16> {tt.divisibility = 16 : i32} loc("V"(#loc)), %Out: !tt.ptr<f16> {tt.divisibility = 16 : i32} loc("Out"(#loc)), %M_lse: !tt.ptr<f32> {tt.divisibility = 16 : i32} loc("M_lse"(#loc)), %sm_scale: f32 loc("sm_scale"(#loc)), %H: i32 loc("H"(#loc)), %N_CTX: i32 {tt.divisibility = 16 : i32} loc("N_CTX"(#loc))) attributes {noinline = false} {
    %cst = arith.constant dense<0xFF800000> : tensor<128xf32, #ttg.slice<{dim = 1, parent = #linear}>> loc(#loc1)
    %cst_0 = arith.constant dense<1.000000e+00> : tensor<128xf32, #ttg.slice<{dim = 1, parent = #linear}>> loc(#loc1)
    %cst_1 = arith.constant dense<0.000000e+00> : tensor<128x128xf32, #linear1> loc(#loc1)
    %c1_i32 = arith.constant 1 : i32 loc(#loc1)
    %c64_i32 = arith.constant 64 : i32 loc(#loc1)
    %cst_2 = arith.constant 1.44269502 : f32 loc(#loc1)
    %c0_i32 = arith.constant 0 : i32 loc(#loc1)
    %c1_i64 = arith.constant 1 : i64 loc(#loc1)
    %c128_i64 = arith.constant 128 : i64 loc(#loc1)
    %c128_i32 = arith.constant 128 : i32 loc(#loc1)
    %true = arith.constant true loc(#loc1)
    %false = arith.constant false loc(#loc1)
    %pid_m = tt.get_program_id x : i32 loc(#loc57)
    %pid_bh = tt.get_program_id y : i32 loc(#loc58)
    %kv_base = arith.muli %pid_bh, %N_CTX : i32 loc(#loc59)
    %qo_offset = arith.muli %pid_m, %c128_i32 : i32 loc(#loc60)
    %qo_offset_3 = arith.addi %kv_base, %qo_offset : i32 loc(#loc61)
    %rows = arith.muli %H, %N_CTX : i32 loc(#loc62)
    %qo_desc = tt.make_tensor_descriptor %Q, [%rows, %c128_i32], [%c128_i64, %c1_i64] : !tt.ptr<f16>, !tt.tensordesc<128x128xf16, #shared> loc(#loc63)
    %k_desc = tt.make_tensor_descriptor %K, [%rows, %c128_i32], [%c128_i64, %c1_i64] : !tt.ptr<f16>, !tt.tensordesc<64x128xf16, #shared> loc(#loc64)
    %v_desc = tt.make_tensor_descriptor %V, [%rows, %c128_i32], [%c128_i64, %c1_i64] : !tt.ptr<f16>, !tt.tensordesc<64x128xf16, #shared> loc(#loc65)
    %out_desc = tt.make_tensor_descriptor %Out, [%rows, %c128_i32], [%c128_i64, %c1_i64] : !tt.ptr<f16>, !tt.tensordesc<128x128xf16, #shared> loc(#loc66)
    %q = tt.descriptor_load %qo_desc[%qo_offset_3, %c0_i32] : !tt.tensordesc<128x128xf16, #shared> -> tensor<128x128xf16, #blocked> loc(#loc67)
    %q_4 = ttg.local_alloc %q : (tensor<128x128xf16, #blocked>) -> !ttg.memdesc<128x128xf16, #shared, #smem> loc(#loc67)
    %qk_scale = arith.mulf %sm_scale, %cst_2 : f32 loc(#loc68)
    %0 = arith.divsi %N_CTX, %c64_i32 : i32 loc(#loc14)
    %m_ij = tt.splat %qk_scale : f32 -> tensor<128xf32, #ttg.slice<{dim = 1, parent = #linear}>> loc(#loc69)
    %p = tt.splat %qk_scale : f32 -> tensor<128x64xf32, #linear> loc(#loc70)
    %qk, %qk_5 = ttng.tmem_alloc : () -> (!ttg.memdesc<128x64xf32, #tmem, #ttng.tensor_memory, mutable>, !ttg.async.token) loc(#loc71)
    %acc, %acc_6 = ttng.tmem_alloc : () -> (!ttg.memdesc<128x128xf32, #tmem1, #ttng.tensor_memory, mutable>, !ttg.async.token) loc(#loc72)
    %acc_7 = ttng.tmem_store %cst_1, %acc[%acc_6], %true : tensor<128x128xf32, #linear1> -> !ttg.memdesc<128x128xf32, #tmem1, #ttng.tensor_memory, mutable> loc(#loc72)
    %acc_8:5 = scf.for %kv = %c0_i32 to %0 step %c1_i32 iter_args(%m_i = %cst, %l_i = %cst_0, %acc_17 = %false, %qk_18 = %qk_5, %acc_19 = %acc_7) -> (tensor<128xf32, #ttg.slice<{dim = 1, parent = #linear}>>, tensor<128xf32, #ttg.slice<{dim = 1, parent = #linear}>>, i1, !ttg.async.token, !ttg.async.token)  : i32 {
      %koff = arith.muli %kv, %c64_i32 {loop.cluster = 0 : i32, loop.stage = 0 : i32} : i32 loc(#loc74)
      %koff_20 = arith.addi %kv_base, %koff {loop.cluster = 1 : i32, loop.stage = 0 : i32, ttg.partition = array<i32: 1>} : i32 loc(#loc75)
      %k = tt.descriptor_load %k_desc[%koff_20, %c0_i32] {loop.cluster = 2 : i32, loop.stage = 0 : i32, ttg.partition = array<i32: 1>} : !tt.tensordesc<64x128xf16, #shared> -> tensor<64x128xf16, #blocked> loc(#loc76)
      %v = tt.descriptor_load %v_desc[%koff_20, %c0_i32] {loop.cluster = 3 : i32, loop.stage = 0 : i32, ttg.partition = array<i32: 2>} : !tt.tensordesc<64x128xf16, #shared> -> tensor<64x128xf16, #blocked> loc(#loc77)
      %v_21 = ttg.local_alloc %v {buffer.id = 0 : i32, buffer.merge_group_id = 0 : i32, loop.cluster = 5 : i32, loop.stage = 0 : i32, tt.num_buffers = 3 : i32, ttg.partition = array<i32: 2>} : (tensor<64x128xf16, #blocked>) -> !ttg.memdesc<64x128xf16, #shared, #smem> loc(#loc77)
      %qk_22 = ttg.local_alloc %k {buffer.id = 1 : i32, buffer.merge_group_id = 1 : i32, loop.cluster = 4 : i32, loop.stage = 0 : i32, tt.num_buffers = 1 : i32, ttg.partition = array<i32: 1>} : (tensor<64x128xf16, #blocked>) -> !ttg.memdesc<64x128xf16, #shared, #smem> loc(#loc78)
      %qk_23 = ttg.memdesc_trans %qk_22 {loop.cluster = 4 : i32, loop.stage = 0 : i32, order = array<i32: 1, 0>, ttg.partition = array<i32: 3>} : !ttg.memdesc<64x128xf16, #shared, #smem> -> !ttg.memdesc<128x64xf16, #shared1, #smem> loc(#loc78)
      %qk_24 = ttng.tc_gen5_mma %q_4, %qk_23, %qk[%qk_18], %false, %true {loop.cluster = 4 : i32, loop.stage = 0 : i32, ttg.partition = array<i32: 3>} : !ttg.memdesc<128x128xf16, #shared, #smem>, !ttg.memdesc<128x64xf16, #shared1, #smem>, !ttg.memdesc<128x64xf32, #tmem, #ttng.tensor_memory, mutable> loc(#loc71)
      %qk_25, %qk_26 = ttng.tmem_load %qk[%qk_24] {loop.cluster = 0 : i32, loop.stage = 1 : i32, ttg.partition = array<i32: 4>} : !ttg.memdesc<128x64xf32, #tmem, #ttng.tensor_memory, mutable> -> tensor<128x64xf32, #linear> loc(#loc71)
      %m_ij_27 = "tt.reduce"(%qk_25) <{axis = 1 : i32, reduction_ordering = "unordered"}> ({
      ^bb0(%m_ij_48: f32 loc(callsite(#loc1 at #loc69)), %m_ij_49: f32 loc(callsite(#loc1 at #loc69))):
        %m_ij_50 = arith.maxnumf %m_ij_48, %m_ij_49 : f32 loc(#loc99)
        tt.reduce.return %m_ij_50 : f32 loc(#loc94)
      }) {loop.cluster = 1 : i32, loop.stage = 1 : i32, ttg.partition = array<i32: 4>} : (tensor<128x64xf32, #linear>) -> tensor<128xf32, #ttg.slice<{dim = 1, parent = #linear}>> loc(#loc94)
      %m_ij_28 = arith.mulf %m_ij_27, %m_ij {loop.cluster = 3 : i32, loop.stage = 1 : i32, ttg.partition = array<i32: 4>} : tensor<128xf32, #ttg.slice<{dim = 1, parent = #linear}>> loc(#loc69)
      %m_ij_29 = arith.maxnumf %m_i, %m_ij_28 {loop.cluster = 4 : i32, loop.stage = 1 : i32, ttg.partition = array<i32: 4>} : tensor<128xf32, #ttg.slice<{dim = 1, parent = #linear}>> loc(#loc79)
      %alpha = arith.subf %m_i, %m_ij_29 {loop.cluster = 7 : i32, loop.stage = 1 : i32, ttg.partition = array<i32: 4>} : tensor<128xf32, #ttg.slice<{dim = 1, parent = #linear}>> loc(#loc80)
      %alpha_30 = math.exp2 %alpha {loop.cluster = 8 : i32, loop.stage = 1 : i32, ttg.partition = array<i32: 4>} : tensor<128xf32, #ttg.slice<{dim = 1, parent = #linear}>> loc(#loc81)
      %p_31 = arith.mulf %qk_25, %p {loop.cluster = 2 : i32, loop.stage = 1 : i32, ttg.partition = array<i32: 4>} : tensor<128x64xf32, #linear> loc(#loc70)
      %p_32 = tt.expand_dims %m_ij_29 {axis = 1 : i32, loop.cluster = 5 : i32, loop.stage = 1 : i32, ttg.partition = array<i32: 4>} : tensor<128xf32, #ttg.slice<{dim = 1, parent = #linear}>> -> tensor<128x1xf32, #linear> loc(#loc82)
      %p_33 = tt.broadcast %p_32 {loop.cluster = 5 : i32, loop.stage = 1 : i32, ttg.partition = array<i32: 4>} : tensor<128x1xf32, #linear> -> tensor<128x64xf32, #linear> loc(#loc70)
      %p_34 = arith.subf %p_31, %p_33 {loop.cluster = 5 : i32, loop.stage = 1 : i32, ttg.partition = array<i32: 4>} : tensor<128x64xf32, #linear> loc(#loc70)
      %p_35 = math.exp2 %p_34 {loop.cluster = 6 : i32, loop.stage = 1 : i32, ttg.partition = array<i32: 4>} : tensor<128x64xf32, #linear> loc(#loc83)
      %l_ij = "tt.reduce"(%p_35) <{axis = 1 : i32, reduction_ordering = "unordered"}> ({
      ^bb0(%l_ij_48: f32 loc(callsite(#loc1 at #loc84)), %l_ij_49: f32 loc(callsite(#loc1 at #loc84))):
        %l_ij_50 = arith.addf %l_ij_48, %l_ij_49 : f32 loc(#loc100)
        tt.reduce.return %l_ij_50 : f32 loc(#loc96)
      }) {loop.cluster = 4 : i32, loop.stage = 2 : i32, ttg.partition = array<i32: 4>} : (tensor<128x64xf32, #linear>) -> tensor<128xf32, #ttg.slice<{dim = 1, parent = #linear}>> loc(#loc96)
      %acc_36 = arith.truncf %p_35 {loop.cluster = 10 : i32, loop.stage = 1 : i32, ttg.partition = array<i32: 4>} : tensor<128x64xf32, #linear> to tensor<128x64xf16, #linear> loc(#loc85)
      %acc_37 = ttng.tmem_alloc %acc_36 {buffer.id = 2 : i32, buffer.merge_group_id = 2 : i32, loop.cluster = 1 : i32, loop.stage = 2 : i32, tt.num_buffers = 1 : i32, ttg.partition = array<i32: 6>} : (tensor<128x64xf16, #linear>) -> !ttg.memdesc<128x64xf16, #tmem, #ttng.tensor_memory> loc(#loc72)
      %acc_38 = tt.expand_dims %alpha_30 {axis = 1 : i32, loop.cluster = 9 : i32, loop.stage = 1 : i32, ttg.partition = array<i32: 5>} : tensor<128xf32, #ttg.slice<{dim = 1, parent = #linear}>> -> tensor<128x1xf32, #linear> loc(#loc86)
      %acc_39 = ttg.convert_layout %acc_38 {loop.cluster = 9 : i32, loop.stage = 1 : i32, ttg.partition = array<i32: 5>} : tensor<128x1xf32, #linear> -> tensor<128x1xf32, #linear1> loc(#loc87)
      %acc_40 = tt.broadcast %acc_39 {loop.cluster = 9 : i32, loop.stage = 1 : i32, ttg.partition = array<i32: 5>} : tensor<128x1xf32, #linear1> -> tensor<128x128xf32, #linear1> loc(#loc87)
      %acc_41, %acc_42 = ttng.tmem_load %acc[%acc_19] {loop.cluster = 6 : i32, loop.stage = 0 : i32, ttg.partition = array<i32: 5>} : !ttg.memdesc<128x128xf32, #tmem1, #ttng.tensor_memory, mutable> -> tensor<128x128xf32, #linear1> loc(#loc72)
      %acc_43 = arith.mulf %acc_41, %acc_40 {loop.cluster = 0 : i32, loop.stage = 2 : i32, ttg.partition = array<i32: 5>} : tensor<128x128xf32, #linear1> loc(#loc87)
      %acc_44 = ttng.tmem_store %acc_43, %acc[%acc_42], %true {loop.cluster = 2 : i32, loop.stage = 2 : i32, ttg.partition = array<i32: 5>} : tensor<128x128xf32, #linear1> -> !ttg.memdesc<128x128xf32, #tmem1, #ttng.tensor_memory, mutable> loc(#loc72)
      %acc_45 = ttng.tc_gen5_mma %acc_37, %v_21, %acc[%acc_44], %acc_17, %true {loop.cluster = 3 : i32, loop.stage = 2 : i32, ttg.partition = array<i32: 6>} : !ttg.memdesc<128x64xf16, #tmem, #ttng.tensor_memory>, !ttg.memdesc<64x128xf16, #shared, #smem>, !ttg.memdesc<128x128xf32, #tmem1, #ttng.tensor_memory, mutable> loc(#loc72)
      %l_i_46 = arith.mulf %l_i, %alpha_30 {loop.cluster = 11 : i32, loop.stage = 1 : i32, ttg.partition = array<i32: 4>} : tensor<128xf32, #ttg.slice<{dim = 1, parent = #linear}>> loc(#loc88)
      %l_i_47 = arith.addf %l_i_46, %l_ij {loop.cluster = 0 : i32, loop.stage = 3 : i32, ttg.partition = array<i32: 4>} : tensor<128xf32, #ttg.slice<{dim = 1, parent = #linear}>> loc(#loc88)
      scf.yield %m_ij_29, %l_i_47, %true, %qk_26, %acc_45 : tensor<128xf32, #ttg.slice<{dim = 1, parent = #linear}>>, tensor<128xf32, #ttg.slice<{dim = 1, parent = #linear}>>, i1, !ttg.async.token, !ttg.async.token loc(#loc19)
    } {tt.modulo_ii = 1325 : i32, tt.num_stages = 3 : i32, tt.scheduled_max_stage = 3 : i32, ttg.partition.stages = [0 : i32, 0 : i32, 0 : i32, 0 : i32, 3 : i32, 2 : i32, 2 : i32], ttg.partition_num_warps = array<i32: 4, 1, 1, 1, 4, 4, 1>, ttg.warp_specialize.tag = 0 : i32} loc(#loc98)
    %acc_9, %acc_10 = ttng.tmem_load %acc[%acc_8#4] {ttg.partition = array<i32: 0>} : !ttg.memdesc<128x128xf32, #tmem1, #ttng.tensor_memory, mutable> -> tensor<128x128xf32, #linear1> loc(#loc72)
    %acc_11 = tt.expand_dims %acc_8#1 {axis = 1 : i32, ttg.partition = array<i32: 0>} : tensor<128xf32, #ttg.slice<{dim = 1, parent = #linear}>> -> tensor<128x1xf32, #linear> loc(#loc89)
    %acc_12 = ttg.convert_layout %acc_11 {ttg.partition = array<i32: 0>} : tensor<128x1xf32, #linear> -> tensor<128x1xf32, #linear1> loc(#loc90)
    %acc_13 = tt.broadcast %acc_12 {ttg.partition = array<i32: 0>} : tensor<128x1xf32, #linear1> -> tensor<128x128xf32, #linear1> loc(#loc90)
    %acc_14 = arith.divf %acc_9, %acc_13 {ttg.partition = array<i32: 0>} : tensor<128x128xf32, #linear1> loc(#loc90)
    %1 = arith.truncf %acc_14 {ttg.partition = array<i32: 0>} : tensor<128x128xf32, #linear1> to tensor<128x128xf16, #linear1> loc(#loc41)
    %2 = ttg.convert_layout %1 {ttg.partition = array<i32: 0>} : tensor<128x128xf16, #linear1> -> tensor<128x128xf16, #blocked> loc(#loc42)
    tt.descriptor_store %out_desc[%qo_offset_3, %c0_i32], %2 {ttg.partition = array<i32: 0>} : !tt.tensordesc<128x128xf16, #shared>, tensor<128x128xf16, #blocked> loc(#loc42)
    %offs_m = tt.make_range {end = 128 : i32, start = 0 : i32} : tensor<128xi32, #blocked1> loc(#loc91)
    %offs_m_15 = tt.splat %qo_offset : i32 -> tensor<128xi32, #blocked1> loc(#loc92)
    %offs_m_16 = arith.addi %offs_m_15, %offs_m : tensor<128xi32, #blocked1> loc(#loc92)
    %3 = tt.addptr %M_lse, %kv_base : !tt.ptr<f32>, i32 loc(#loc45)
    %4 = tt.splat %3 : !tt.ptr<f32> -> tensor<128x!tt.ptr<f32>, #blocked1> loc(#loc45)
    %5 = tt.addptr %4, %offs_m_16 : tensor<128x!tt.ptr<f32>, #blocked1>, tensor<128xi32, #blocked1> loc(#loc45)
    %6 = math.log2 %acc_8#1 {ttg.partition = array<i32: 0>} : tensor<128xf32, #ttg.slice<{dim = 1, parent = #linear}>> loc(#loc46)
    %7 = arith.addf %acc_8#0, %6 {ttg.partition = array<i32: 0>} : tensor<128xf32, #ttg.slice<{dim = 1, parent = #linear}>> loc(#loc47)
    %8 = ttg.convert_layout %7 {ttg.partition = array<i32: 0>} : tensor<128xf32, #ttg.slice<{dim = 1, parent = #linear}>> -> tensor<128xf32, #blocked1> loc(#loc48)
    tt.store %5, %8 {ttg.partition = array<i32: 0>} : tensor<128x!tt.ptr<f32>, #blocked1> loc(#loc48)
    tt.return loc(#loc)
  } loc(#loc)
} loc(#loc)
#loc2 = loc("/projects/kzhou6/hwu27/triton-beta-3-paper-solver-wt/third_party/tlx/tools/sched2tlx/examples/case3_FA_fp16/fa_fwd_nows_fp16.py":28:13)
#loc3 = loc("/projects/kzhou6/hwu27/triton-beta-3-paper-solver-wt/third_party/tlx/tools/sched2tlx/examples/case3_FA_fp16/fa_fwd_nows_fp16.py":29:14)
#loc4 = loc("/projects/kzhou6/hwu27/triton-beta-3-paper-solver-wt/third_party/tlx/tools/sched2tlx/examples/case3_FA_fp16/fa_fwd_nows_fp16.py":30:15)
#loc5 = loc("/projects/kzhou6/hwu27/triton-beta-3-paper-solver-wt/third_party/tlx/tools/sched2tlx/examples/case3_FA_fp16/fa_fwd_nows_fp16.py":31:27)
#loc6 = loc("/projects/kzhou6/hwu27/triton-beta-3-paper-solver-wt/third_party/tlx/tools/sched2tlx/examples/case3_FA_fp16/fa_fwd_nows_fp16.py":31:17)
#loc7 = loc("/projects/kzhou6/hwu27/triton-beta-3-paper-solver-wt/third_party/tlx/tools/sched2tlx/examples/case3_FA_fp16/fa_fwd_nows_fp16.py":32:12)
#loc8 = loc("/projects/kzhou6/hwu27/triton-beta-3-paper-solver-wt/third_party/tlx/tools/sched2tlx/examples/case3_FA_fp16/fa_fwd_nows_fp16.py":33:15)
#loc9 = loc("/projects/kzhou6/hwu27/triton-beta-3-paper-solver-wt/third_party/tlx/tools/sched2tlx/examples/case3_FA_fp16/fa_fwd_nows_fp16.py":35:14)
#loc10 = loc("/projects/kzhou6/hwu27/triton-beta-3-paper-solver-wt/third_party/tlx/tools/sched2tlx/examples/case3_FA_fp16/fa_fwd_nows_fp16.py":37:14)
#loc11 = loc("/projects/kzhou6/hwu27/triton-beta-3-paper-solver-wt/third_party/tlx/tools/sched2tlx/examples/case3_FA_fp16/fa_fwd_nows_fp16.py":39:16)
#loc12 = loc("/projects/kzhou6/hwu27/triton-beta-3-paper-solver-wt/third_party/tlx/tools/sched2tlx/examples/case3_FA_fp16/fa_fwd_nows_fp16.py":41:9)
#loc13 = loc("/projects/kzhou6/hwu27/triton-beta-3-paper-solver-wt/third_party/tlx/tools/sched2tlx/examples/case3_FA_fp16/fa_fwd_nows_fp16.py":45:16)
#loc14 = loc("/projects/kzhou6/hwu27/triton-beta-3-paper-solver-wt/third_party/tlx/tools/sched2tlx/examples/case3_FA_fp16/fa_fwd_nows_fp16.py":46:21)
#loc16 = loc("/projects/kzhou6/hwu27/triton-beta-3-paper-solver-wt/third_party/tlx/tools/sched2tlx/examples/case3_FA_fp16/fa_fwd_nows_fp16.py":53:26)
#loc17 = loc("/projects/kzhou6/hwu27/triton-beta-3-paper-solver-wt/third_party/tlx/tools/sched2tlx/examples/case3_FA_fp16/fa_fwd_nows_fp16.py":50:14)
#loc18 = loc("/projects/kzhou6/hwu27/triton-beta-3-paper-solver-wt/third_party/tlx/tools/sched2tlx/examples/case3_FA_fp16/fa_fwd_nows_fp16.py":55:15)
#loc19 = loc("/projects/kzhou6/hwu27/triton-beta-3-paper-solver-wt/third_party/tlx/tools/sched2tlx/examples/case3_FA_fp16/fa_fwd_nows_fp16.py":46:5)
#loc20 = loc("/projects/kzhou6/hwu27/triton-beta-3-paper-solver-wt/third_party/tlx/tools/sched2tlx/examples/case3_FA_fp16/fa_fwd_nows_fp16.py":47:26)
#loc21 = loc("/projects/kzhou6/hwu27/triton-beta-3-paper-solver-wt/third_party/tlx/tools/sched2tlx/examples/case3_FA_fp16/fa_fwd_nows_fp16.py":47:16)
#loc22 = loc("/projects/kzhou6/hwu27/triton-beta-3-paper-solver-wt/third_party/tlx/tools/sched2tlx/examples/case3_FA_fp16/fa_fwd_nows_fp16.py":48:13)
#loc23 = loc("/projects/kzhou6/hwu27/triton-beta-3-paper-solver-wt/third_party/tlx/tools/sched2tlx/examples/case3_FA_fp16/fa_fwd_nows_fp16.py":49:13)
#loc24 = loc("/projects/kzhou6/hwu27/triton-beta-3-paper-solver-wt/third_party/tlx/tools/sched2tlx/examples/case3_FA_fp16/fa_fwd_nows_fp16.py":50:24)
#loc25 = loc("/projects/kzhou6/hwu27/triton-beta-3-paper-solver-wt/python/triton/language/standard.py":194:16)
#loc26 = loc("/projects/kzhou6/hwu27/triton-beta-3-paper-solver-wt/python/triton/language/standard.py":170:12)
#loc27 = loc("/projects/kzhou6/hwu27/triton-beta-3-paper-solver-wt/third_party/tlx/tools/sched2tlx/examples/case3_FA_fp16/fa_fwd_nows_fp16.py":51:16)
#loc28 = loc("/projects/kzhou6/hwu27/triton-beta-3-paper-solver-wt/third_party/tlx/tools/sched2tlx/examples/case3_FA_fp16/fa_fwd_nows_fp16.py":52:30)
#loc29 = loc("/projects/kzhou6/hwu27/triton-beta-3-paper-solver-wt/third_party/tlx/tools/sched2tlx/examples/case3_FA_fp16/fa_fwd_nows_fp16.py":52:17)
#loc30 = loc("/projects/kzhou6/hwu27/triton-beta-3-paper-solver-wt/third_party/tlx/tools/sched2tlx/examples/case3_FA_fp16/fa_fwd_nows_fp16.py":53:42)
#loc31 = loc("/projects/kzhou6/hwu27/triton-beta-3-paper-solver-wt/third_party/tlx/tools/sched2tlx/examples/case3_FA_fp16/fa_fwd_nows_fp16.py":53:13)
#loc32 = loc("/projects/kzhou6/hwu27/triton-beta-3-paper-solver-wt/python/triton/language/standard.py":313:12)
#loc34 = loc("/projects/kzhou6/hwu27/triton-beta-3-paper-solver-wt/python/triton/language/standard.py":273:12)
#loc35 = loc("/projects/kzhou6/hwu27/triton-beta-3-paper-solver-wt/third_party/tlx/tools/sched2tlx/examples/case3_FA_fp16/fa_fwd_nows_fp16.py":55:22)
#loc36 = loc("/projects/kzhou6/hwu27/triton-beta-3-paper-solver-wt/third_party/tlx/tools/sched2tlx/examples/case3_FA_fp16/fa_fwd_nows_fp16.py":55:49)
#loc37 = loc("/projects/kzhou6/hwu27/triton-beta-3-paper-solver-wt/third_party/tlx/tools/sched2tlx/examples/case3_FA_fp16/fa_fwd_nows_fp16.py":55:43)
#loc38 = loc("/projects/kzhou6/hwu27/triton-beta-3-paper-solver-wt/third_party/tlx/tools/sched2tlx/examples/case3_FA_fp16/fa_fwd_nows_fp16.py":56:15)
#loc39 = loc("/projects/kzhou6/hwu27/triton-beta-3-paper-solver-wt/third_party/tlx/tools/sched2tlx/examples/case3_FA_fp16/fa_fwd_nows_fp16.py":58:17)
#loc40 = loc("/projects/kzhou6/hwu27/triton-beta-3-paper-solver-wt/third_party/tlx/tools/sched2tlx/examples/case3_FA_fp16/fa_fwd_nows_fp16.py":58:11)
#loc41 = loc("/projects/kzhou6/hwu27/triton-beta-3-paper-solver-wt/third_party/tlx/tools/sched2tlx/examples/case3_FA_fp16/fa_fwd_nows_fp16.py":59:36)
#loc42 = loc("/projects/kzhou6/hwu27/triton-beta-3-paper-solver-wt/third_party/tlx/tools/sched2tlx/examples/case3_FA_fp16/fa_fwd_nows_fp16.py":59:5)
#loc43 = loc("/projects/kzhou6/hwu27/triton-beta-3-paper-solver-wt/third_party/tlx/tools/sched2tlx/examples/case3_FA_fp16/fa_fwd_nows_fp16.py":60:32)
#loc44 = loc("/projects/kzhou6/hwu27/triton-beta-3-paper-solver-wt/third_party/tlx/tools/sched2tlx/examples/case3_FA_fp16/fa_fwd_nows_fp16.py":60:14)
#loc45 = loc("/projects/kzhou6/hwu27/triton-beta-3-paper-solver-wt/third_party/tlx/tools/sched2tlx/examples/case3_FA_fp16/fa_fwd_nows_fp16.py":61:14)
#loc46 = loc("/projects/kzhou6/hwu27/triton-beta-3-paper-solver-wt/third_party/tlx/tools/sched2tlx/examples/case3_FA_fp16/fa_fwd_nows_fp16.py":61:46)
#loc47 = loc("/projects/kzhou6/hwu27/triton-beta-3-paper-solver-wt/third_party/tlx/tools/sched2tlx/examples/case3_FA_fp16/fa_fwd_nows_fp16.py":61:40)
#loc48 = loc("/projects/kzhou6/hwu27/triton-beta-3-paper-solver-wt/third_party/tlx/tools/sched2tlx/examples/case3_FA_fp16/fa_fwd_nows_fp16.py":61:5)
#loc57 = loc("pid_m"(#loc2))
#loc58 = loc("pid_bh"(#loc3))
#loc59 = loc("kv_base"(#loc4))
#loc60 = loc("qo_offset"(#loc5))
#loc61 = loc("qo_offset"(#loc6))
#loc62 = loc("rows"(#loc7))
#loc63 = loc("qo_desc"(#loc8))
#loc64 = loc("k_desc"(#loc9))
#loc65 = loc("v_desc"(#loc10))
#loc66 = loc("out_desc"(#loc11))
#loc67 = loc("q"(#loc12))
#loc68 = loc("qk_scale"(#loc13))
#loc70 = loc("p"(#loc16))
#loc71 = loc("qk"(#loc17))
#loc72 = loc("acc"(#loc18))
#loc73 = loc("m_i"(#loc19))
#loc74 = loc("koff"(#loc20))
#loc75 = loc("koff"(#loc21))
#loc76 = loc("k"(#loc22))
#loc77 = loc("v"(#loc23))
#loc78 = loc("qk"(#loc24))
#loc79 = loc("m_ij"(#loc27))
#loc80 = loc("alpha"(#loc28))
#loc81 = loc("alpha"(#loc29))
#loc82 = loc("p"(#loc30))
#loc83 = loc("p"(#loc31))
#loc85 = loc("acc"(#loc35))
#loc86 = loc("acc"(#loc36))
#loc87 = loc("acc"(#loc37))
#loc88 = loc("l_i"(#loc38))
#loc89 = loc("acc"(#loc39))
#loc90 = loc("acc"(#loc40))
#loc91 = loc("offs_m"(#loc43))
#loc92 = loc("offs_m"(#loc44))
#loc93 = loc("l_i"(#loc73))
#loc94 = loc(callsite(#loc25 at #loc69))
#loc96 = loc(callsite(#loc32 at #loc84))
#loc98 = loc("acc"(#loc93))
#loc99 = loc(callsite(#loc26 at #loc94))
#loc100 = loc(callsite(#loc34 at #loc96))


