// -----// IR Dump Before TritonTLXFixup: triton-tlx-fixup{cluster-dims={1,1,1} num-ctas=1 num-warps=4 target=cuda:100 threads-per-warp=32} ('builtin.module' operation) //----- //
#loc = loc("/projects/kzhou6/hwu27/triton-beta-3-paper-solver-wt/third_party/tlx/tools/sched2tlx/examples/case3_FA_fp16_subtiled/fa_fwd_nows_subtiled.py":25:1)
#loc77 = loc("/projects/kzhou6/hwu27/triton-beta-3-paper-solver-wt/python/triton/language/standard.py":177:1)
#loc79 = loc(unknown)
#loc81 = loc("/projects/kzhou6/hwu27/triton-beta-3-paper-solver-wt/python/triton/language/standard.py":169:1)
#loc84 = loc("/projects/kzhou6/hwu27/triton-beta-3-paper-solver-wt/python/triton/language/standard.py":297:1)
#loc87 = loc("/projects/kzhou6/hwu27/triton-beta-3-paper-solver-wt/python/triton/language/standard.py":272:1)
#loc90 = loc("Q"(#loc))
#loc91 = loc("K"(#loc))
#loc92 = loc("V"(#loc))
#loc93 = loc("Out"(#loc))
#loc94 = loc("M_lse"(#loc))
#loc95 = loc("sm_scale"(#loc))
#loc96 = loc("H"(#loc))
#loc97 = loc("N_CTX"(#loc))
#loc157 = loc("input"(#loc77))
#loc158 = loc("a"(#loc81))
#loc159 = loc("b"(#loc81))
#loc160 = loc("input"(#loc84))
#loc161 = loc("a"(#loc87))
#loc162 = loc("b"(#loc87))
module {
  tt.func public @fa_fwd_kernel_nows_subtiled(%Q: !tt.ptr<f16> {tt.divisibility = 16 : i32} loc("Q"(#loc)), %K: !tt.ptr<f16> {tt.divisibility = 16 : i32} loc("K"(#loc)), %V: !tt.ptr<f16> {tt.divisibility = 16 : i32} loc("V"(#loc)), %Out: !tt.ptr<f16> {tt.divisibility = 16 : i32} loc("Out"(#loc)), %M_lse: !tt.ptr<f32> {tt.divisibility = 16 : i32} loc("M_lse"(#loc)), %sm_scale: f32 loc("sm_scale"(#loc)), %H: i32 loc("H"(#loc)), %N_CTX: i32 {tt.divisibility = 16 : i32} loc("N_CTX"(#loc))) attributes {noinline = false} {
    %pid_m = tt.get_program_id x : i32 loc(#loc98)
    %pid_bh = tt.get_program_id y : i32 loc(#loc99)
    %kv_base = arith.muli %pid_bh, %N_CTX : i32 loc(#loc100)
    %qo_offset = arith.constant 128 : i32 loc(#loc101)
    %qo_offset_0 = arith.constant 128 : i32 loc(#loc101)
    %qo_offset_1 = arith.muli %pid_m, %qo_offset_0 : i32 loc(#loc101)
    %qo_offset_2 = arith.addi %kv_base, %qo_offset_1 : i32 loc(#loc102)
    %rows = arith.muli %H, %N_CTX : i32 loc(#loc103)
    %qo_desc = arith.constant 128 : i32 loc(#loc104)
    %qo_desc_3 = arith.constant 128 : i64 loc(#loc104)
    %qo_desc_4 = arith.constant 1 : i64 loc(#loc104)
    %qo_desc_5 = tt.make_tensor_descriptor %Q, [%rows, %qo_desc], [%qo_desc_3, %qo_desc_4] : !tt.ptr<f16>, !tt.tensordesc<64x128xf16> loc(#loc104)
    %k_desc = arith.constant 128 : i32 loc(#loc105)
    %k_desc_6 = arith.constant 128 : i64 loc(#loc105)
    %k_desc_7 = arith.constant 1 : i64 loc(#loc105)
    %k_desc_8 = tt.make_tensor_descriptor %K, [%rows, %k_desc], [%k_desc_6, %k_desc_7] : !tt.ptr<f16>, !tt.tensordesc<64x128xf16> loc(#loc105)
    %v_desc = arith.constant 128 : i32 loc(#loc106)
    %v_desc_9 = arith.constant 128 : i64 loc(#loc106)
    %v_desc_10 = arith.constant 1 : i64 loc(#loc106)
    %v_desc_11 = tt.make_tensor_descriptor %V, [%rows, %v_desc], [%v_desc_9, %v_desc_10] : !tt.ptr<f16>, !tt.tensordesc<64x128xf16> loc(#loc106)
    %out_desc = arith.constant 128 : i32 loc(#loc107)
    %out_desc_12 = arith.constant 128 : i64 loc(#loc107)
    %out_desc_13 = arith.constant 1 : i64 loc(#loc107)
    %out_desc_14 = tt.make_tensor_descriptor %Out, [%rows, %out_desc], [%out_desc_12, %out_desc_13] : !tt.ptr<f16>, !tt.tensordesc<64x128xf16> loc(#loc107)
    %q0 = arith.constant 0 : i32 loc(#loc108)
    %q0_15 = tt.descriptor_load %qo_desc_5[%qo_offset_2, %q0] : !tt.tensordesc<64x128xf16> -> tensor<64x128xf16> loc(#loc108)
    %q1 = arith.constant 64 : i32 loc(#loc109)
    %q1_16 = arith.constant 64 : i32 loc(#loc109)
    %q1_17 = arith.addi %qo_offset_2, %q1_16 : i32 loc(#loc109)
    %q1_18 = arith.constant 0 : i32 loc(#loc110)
    %q1_19 = tt.descriptor_load %qo_desc_5[%q1_17, %q1_18] : !tt.tensordesc<64x128xf16> -> tensor<64x128xf16> loc(#loc110)
    %m_i0 = arith.constant 0xFF800000 : f32 loc(#loc111)
    %m_i0_20 = arith.constant dense<0xFF800000> : tensor<64xf32> loc(#loc111)
    %m_i1 = arith.constant 0xFF800000 : f32 loc(#loc112)
    %m_i1_21 = arith.constant dense<0xFF800000> : tensor<64xf32> loc(#loc112)
    %l_i0 = arith.constant 1.000000e+00 : f32 loc(#loc113)
    %l_i0_22 = arith.constant dense<1.000000e+00> : tensor<64xf32> loc(#loc113)
    %l_i1 = arith.constant 1.000000e+00 : f32 loc(#loc114)
    %l_i1_23 = arith.constant dense<1.000000e+00> : tensor<64xf32> loc(#loc114)
    %acc0 = tt.call @"triton.language.standard.zeros____(0, 0)cconstexpr_64__(0, 1)cconstexpr_128__(1,)cconstexpr_fp32_"() : () -> tensor<64x128xf32> loc(#loc115)
    %acc1 = tt.call @"triton.language.standard.zeros____(0, 0)cconstexpr_64__(0, 1)cconstexpr_128__(1,)cconstexpr_fp32_"() : () -> tensor<64x128xf32> loc(#loc116)
    %qk_scale = arith.constant 1.44269502 : f32 loc(#loc117)
    %qk_scale_24 = arith.constant 1.44269502 : f32 loc(#loc117)
    %qk_scale_25 = arith.mulf %sm_scale, %qk_scale_24 : f32 loc(#loc117)
    %c64_i32 = arith.constant 64 : i32 loc(#loc21)
    %c64_i32_26 = arith.constant 64 : i32 loc(#loc21)
    %0 = arith.divsi %N_CTX, %c64_i32_26 : i32 loc(#loc21)
    %c64_i32_27 = arith.constant 64 : i32 loc(#loc21)
    %c64_i32_28 = arith.constant 64 : i32 loc(#loc21)
    %1 = arith.divsi %N_CTX, %c64_i32_28 : i32 loc(#loc21)
    %c0_i32 = arith.constant 0 : i32 loc(#loc22)
    %c1_i32 = arith.constant 1 : i32 loc(#loc22)
    %2 = arith.bitcast %c0_i32 : i32 to i32 loc(#loc22)
    %3 = arith.bitcast %1 : i32 to i32 loc(#loc22)
    %4 = arith.bitcast %c1_i32 : i32 to i32 loc(#loc22)
    %5 = ub.poison : i32 loc(#loc22)
    %acc1_29:6 = scf.for %kv = %2 to %3 step %4 iter_args(%m_i0_41 = %m_i0_20, %m_i1_42 = %m_i1_21, %l_i0_43 = %l_i0_22, %l_i1_44 = %l_i1_23, %acc0_45 = %acc0, %acc1_46 = %acc1) -> (tensor<64xf32>, tensor<64xf32>, tensor<64xf32>, tensor<64xf32>, tensor<64x128xf32>, tensor<64x128xf32>)  : i32 {
      %koff = arith.constant 64 : i32 loc(#loc119)
      %koff_47 = arith.constant 64 : i32 loc(#loc119)
      %koff_48 = arith.muli %kv, %koff_47 : i32 loc(#loc119)
      %koff_49 = arith.addi %kv_base, %koff_48 : i32 loc(#loc120)
      %k = arith.constant 0 : i32 loc(#loc121)
      %k_50 = tt.descriptor_load %k_desc_8[%koff_49, %k] : !tt.tensordesc<64x128xf16> -> tensor<64x128xf16> loc(#loc121)
      %v = arith.constant 0 : i32 loc(#loc122)
      %v_51 = tt.descriptor_load %v_desc_11[%koff_49, %v] : !tt.tensordesc<64x128xf16> -> tensor<64x128xf16> loc(#loc122)
      %kt = tt.trans %k_50 {order = array<i32: 1, 0>} : tensor<64x128xf16> -> tensor<128x64xf16> loc(#loc123)
      %qk0 = arith.constant 0.000000e+00 : f32 loc(#loc124)
      %qk0_52 = arith.constant dense<0.000000e+00> : tensor<64x64xf32> loc(#loc124)
      %qk0_53 = tt.dot %q0_15, %kt, %qk0_52, inputPrecision = tf32 : tensor<64x128xf16> * tensor<128x64xf16> -> tensor<64x64xf32> loc(#loc124)
      %m_ij0 = tt.call @"triton.language.standard.max__fp32S64_64S__(1,)cconstexpr_1__(2,)cconstexpr_False__(3,)cconstexpr_True__(4,)cconstexpr_False__(5,)cNone"(%qk0_53) : (tensor<64x64xf32>) -> tensor<64xf32> loc(#loc125)
      %m_ij0_54 = tt.splat %qk_scale_25 : f32 -> tensor<64xf32> loc(#loc125)
      %m_ij0_55 = arith.mulf %m_ij0, %m_ij0_54 : tensor<64xf32> loc(#loc125)
      %m_ij0_56 = arith.maxnumf %m_i0_41, %m_ij0_55 : tensor<64xf32> loc(#loc126)
      %alpha0 = arith.subf %m_i0_41, %m_ij0_56 : tensor<64xf32> loc(#loc127)
      %alpha0_57 = math.exp2 %alpha0 : tensor<64xf32> loc(#loc128)
      %p0 = tt.splat %qk_scale_25 : f32 -> tensor<64x64xf32> loc(#loc129)
      %p0_58 = arith.mulf %qk0_53, %p0 : tensor<64x64xf32> loc(#loc129)
      %p0_59 = tt.expand_dims %m_ij0_56 {axis = 1 : i32} : tensor<64xf32> -> tensor<64x1xf32> loc(#loc130)
      %p0_60 = tt.broadcast %p0_59 : tensor<64x1xf32> -> tensor<64x64xf32> loc(#loc129)
      %p0_61 = arith.subf %p0_58, %p0_60 : tensor<64x64xf32> loc(#loc129)
      %p0_62 = math.exp2 %p0_61 : tensor<64x64xf32> loc(#loc131)
      %l_ij0 = tt.call @"triton.language.standard.sum__fp32S64_64S__(1,)cconstexpr_1__(2,)cconstexpr_False__(3,)cNone_(4,)cNone"(%p0_62) : (tensor<64x64xf32>) -> tensor<64xf32> loc(#loc132)
      %acc0_63 = arith.truncf %p0_62 : tensor<64x64xf32> to tensor<64x64xf16> loc(#loc133)
      %acc0_64 = tt.expand_dims %alpha0_57 {axis = 1 : i32} : tensor<64xf32> -> tensor<64x1xf32> loc(#loc134)
      %acc0_65 = tt.broadcast %acc0_64 : tensor<64x1xf32> -> tensor<64x128xf32> loc(#loc135)
      %acc0_66 = arith.mulf %acc0_45, %acc0_65 : tensor<64x128xf32> loc(#loc135)
      %acc0_67 = arith.constant 0.000000e+00 : f32 loc(#loc136)
      %acc0_68 = tt.dot %acc0_63, %v_51, %acc0_66, inputPrecision = tf32 : tensor<64x64xf16> * tensor<64x128xf16> -> tensor<64x128xf32> loc(#loc136)
      %l_i0_69 = arith.mulf %l_i0_43, %alpha0_57 : tensor<64xf32> loc(#loc137)
      %l_i0_70 = arith.addf %l_i0_69, %l_ij0 : tensor<64xf32> loc(#loc137)
      %qk1 = arith.constant 0.000000e+00 : f32 loc(#loc138)
      %qk1_71 = arith.constant dense<0.000000e+00> : tensor<64x64xf32> loc(#loc138)
      %qk1_72 = tt.dot %q1_19, %kt, %qk1_71, inputPrecision = tf32 : tensor<64x128xf16> * tensor<128x64xf16> -> tensor<64x64xf32> loc(#loc138)
      %m_ij1 = tt.call @"triton.language.standard.max__fp32S64_64S__(1,)cconstexpr_1__(2,)cconstexpr_False__(3,)cconstexpr_True__(4,)cconstexpr_False__(5,)cNone"(%qk1_72) : (tensor<64x64xf32>) -> tensor<64xf32> loc(#loc139)
      %m_ij1_73 = tt.splat %qk_scale_25 : f32 -> tensor<64xf32> loc(#loc139)
      %m_ij1_74 = arith.mulf %m_ij1, %m_ij1_73 : tensor<64xf32> loc(#loc139)
      %m_ij1_75 = arith.maxnumf %m_i1_42, %m_ij1_74 : tensor<64xf32> loc(#loc140)
      %alpha1 = arith.subf %m_i1_42, %m_ij1_75 : tensor<64xf32> loc(#loc141)
      %alpha1_76 = math.exp2 %alpha1 : tensor<64xf32> loc(#loc142)
      %p1 = tt.splat %qk_scale_25 : f32 -> tensor<64x64xf32> loc(#loc143)
      %p1_77 = arith.mulf %qk1_72, %p1 : tensor<64x64xf32> loc(#loc143)
      %p1_78 = tt.expand_dims %m_ij1_75 {axis = 1 : i32} : tensor<64xf32> -> tensor<64x1xf32> loc(#loc144)
      %p1_79 = tt.broadcast %p1_78 : tensor<64x1xf32> -> tensor<64x64xf32> loc(#loc143)
      %p1_80 = arith.subf %p1_77, %p1_79 : tensor<64x64xf32> loc(#loc143)
      %p1_81 = math.exp2 %p1_80 : tensor<64x64xf32> loc(#loc145)
      %l_ij1 = tt.call @"triton.language.standard.sum__fp32S64_64S__(1,)cconstexpr_1__(2,)cconstexpr_False__(3,)cNone_(4,)cNone"(%p1_81) : (tensor<64x64xf32>) -> tensor<64xf32> loc(#loc146)
      %acc1_82 = arith.truncf %p1_81 : tensor<64x64xf32> to tensor<64x64xf16> loc(#loc147)
      %acc1_83 = tt.expand_dims %alpha1_76 {axis = 1 : i32} : tensor<64xf32> -> tensor<64x1xf32> loc(#loc148)
      %acc1_84 = tt.broadcast %acc1_83 : tensor<64x1xf32> -> tensor<64x128xf32> loc(#loc149)
      %acc1_85 = arith.mulf %acc1_46, %acc1_84 : tensor<64x128xf32> loc(#loc149)
      %acc1_86 = arith.constant 0.000000e+00 : f32 loc(#loc150)
      %acc1_87 = tt.dot %acc1_82, %v_51, %acc1_85, inputPrecision = tf32 : tensor<64x64xf16> * tensor<64x128xf16> -> tensor<64x128xf32> loc(#loc150)
      %l_i1_88 = arith.mulf %l_i1_44, %alpha1_76 : tensor<64xf32> loc(#loc151)
      %l_i1_89 = arith.addf %l_i1_88, %l_ij1 : tensor<64xf32> loc(#loc151)
      scf.yield %m_ij0_56, %m_ij1_75, %l_i0_70, %l_i1_89, %acc0_68, %acc1_87 : tensor<64xf32>, tensor<64xf32>, tensor<64xf32>, tensor<64xf32>, tensor<64x128xf32>, tensor<64x128xf32> loc(#loc22)
    } loc(#loc167)
    %acc0_30 = tt.expand_dims %acc1_29#2 {axis = 1 : i32} : tensor<64xf32> -> tensor<64x1xf32> loc(#loc152)
    %acc0_31 = tt.broadcast %acc0_30 : tensor<64x1xf32> -> tensor<64x128xf32> loc(#loc153)
    %acc0_32 = arith.divf %acc1_29#4, %acc0_31 : tensor<64x128xf32> loc(#loc153)
    %acc1_33 = tt.expand_dims %acc1_29#3 {axis = 1 : i32} : tensor<64xf32> -> tensor<64x1xf32> loc(#loc154)
    %acc1_34 = tt.broadcast %acc1_33 : tensor<64x1xf32> -> tensor<64x128xf32> loc(#loc155)
    %acc1_35 = arith.divf %acc1_29#5, %acc1_34 : tensor<64x128xf32> loc(#loc155)
    %6 = arith.truncf %acc0_32 : tensor<64x128xf32> to tensor<64x128xf16> loc(#loc60)
    %c0_i32_36 = arith.constant 0 : i32 loc(#loc61)
    tt.descriptor_store %out_desc_14[%qo_offset_2, %c0_i32_36], %6 : !tt.tensordesc<64x128xf16>, tensor<64x128xf16> loc(#loc61)
    %c64_i32_37 = arith.constant 64 : i32 loc(#loc62)
    %c64_i32_38 = arith.constant 64 : i32 loc(#loc62)
    %7 = arith.addi %qo_offset_2, %c64_i32_38 : i32 loc(#loc62)
    %8 = arith.truncf %acc1_35 : tensor<64x128xf32> to tensor<64x128xf16> loc(#loc63)
    %c0_i32_39 = arith.constant 0 : i32 loc(#loc64)
    tt.descriptor_store %out_desc_14[%7, %c0_i32_39], %8 : !tt.tensordesc<64x128xf16>, tensor<64x128xf16> loc(#loc64)
    %offs = tt.make_range {end = 64 : i32, start = 0 : i32} : tensor<64xi32> loc(#loc156)
    %9 = tt.addptr %M_lse, %qo_offset_2 : !tt.ptr<f32>, i32 loc(#loc66)
    %10 = tt.splat %9 : !tt.ptr<f32> -> tensor<64x!tt.ptr<f32>> loc(#loc66)
    %11 = tt.addptr %10, %offs : tensor<64x!tt.ptr<f32>>, tensor<64xi32> loc(#loc66)
    %12 = math.log2 %acc1_29#2 : tensor<64xf32> loc(#loc67)
    %13 = arith.addf %acc1_29#0, %12 : tensor<64xf32> loc(#loc68)
    tt.store %11, %13 : tensor<64x!tt.ptr<f32>> loc(#loc69)
    %14 = tt.addptr %M_lse, %qo_offset_2 : !tt.ptr<f32>, i32 loc(#loc70)
    %c64_i32_40 = arith.constant 64 : i32 loc(#loc70)
    %15 = tt.addptr %14, %c64_i32_40 : !tt.ptr<f32>, i32 loc(#loc70)
    %16 = tt.splat %15 : !tt.ptr<f32> -> tensor<64x!tt.ptr<f32>> loc(#loc70)
    %17 = tt.addptr %16, %offs : tensor<64x!tt.ptr<f32>>, tensor<64xi32> loc(#loc70)
    %18 = math.log2 %acc1_29#3 : tensor<64xf32> loc(#loc71)
    %19 = arith.addf %acc1_29#1, %18 : tensor<64xf32> loc(#loc72)
    tt.store %17, %19 : tensor<64x!tt.ptr<f32>> loc(#loc73)
    tt.return loc(#loc)
  } loc(#loc)
  tt.func private @"triton.language.standard.zeros____(0, 0)cconstexpr_64__(0, 1)cconstexpr_128__(1,)cconstexpr_fp32_"() -> tensor<64x128xf32> attributes {noinline = false} {
    %cst = arith.constant 0.000000e+00 : f32 loc(#loc75)
    %cst_0 = arith.constant dense<0.000000e+00> : tensor<64x128xf32> loc(#loc75)
    tt.return %cst_0 : tensor<64x128xf32> loc(#loc76)
  ^bb1:  // no predecessors
    %0 = ub.poison : tensor<64x128xf32> loc(#loc74)
    tt.return %0 : tensor<64x128xf32> loc(#loc74)
  } loc(#loc74)
  tt.func private @"triton.language.standard.max__fp32S64_64S__(1,)cconstexpr_1__(2,)cconstexpr_False__(3,)cconstexpr_True__(4,)cconstexpr_False__(5,)cNone"(%input: tensor<64x64xf32> loc("input"(#loc77))) -> tensor<64xf32> attributes {noinline = false} {
    %0 = "tt.reduce"(%input) <{axis = 1 : i32, reduction_ordering = "unordered"}> ({
    ^bb0(%arg1: f32 loc(unknown), %arg2: f32 loc(unknown)):
      %2 = tt.call @triton.language.standard._elementwise_max__fp32_fp32__(%arg1, %arg2) : (f32, f32) -> f32 loc(#loc78)
      tt.reduce.return %2 : f32 loc(#loc78)
    }) : (tensor<64x64xf32>) -> tensor<64xf32> loc(#loc78)
    tt.return %0 : tensor<64xf32> loc(#loc80)
  ^bb1:  // no predecessors
    %1 = ub.poison : tensor<64xf32> loc(#loc77)
    tt.return %1 : tensor<64xf32> loc(#loc77)
  } loc(#loc77)
  tt.func private @triton.language.standard._elementwise_max__fp32_fp32__(%a: f32 loc("a"(#loc81)), %b: f32 loc("b"(#loc81))) -> f32 attributes {noinline = false} {
    %0 = arith.maxnumf %a, %b : f32 loc(#loc82)
    tt.return %0 : f32 loc(#loc83)
  ^bb1:  // no predecessors
    %1 = ub.poison : f32 loc(#loc81)
    tt.return %1 : f32 loc(#loc81)
  } loc(#loc81)
  tt.func private @"triton.language.standard.sum__fp32S64_64S__(1,)cconstexpr_1__(2,)cconstexpr_False__(3,)cNone_(4,)cNone"(%input: tensor<64x64xf32> loc("input"(#loc84))) -> tensor<64xf32> attributes {noinline = false} {
    %0 = "tt.reduce"(%input) <{axis = 1 : i32, reduction_ordering = "unordered"}> ({
    ^bb0(%arg1: f32 loc(unknown), %arg2: f32 loc(unknown)):
      %2 = tt.call @triton.language.standard._sum_combine__fp32_fp32__(%arg1, %arg2) : (f32, f32) -> f32 loc(#loc85)
      tt.reduce.return %2 : f32 loc(#loc85)
    }) : (tensor<64x64xf32>) -> tensor<64xf32> loc(#loc85)
    tt.return %0 : tensor<64xf32> loc(#loc86)
  ^bb1:  // no predecessors
    %1 = ub.poison : tensor<64xf32> loc(#loc84)
    tt.return %1 : tensor<64xf32> loc(#loc84)
  } loc(#loc84)
  tt.func private @triton.language.standard._sum_combine__fp32_fp32__(%a: f32 loc("a"(#loc87)), %b: f32 loc("b"(#loc87))) -> f32 attributes {noinline = false} {
    %0 = arith.addf %a, %b : f32 loc(#loc88)
    tt.return %0 : f32 loc(#loc89)
  ^bb1:  // no predecessors
    %1 = ub.poison : f32 loc(#loc87)
    tt.return %1 : f32 loc(#loc87)
  } loc(#loc87)
} loc(#loc)
#loc1 = loc("/projects/kzhou6/hwu27/triton-beta-3-paper-solver-wt/third_party/tlx/tools/sched2tlx/examples/case3_FA_fp16_subtiled/fa_fwd_nows_subtiled.py":28:13)
#loc2 = loc("/projects/kzhou6/hwu27/triton-beta-3-paper-solver-wt/third_party/tlx/tools/sched2tlx/examples/case3_FA_fp16_subtiled/fa_fwd_nows_subtiled.py":29:14)
#loc3 = loc("/projects/kzhou6/hwu27/triton-beta-3-paper-solver-wt/third_party/tlx/tools/sched2tlx/examples/case3_FA_fp16_subtiled/fa_fwd_nows_subtiled.py":30:15)
#loc4 = loc("/projects/kzhou6/hwu27/triton-beta-3-paper-solver-wt/third_party/tlx/tools/sched2tlx/examples/case3_FA_fp16_subtiled/fa_fwd_nows_subtiled.py":31:27)
#loc5 = loc("/projects/kzhou6/hwu27/triton-beta-3-paper-solver-wt/third_party/tlx/tools/sched2tlx/examples/case3_FA_fp16_subtiled/fa_fwd_nows_subtiled.py":31:17)
#loc6 = loc("/projects/kzhou6/hwu27/triton-beta-3-paper-solver-wt/third_party/tlx/tools/sched2tlx/examples/case3_FA_fp16_subtiled/fa_fwd_nows_subtiled.py":32:12)
#loc7 = loc("/projects/kzhou6/hwu27/triton-beta-3-paper-solver-wt/third_party/tlx/tools/sched2tlx/examples/case3_FA_fp16_subtiled/fa_fwd_nows_subtiled.py":33:15)
#loc8 = loc("/projects/kzhou6/hwu27/triton-beta-3-paper-solver-wt/third_party/tlx/tools/sched2tlx/examples/case3_FA_fp16_subtiled/fa_fwd_nows_subtiled.py":35:14)
#loc9 = loc("/projects/kzhou6/hwu27/triton-beta-3-paper-solver-wt/third_party/tlx/tools/sched2tlx/examples/case3_FA_fp16_subtiled/fa_fwd_nows_subtiled.py":37:14)
#loc10 = loc("/projects/kzhou6/hwu27/triton-beta-3-paper-solver-wt/third_party/tlx/tools/sched2tlx/examples/case3_FA_fp16_subtiled/fa_fwd_nows_subtiled.py":39:16)
#loc11 = loc("/projects/kzhou6/hwu27/triton-beta-3-paper-solver-wt/third_party/tlx/tools/sched2tlx/examples/case3_FA_fp16_subtiled/fa_fwd_nows_subtiled.py":41:10)
#loc12 = loc("/projects/kzhou6/hwu27/triton-beta-3-paper-solver-wt/third_party/tlx/tools/sched2tlx/examples/case3_FA_fp16_subtiled/fa_fwd_nows_subtiled.py":42:24)
#loc13 = loc("/projects/kzhou6/hwu27/triton-beta-3-paper-solver-wt/third_party/tlx/tools/sched2tlx/examples/case3_FA_fp16_subtiled/fa_fwd_nows_subtiled.py":42:10)
#loc14 = loc("/projects/kzhou6/hwu27/triton-beta-3-paper-solver-wt/third_party/tlx/tools/sched2tlx/examples/case3_FA_fp16_subtiled/fa_fwd_nows_subtiled.py":43:12)
#loc15 = loc("/projects/kzhou6/hwu27/triton-beta-3-paper-solver-wt/third_party/tlx/tools/sched2tlx/examples/case3_FA_fp16_subtiled/fa_fwd_nows_subtiled.py":44:12)
#loc16 = loc("/projects/kzhou6/hwu27/triton-beta-3-paper-solver-wt/third_party/tlx/tools/sched2tlx/examples/case3_FA_fp16_subtiled/fa_fwd_nows_subtiled.py":45:12)
#loc17 = loc("/projects/kzhou6/hwu27/triton-beta-3-paper-solver-wt/third_party/tlx/tools/sched2tlx/examples/case3_FA_fp16_subtiled/fa_fwd_nows_subtiled.py":46:12)
#loc18 = loc("/projects/kzhou6/hwu27/triton-beta-3-paper-solver-wt/third_party/tlx/tools/sched2tlx/examples/case3_FA_fp16_subtiled/fa_fwd_nows_subtiled.py":47:12)
#loc19 = loc("/projects/kzhou6/hwu27/triton-beta-3-paper-solver-wt/third_party/tlx/tools/sched2tlx/examples/case3_FA_fp16_subtiled/fa_fwd_nows_subtiled.py":48:12)
#loc20 = loc("/projects/kzhou6/hwu27/triton-beta-3-paper-solver-wt/third_party/tlx/tools/sched2tlx/examples/case3_FA_fp16_subtiled/fa_fwd_nows_subtiled.py":49:16)
#loc21 = loc("/projects/kzhou6/hwu27/triton-beta-3-paper-solver-wt/third_party/tlx/tools/sched2tlx/examples/case3_FA_fp16_subtiled/fa_fwd_nows_subtiled.py":50:21)
#loc22 = loc("/projects/kzhou6/hwu27/triton-beta-3-paper-solver-wt/third_party/tlx/tools/sched2tlx/examples/case3_FA_fp16_subtiled/fa_fwd_nows_subtiled.py":50:5)
#loc23 = loc("/projects/kzhou6/hwu27/triton-beta-3-paper-solver-wt/third_party/tlx/tools/sched2tlx/examples/case3_FA_fp16_subtiled/fa_fwd_nows_subtiled.py":51:26)
#loc24 = loc("/projects/kzhou6/hwu27/triton-beta-3-paper-solver-wt/third_party/tlx/tools/sched2tlx/examples/case3_FA_fp16_subtiled/fa_fwd_nows_subtiled.py":51:16)
#loc25 = loc("/projects/kzhou6/hwu27/triton-beta-3-paper-solver-wt/third_party/tlx/tools/sched2tlx/examples/case3_FA_fp16_subtiled/fa_fwd_nows_subtiled.py":52:13)
#loc26 = loc("/projects/kzhou6/hwu27/triton-beta-3-paper-solver-wt/third_party/tlx/tools/sched2tlx/examples/case3_FA_fp16_subtiled/fa_fwd_nows_subtiled.py":53:13)
#loc27 = loc("/projects/kzhou6/hwu27/triton-beta-3-paper-solver-wt/third_party/tlx/tools/sched2tlx/examples/case3_FA_fp16_subtiled/fa_fwd_nows_subtiled.py":54:14)
#loc28 = loc("/projects/kzhou6/hwu27/triton-beta-3-paper-solver-wt/third_party/tlx/tools/sched2tlx/examples/case3_FA_fp16_subtiled/fa_fwd_nows_subtiled.py":55:15)
#loc29 = loc("/projects/kzhou6/hwu27/triton-beta-3-paper-solver-wt/third_party/tlx/tools/sched2tlx/examples/case3_FA_fp16_subtiled/fa_fwd_nows_subtiled.py":56:34)
#loc30 = loc("/projects/kzhou6/hwu27/triton-beta-3-paper-solver-wt/third_party/tlx/tools/sched2tlx/examples/case3_FA_fp16_subtiled/fa_fwd_nows_subtiled.py":56:17)
#loc31 = loc("/projects/kzhou6/hwu27/triton-beta-3-paper-solver-wt/third_party/tlx/tools/sched2tlx/examples/case3_FA_fp16_subtiled/fa_fwd_nows_subtiled.py":57:31)
#loc32 = loc("/projects/kzhou6/hwu27/triton-beta-3-paper-solver-wt/third_party/tlx/tools/sched2tlx/examples/case3_FA_fp16_subtiled/fa_fwd_nows_subtiled.py":57:18)
#loc33 = loc("/projects/kzhou6/hwu27/triton-beta-3-paper-solver-wt/third_party/tlx/tools/sched2tlx/examples/case3_FA_fp16_subtiled/fa_fwd_nows_subtiled.py":58:27)
#loc34 = loc("/projects/kzhou6/hwu27/triton-beta-3-paper-solver-wt/third_party/tlx/tools/sched2tlx/examples/case3_FA_fp16_subtiled/fa_fwd_nows_subtiled.py":58:44)
#loc35 = loc("/projects/kzhou6/hwu27/triton-beta-3-paper-solver-wt/third_party/tlx/tools/sched2tlx/examples/case3_FA_fp16_subtiled/fa_fwd_nows_subtiled.py":58:14)
#loc36 = loc("/projects/kzhou6/hwu27/triton-beta-3-paper-solver-wt/third_party/tlx/tools/sched2tlx/examples/case3_FA_fp16_subtiled/fa_fwd_nows_subtiled.py":59:17)
#loc37 = loc("/projects/kzhou6/hwu27/triton-beta-3-paper-solver-wt/third_party/tlx/tools/sched2tlx/examples/case3_FA_fp16_subtiled/fa_fwd_nows_subtiled.py":60:23)
#loc38 = loc("/projects/kzhou6/hwu27/triton-beta-3-paper-solver-wt/third_party/tlx/tools/sched2tlx/examples/case3_FA_fp16_subtiled/fa_fwd_nows_subtiled.py":60:52)
#loc39 = loc("/projects/kzhou6/hwu27/triton-beta-3-paper-solver-wt/third_party/tlx/tools/sched2tlx/examples/case3_FA_fp16_subtiled/fa_fwd_nows_subtiled.py":60:45)
#loc40 = loc("/projects/kzhou6/hwu27/triton-beta-3-paper-solver-wt/third_party/tlx/tools/sched2tlx/examples/case3_FA_fp16_subtiled/fa_fwd_nows_subtiled.py":60:16)
#loc41 = loc("/projects/kzhou6/hwu27/triton-beta-3-paper-solver-wt/third_party/tlx/tools/sched2tlx/examples/case3_FA_fp16_subtiled/fa_fwd_nows_subtiled.py":61:16)
#loc42 = loc("/projects/kzhou6/hwu27/triton-beta-3-paper-solver-wt/third_party/tlx/tools/sched2tlx/examples/case3_FA_fp16_subtiled/fa_fwd_nows_subtiled.py":63:15)
#loc43 = loc("/projects/kzhou6/hwu27/triton-beta-3-paper-solver-wt/third_party/tlx/tools/sched2tlx/examples/case3_FA_fp16_subtiled/fa_fwd_nows_subtiled.py":64:34)
#loc44 = loc("/projects/kzhou6/hwu27/triton-beta-3-paper-solver-wt/third_party/tlx/tools/sched2tlx/examples/case3_FA_fp16_subtiled/fa_fwd_nows_subtiled.py":64:17)
#loc45 = loc("/projects/kzhou6/hwu27/triton-beta-3-paper-solver-wt/third_party/tlx/tools/sched2tlx/examples/case3_FA_fp16_subtiled/fa_fwd_nows_subtiled.py":65:31)
#loc46 = loc("/projects/kzhou6/hwu27/triton-beta-3-paper-solver-wt/third_party/tlx/tools/sched2tlx/examples/case3_FA_fp16_subtiled/fa_fwd_nows_subtiled.py":65:18)
#loc47 = loc("/projects/kzhou6/hwu27/triton-beta-3-paper-solver-wt/third_party/tlx/tools/sched2tlx/examples/case3_FA_fp16_subtiled/fa_fwd_nows_subtiled.py":66:27)
#loc48 = loc("/projects/kzhou6/hwu27/triton-beta-3-paper-solver-wt/third_party/tlx/tools/sched2tlx/examples/case3_FA_fp16_subtiled/fa_fwd_nows_subtiled.py":66:44)
#loc49 = loc("/projects/kzhou6/hwu27/triton-beta-3-paper-solver-wt/third_party/tlx/tools/sched2tlx/examples/case3_FA_fp16_subtiled/fa_fwd_nows_subtiled.py":66:14)
#loc50 = loc("/projects/kzhou6/hwu27/triton-beta-3-paper-solver-wt/third_party/tlx/tools/sched2tlx/examples/case3_FA_fp16_subtiled/fa_fwd_nows_subtiled.py":67:17)
#loc51 = loc("/projects/kzhou6/hwu27/triton-beta-3-paper-solver-wt/third_party/tlx/tools/sched2tlx/examples/case3_FA_fp16_subtiled/fa_fwd_nows_subtiled.py":68:23)
#loc52 = loc("/projects/kzhou6/hwu27/triton-beta-3-paper-solver-wt/third_party/tlx/tools/sched2tlx/examples/case3_FA_fp16_subtiled/fa_fwd_nows_subtiled.py":68:52)
#loc53 = loc("/projects/kzhou6/hwu27/triton-beta-3-paper-solver-wt/third_party/tlx/tools/sched2tlx/examples/case3_FA_fp16_subtiled/fa_fwd_nows_subtiled.py":68:45)
#loc54 = loc("/projects/kzhou6/hwu27/triton-beta-3-paper-solver-wt/third_party/tlx/tools/sched2tlx/examples/case3_FA_fp16_subtiled/fa_fwd_nows_subtiled.py":68:16)
#loc55 = loc("/projects/kzhou6/hwu27/triton-beta-3-paper-solver-wt/third_party/tlx/tools/sched2tlx/examples/case3_FA_fp16_subtiled/fa_fwd_nows_subtiled.py":69:16)
#loc56 = loc("/projects/kzhou6/hwu27/triton-beta-3-paper-solver-wt/third_party/tlx/tools/sched2tlx/examples/case3_FA_fp16_subtiled/fa_fwd_nows_subtiled.py":71:19)
#loc57 = loc("/projects/kzhou6/hwu27/triton-beta-3-paper-solver-wt/third_party/tlx/tools/sched2tlx/examples/case3_FA_fp16_subtiled/fa_fwd_nows_subtiled.py":71:12)
#loc58 = loc("/projects/kzhou6/hwu27/triton-beta-3-paper-solver-wt/third_party/tlx/tools/sched2tlx/examples/case3_FA_fp16_subtiled/fa_fwd_nows_subtiled.py":72:19)
#loc59 = loc("/projects/kzhou6/hwu27/triton-beta-3-paper-solver-wt/third_party/tlx/tools/sched2tlx/examples/case3_FA_fp16_subtiled/fa_fwd_nows_subtiled.py":72:12)
#loc60 = loc("/projects/kzhou6/hwu27/triton-beta-3-paper-solver-wt/third_party/tlx/tools/sched2tlx/examples/case3_FA_fp16_subtiled/fa_fwd_nows_subtiled.py":73:36)
#loc61 = loc("/projects/kzhou6/hwu27/triton-beta-3-paper-solver-wt/third_party/tlx/tools/sched2tlx/examples/case3_FA_fp16_subtiled/fa_fwd_nows_subtiled.py":73:5)
#loc62 = loc("/projects/kzhou6/hwu27/triton-beta-3-paper-solver-wt/third_party/tlx/tools/sched2tlx/examples/case3_FA_fp16_subtiled/fa_fwd_nows_subtiled.py":74:21)
#loc63 = loc("/projects/kzhou6/hwu27/triton-beta-3-paper-solver-wt/third_party/tlx/tools/sched2tlx/examples/case3_FA_fp16_subtiled/fa_fwd_nows_subtiled.py":74:44)
#loc64 = loc("/projects/kzhou6/hwu27/triton-beta-3-paper-solver-wt/third_party/tlx/tools/sched2tlx/examples/case3_FA_fp16_subtiled/fa_fwd_nows_subtiled.py":74:5)
#loc65 = loc("/projects/kzhou6/hwu27/triton-beta-3-paper-solver-wt/third_party/tlx/tools/sched2tlx/examples/case3_FA_fp16_subtiled/fa_fwd_nows_subtiled.py":75:12)
#loc66 = loc("/projects/kzhou6/hwu27/triton-beta-3-paper-solver-wt/third_party/tlx/tools/sched2tlx/examples/case3_FA_fp16_subtiled/fa_fwd_nows_subtiled.py":76:14)
#loc67 = loc("/projects/kzhou6/hwu27/triton-beta-3-paper-solver-wt/third_party/tlx/tools/sched2tlx/examples/case3_FA_fp16_subtiled/fa_fwd_nows_subtiled.py":76:47)
#loc68 = loc("/projects/kzhou6/hwu27/triton-beta-3-paper-solver-wt/third_party/tlx/tools/sched2tlx/examples/case3_FA_fp16_subtiled/fa_fwd_nows_subtiled.py":76:40)
#loc69 = loc("/projects/kzhou6/hwu27/triton-beta-3-paper-solver-wt/third_party/tlx/tools/sched2tlx/examples/case3_FA_fp16_subtiled/fa_fwd_nows_subtiled.py":76:5)
#loc70 = loc("/projects/kzhou6/hwu27/triton-beta-3-paper-solver-wt/third_party/tlx/tools/sched2tlx/examples/case3_FA_fp16_subtiled/fa_fwd_nows_subtiled.py":77:14)
#loc71 = loc("/projects/kzhou6/hwu27/triton-beta-3-paper-solver-wt/third_party/tlx/tools/sched2tlx/examples/case3_FA_fp16_subtiled/fa_fwd_nows_subtiled.py":77:55)
#loc72 = loc("/projects/kzhou6/hwu27/triton-beta-3-paper-solver-wt/third_party/tlx/tools/sched2tlx/examples/case3_FA_fp16_subtiled/fa_fwd_nows_subtiled.py":77:48)
#loc73 = loc("/projects/kzhou6/hwu27/triton-beta-3-paper-solver-wt/third_party/tlx/tools/sched2tlx/examples/case3_FA_fp16_subtiled/fa_fwd_nows_subtiled.py":77:5)
#loc74 = loc("/projects/kzhou6/hwu27/triton-beta-3-paper-solver-wt/python/triton/language/standard.py":120:1)
#loc75 = loc("/projects/kzhou6/hwu27/triton-beta-3-paper-solver-wt/python/triton/language/standard.py":129:12)
#loc76 = loc("/projects/kzhou6/hwu27/triton-beta-3-paper-solver-wt/python/triton/language/standard.py":129:5)
#loc78 = loc("/projects/kzhou6/hwu27/triton-beta-3-paper-solver-wt/python/triton/language/standard.py":194:16)
#loc80 = loc("/projects/kzhou6/hwu27/triton-beta-3-paper-solver-wt/python/triton/language/standard.py":194:9)
#loc82 = loc("/projects/kzhou6/hwu27/triton-beta-3-paper-solver-wt/python/triton/language/standard.py":170:12)
#loc83 = loc("/projects/kzhou6/hwu27/triton-beta-3-paper-solver-wt/python/triton/language/standard.py":170:5)
#loc85 = loc("/projects/kzhou6/hwu27/triton-beta-3-paper-solver-wt/python/triton/language/standard.py":313:12)
#loc86 = loc("/projects/kzhou6/hwu27/triton-beta-3-paper-solver-wt/python/triton/language/standard.py":313:5)
#loc88 = loc("/projects/kzhou6/hwu27/triton-beta-3-paper-solver-wt/python/triton/language/standard.py":273:12)
#loc89 = loc("/projects/kzhou6/hwu27/triton-beta-3-paper-solver-wt/python/triton/language/standard.py":273:5)
#loc98 = loc("pid_m"(#loc1))
#loc99 = loc("pid_bh"(#loc2))
#loc100 = loc("kv_base"(#loc3))
#loc101 = loc("qo_offset"(#loc4))
#loc102 = loc("qo_offset"(#loc5))
#loc103 = loc("rows"(#loc6))
#loc104 = loc("qo_desc"(#loc7))
#loc105 = loc("k_desc"(#loc8))
#loc106 = loc("v_desc"(#loc9))
#loc107 = loc("out_desc"(#loc10))
#loc108 = loc("q0"(#loc11))
#loc109 = loc("q1"(#loc12))
#loc110 = loc("q1"(#loc13))
#loc111 = loc("m_i0"(#loc14))
#loc112 = loc("m_i1"(#loc15))
#loc113 = loc("l_i0"(#loc16))
#loc114 = loc("l_i1"(#loc17))
#loc115 = loc("acc0"(#loc18))
#loc116 = loc("acc1"(#loc19))
#loc117 = loc("qk_scale"(#loc20))
#loc118 = loc("m_i0"(#loc22))
#loc119 = loc("koff"(#loc23))
#loc120 = loc("koff"(#loc24))
#loc121 = loc("k"(#loc25))
#loc122 = loc("v"(#loc26))
#loc123 = loc("kt"(#loc27))
#loc124 = loc("qk0"(#loc28))
#loc125 = loc("m_ij0"(#loc29))
#loc126 = loc("m_ij0"(#loc30))
#loc127 = loc("alpha0"(#loc31))
#loc128 = loc("alpha0"(#loc32))
#loc129 = loc("p0"(#loc33))
#loc130 = loc("p0"(#loc34))
#loc131 = loc("p0"(#loc35))
#loc132 = loc("l_ij0"(#loc36))
#loc133 = loc("acc0"(#loc37))
#loc134 = loc("acc0"(#loc38))
#loc135 = loc("acc0"(#loc39))
#loc136 = loc("acc0"(#loc40))
#loc137 = loc("l_i0"(#loc41))
#loc138 = loc("qk1"(#loc42))
#loc139 = loc("m_ij1"(#loc43))
#loc140 = loc("m_ij1"(#loc44))
#loc141 = loc("alpha1"(#loc45))
#loc142 = loc("alpha1"(#loc46))
#loc143 = loc("p1"(#loc47))
#loc144 = loc("p1"(#loc48))
#loc145 = loc("p1"(#loc49))
#loc146 = loc("l_ij1"(#loc50))
#loc147 = loc("acc1"(#loc51))
#loc148 = loc("acc1"(#loc52))
#loc149 = loc("acc1"(#loc53))
#loc150 = loc("acc1"(#loc54))
#loc151 = loc("l_i1"(#loc55))
#loc152 = loc("acc0"(#loc56))
#loc153 = loc("acc0"(#loc57))
#loc154 = loc("acc1"(#loc58))
#loc155 = loc("acc1"(#loc59))
#loc156 = loc("offs"(#loc65))
#loc163 = loc("m_i1"(#loc118))
#loc164 = loc("l_i0"(#loc163))
#loc165 = loc("l_i1"(#loc164))
#loc166 = loc("acc0"(#loc165))
#loc167 = loc("acc1"(#loc166))


// -----// IR Dump Before InlinerPass: inline{default-pipeline=canonicalize inlining-threshold=4294967295 max-iterations=4 } ('builtin.module' operation) //----- //
#loc = loc("/projects/kzhou6/hwu27/triton-beta-3-paper-solver-wt/third_party/tlx/tools/sched2tlx/examples/case3_FA_fp16_subtiled/fa_fwd_nows_subtiled.py":25:1)
#loc77 = loc("/projects/kzhou6/hwu27/triton-beta-3-paper-solver-wt/python/triton/language/standard.py":177:1)
#loc79 = loc(unknown)
#loc81 = loc("/projects/kzhou6/hwu27/triton-beta-3-paper-solver-wt/python/triton/language/standard.py":169:1)
#loc84 = loc("/projects/kzhou6/hwu27/triton-beta-3-paper-solver-wt/python/triton/language/standard.py":297:1)
#loc87 = loc("/projects/kzhou6/hwu27/triton-beta-3-paper-solver-wt/python/triton/language/standard.py":272:1)
#loc90 = loc("Q"(#loc))
#loc91 = loc("K"(#loc))
#loc92 = loc("V"(#loc))
#loc93 = loc("Out"(#loc))
#loc94 = loc("M_lse"(#loc))
#loc95 = loc("sm_scale"(#loc))
#loc96 = loc("H"(#loc))
#loc97 = loc("N_CTX"(#loc))
#loc157 = loc("input"(#loc77))
#loc158 = loc("a"(#loc81))
#loc159 = loc("b"(#loc81))
#loc160 = loc("input"(#loc84))
#loc161 = loc("a"(#loc87))
#loc162 = loc("b"(#loc87))
module {
  tt.func public @fa_fwd_kernel_nows_subtiled(%Q: !tt.ptr<f16> {tt.divisibility = 16 : i32} loc("Q"(#loc)), %K: !tt.ptr<f16> {tt.divisibility = 16 : i32} loc("K"(#loc)), %V: !tt.ptr<f16> {tt.divisibility = 16 : i32} loc("V"(#loc)), %Out: !tt.ptr<f16> {tt.divisibility = 16 : i32} loc("Out"(#loc)), %M_lse: !tt.ptr<f32> {tt.divisibility = 16 : i32} loc("M_lse"(#loc)), %sm_scale: f32 loc("sm_scale"(#loc)), %H: i32 loc("H"(#loc)), %N_CTX: i32 {tt.divisibility = 16 : i32} loc("N_CTX"(#loc))) attributes {noinline = false} {
    %pid_m = tt.get_program_id x : i32 loc(#loc98)
    %pid_bh = tt.get_program_id y : i32 loc(#loc99)
    %kv_base = arith.muli %pid_bh, %N_CTX : i32 loc(#loc100)
    %qo_offset = arith.constant 128 : i32 loc(#loc101)
    %qo_offset_0 = arith.constant 128 : i32 loc(#loc101)
    %qo_offset_1 = arith.muli %pid_m, %qo_offset_0 : i32 loc(#loc101)
    %qo_offset_2 = arith.addi %kv_base, %qo_offset_1 : i32 loc(#loc102)
    %rows = arith.muli %H, %N_CTX : i32 loc(#loc103)
    %qo_desc = arith.constant 128 : i32 loc(#loc104)
    %qo_desc_3 = arith.constant 128 : i64 loc(#loc104)
    %qo_desc_4 = arith.constant 1 : i64 loc(#loc104)
    %qo_desc_5 = tt.make_tensor_descriptor %Q, [%rows, %qo_desc], [%qo_desc_3, %qo_desc_4] : !tt.ptr<f16>, !tt.tensordesc<64x128xf16> loc(#loc104)
    %k_desc = arith.constant 128 : i32 loc(#loc105)
    %k_desc_6 = arith.constant 128 : i64 loc(#loc105)
    %k_desc_7 = arith.constant 1 : i64 loc(#loc105)
    %k_desc_8 = tt.make_tensor_descriptor %K, [%rows, %k_desc], [%k_desc_6, %k_desc_7] : !tt.ptr<f16>, !tt.tensordesc<64x128xf16> loc(#loc105)
    %v_desc = arith.constant 128 : i32 loc(#loc106)
    %v_desc_9 = arith.constant 128 : i64 loc(#loc106)
    %v_desc_10 = arith.constant 1 : i64 loc(#loc106)
    %v_desc_11 = tt.make_tensor_descriptor %V, [%rows, %v_desc], [%v_desc_9, %v_desc_10] : !tt.ptr<f16>, !tt.tensordesc<64x128xf16> loc(#loc106)
    %out_desc = arith.constant 128 : i32 loc(#loc107)
    %out_desc_12 = arith.constant 128 : i64 loc(#loc107)
    %out_desc_13 = arith.constant 1 : i64 loc(#loc107)
    %out_desc_14 = tt.make_tensor_descriptor %Out, [%rows, %out_desc], [%out_desc_12, %out_desc_13] : !tt.ptr<f16>, !tt.tensordesc<64x128xf16> loc(#loc107)
    %q0 = arith.constant 0 : i32 loc(#loc108)
    %q0_15 = tt.descriptor_load %qo_desc_5[%qo_offset_2, %q0] : !tt.tensordesc<64x128xf16> -> tensor<64x128xf16> loc(#loc108)
    %q1 = arith.constant 64 : i32 loc(#loc109)
    %q1_16 = arith.constant 64 : i32 loc(#loc109)
    %q1_17 = arith.addi %qo_offset_2, %q1_16 : i32 loc(#loc109)
    %q1_18 = arith.constant 0 : i32 loc(#loc110)
    %q1_19 = tt.descriptor_load %qo_desc_5[%q1_17, %q1_18] : !tt.tensordesc<64x128xf16> -> tensor<64x128xf16> loc(#loc110)
    %m_i0 = arith.constant 0xFF800000 : f32 loc(#loc111)
    %m_i0_20 = arith.constant dense<0xFF800000> : tensor<64xf32> loc(#loc111)
    %m_i1 = arith.constant 0xFF800000 : f32 loc(#loc112)
    %m_i1_21 = arith.constant dense<0xFF800000> : tensor<64xf32> loc(#loc112)
    %l_i0 = arith.constant 1.000000e+00 : f32 loc(#loc113)
    %l_i0_22 = arith.constant dense<1.000000e+00> : tensor<64xf32> loc(#loc113)
    %l_i1 = arith.constant 1.000000e+00 : f32 loc(#loc114)
    %l_i1_23 = arith.constant dense<1.000000e+00> : tensor<64xf32> loc(#loc114)
    %acc0 = tt.call @"triton.language.standard.zeros____(0, 0)cconstexpr_64__(0, 1)cconstexpr_128__(1,)cconstexpr_fp32_"() : () -> tensor<64x128xf32> loc(#loc115)
    %acc1 = tt.call @"triton.language.standard.zeros____(0, 0)cconstexpr_64__(0, 1)cconstexpr_128__(1,)cconstexpr_fp32_"() : () -> tensor<64x128xf32> loc(#loc116)
    %qk_scale = arith.constant 1.44269502 : f32 loc(#loc117)
    %qk_scale_24 = arith.constant 1.44269502 : f32 loc(#loc117)
    %qk_scale_25 = arith.mulf %sm_scale, %qk_scale_24 : f32 loc(#loc117)
    %c64_i32 = arith.constant 64 : i32 loc(#loc21)
    %c64_i32_26 = arith.constant 64 : i32 loc(#loc21)
    %0 = arith.divsi %N_CTX, %c64_i32_26 : i32 loc(#loc21)
    %c64_i32_27 = arith.constant 64 : i32 loc(#loc21)
    %c64_i32_28 = arith.constant 64 : i32 loc(#loc21)
    %1 = arith.divsi %N_CTX, %c64_i32_28 : i32 loc(#loc21)
    %c0_i32 = arith.constant 0 : i32 loc(#loc22)
    %c1_i32 = arith.constant 1 : i32 loc(#loc22)
    %2 = arith.bitcast %c0_i32 : i32 to i32 loc(#loc22)
    %3 = arith.bitcast %1 : i32 to i32 loc(#loc22)
    %4 = arith.bitcast %c1_i32 : i32 to i32 loc(#loc22)
    %5 = ub.poison : i32 loc(#loc22)
    %acc1_29:6 = scf.for %kv = %2 to %3 step %4 iter_args(%m_i0_41 = %m_i0_20, %m_i1_42 = %m_i1_21, %l_i0_43 = %l_i0_22, %l_i1_44 = %l_i1_23, %acc0_45 = %acc0, %acc1_46 = %acc1) -> (tensor<64xf32>, tensor<64xf32>, tensor<64xf32>, tensor<64xf32>, tensor<64x128xf32>, tensor<64x128xf32>)  : i32 {
      %koff = arith.constant 64 : i32 loc(#loc119)
      %koff_47 = arith.constant 64 : i32 loc(#loc119)
      %koff_48 = arith.muli %kv, %koff_47 : i32 loc(#loc119)
      %koff_49 = arith.addi %kv_base, %koff_48 : i32 loc(#loc120)
      %k = arith.constant 0 : i32 loc(#loc121)
      %k_50 = tt.descriptor_load %k_desc_8[%koff_49, %k] : !tt.tensordesc<64x128xf16> -> tensor<64x128xf16> loc(#loc121)
      %v = arith.constant 0 : i32 loc(#loc122)
      %v_51 = tt.descriptor_load %v_desc_11[%koff_49, %v] : !tt.tensordesc<64x128xf16> -> tensor<64x128xf16> loc(#loc122)
      %kt = tt.trans %k_50 {order = array<i32: 1, 0>} : tensor<64x128xf16> -> tensor<128x64xf16> loc(#loc123)
      %qk0 = arith.constant 0.000000e+00 : f32 loc(#loc124)
      %qk0_52 = arith.constant dense<0.000000e+00> : tensor<64x64xf32> loc(#loc124)
      %qk0_53 = tt.dot %q0_15, %kt, %qk0_52, inputPrecision = tf32 : tensor<64x128xf16> * tensor<128x64xf16> -> tensor<64x64xf32> loc(#loc124)
      %m_ij0 = tt.call @"triton.language.standard.max__fp32S64_64S__(1,)cconstexpr_1__(2,)cconstexpr_False__(3,)cconstexpr_True__(4,)cconstexpr_False__(5,)cNone"(%qk0_53) : (tensor<64x64xf32>) -> tensor<64xf32> loc(#loc125)
      %m_ij0_54 = tt.splat %qk_scale_25 : f32 -> tensor<64xf32> loc(#loc125)
      %m_ij0_55 = arith.mulf %m_ij0, %m_ij0_54 : tensor<64xf32> loc(#loc125)
      %m_ij0_56 = arith.maxnumf %m_i0_41, %m_ij0_55 : tensor<64xf32> loc(#loc126)
      %alpha0 = arith.subf %m_i0_41, %m_ij0_56 : tensor<64xf32> loc(#loc127)
      %alpha0_57 = math.exp2 %alpha0 : tensor<64xf32> loc(#loc128)
      %p0 = tt.splat %qk_scale_25 : f32 -> tensor<64x64xf32> loc(#loc129)
      %p0_58 = arith.mulf %qk0_53, %p0 : tensor<64x64xf32> loc(#loc129)
      %p0_59 = tt.expand_dims %m_ij0_56 {axis = 1 : i32} : tensor<64xf32> -> tensor<64x1xf32> loc(#loc130)
      %p0_60 = tt.broadcast %p0_59 : tensor<64x1xf32> -> tensor<64x64xf32> loc(#loc129)
      %p0_61 = arith.subf %p0_58, %p0_60 : tensor<64x64xf32> loc(#loc129)
      %p0_62 = math.exp2 %p0_61 : tensor<64x64xf32> loc(#loc131)
      %l_ij0 = tt.call @"triton.language.standard.sum__fp32S64_64S__(1,)cconstexpr_1__(2,)cconstexpr_False__(3,)cNone_(4,)cNone"(%p0_62) : (tensor<64x64xf32>) -> tensor<64xf32> loc(#loc132)
      %acc0_63 = arith.truncf %p0_62 : tensor<64x64xf32> to tensor<64x64xf16> loc(#loc133)
      %acc0_64 = tt.expand_dims %alpha0_57 {axis = 1 : i32} : tensor<64xf32> -> tensor<64x1xf32> loc(#loc134)
      %acc0_65 = tt.broadcast %acc0_64 : tensor<64x1xf32> -> tensor<64x128xf32> loc(#loc135)
      %acc0_66 = arith.mulf %acc0_45, %acc0_65 : tensor<64x128xf32> loc(#loc135)
      %acc0_67 = arith.constant 0.000000e+00 : f32 loc(#loc136)
      %acc0_68 = tt.dot %acc0_63, %v_51, %acc0_66, inputPrecision = tf32 : tensor<64x64xf16> * tensor<64x128xf16> -> tensor<64x128xf32> loc(#loc136)
      %l_i0_69 = arith.mulf %l_i0_43, %alpha0_57 : tensor<64xf32> loc(#loc137)
      %l_i0_70 = arith.addf %l_i0_69, %l_ij0 : tensor<64xf32> loc(#loc137)
      %qk1 = arith.constant 0.000000e+00 : f32 loc(#loc138)
      %qk1_71 = arith.constant dense<0.000000e+00> : tensor<64x64xf32> loc(#loc138)
      %qk1_72 = tt.dot %q1_19, %kt, %qk1_71, inputPrecision = tf32 : tensor<64x128xf16> * tensor<128x64xf16> -> tensor<64x64xf32> loc(#loc138)
      %m_ij1 = tt.call @"triton.language.standard.max__fp32S64_64S__(1,)cconstexpr_1__(2,)cconstexpr_False__(3,)cconstexpr_True__(4,)cconstexpr_False__(5,)cNone"(%qk1_72) : (tensor<64x64xf32>) -> tensor<64xf32> loc(#loc139)
      %m_ij1_73 = tt.splat %qk_scale_25 : f32 -> tensor<64xf32> loc(#loc139)
      %m_ij1_74 = arith.mulf %m_ij1, %m_ij1_73 : tensor<64xf32> loc(#loc139)
      %m_ij1_75 = arith.maxnumf %m_i1_42, %m_ij1_74 : tensor<64xf32> loc(#loc140)
      %alpha1 = arith.subf %m_i1_42, %m_ij1_75 : tensor<64xf32> loc(#loc141)
      %alpha1_76 = math.exp2 %alpha1 : tensor<64xf32> loc(#loc142)
      %p1 = tt.splat %qk_scale_25 : f32 -> tensor<64x64xf32> loc(#loc143)
      %p1_77 = arith.mulf %qk1_72, %p1 : tensor<64x64xf32> loc(#loc143)
      %p1_78 = tt.expand_dims %m_ij1_75 {axis = 1 : i32} : tensor<64xf32> -> tensor<64x1xf32> loc(#loc144)
      %p1_79 = tt.broadcast %p1_78 : tensor<64x1xf32> -> tensor<64x64xf32> loc(#loc143)
      %p1_80 = arith.subf %p1_77, %p1_79 : tensor<64x64xf32> loc(#loc143)
      %p1_81 = math.exp2 %p1_80 : tensor<64x64xf32> loc(#loc145)
      %l_ij1 = tt.call @"triton.language.standard.sum__fp32S64_64S__(1,)cconstexpr_1__(2,)cconstexpr_False__(3,)cNone_(4,)cNone"(%p1_81) : (tensor<64x64xf32>) -> tensor<64xf32> loc(#loc146)
      %acc1_82 = arith.truncf %p1_81 : tensor<64x64xf32> to tensor<64x64xf16> loc(#loc147)
      %acc1_83 = tt.expand_dims %alpha1_76 {axis = 1 : i32} : tensor<64xf32> -> tensor<64x1xf32> loc(#loc148)
      %acc1_84 = tt.broadcast %acc1_83 : tensor<64x1xf32> -> tensor<64x128xf32> loc(#loc149)
      %acc1_85 = arith.mulf %acc1_46, %acc1_84 : tensor<64x128xf32> loc(#loc149)
      %acc1_86 = arith.constant 0.000000e+00 : f32 loc(#loc150)
      %acc1_87 = tt.dot %acc1_82, %v_51, %acc1_85, inputPrecision = tf32 : tensor<64x64xf16> * tensor<64x128xf16> -> tensor<64x128xf32> loc(#loc150)
      %l_i1_88 = arith.mulf %l_i1_44, %alpha1_76 : tensor<64xf32> loc(#loc151)
      %l_i1_89 = arith.addf %l_i1_88, %l_ij1 : tensor<64xf32> loc(#loc151)
      scf.yield %m_ij0_56, %m_ij1_75, %l_i0_70, %l_i1_89, %acc0_68, %acc1_87 : tensor<64xf32>, tensor<64xf32>, tensor<64xf32>, tensor<64xf32>, tensor<64x128xf32>, tensor<64x128xf32> loc(#loc22)
    } loc(#loc167)
    %acc0_30 = tt.expand_dims %acc1_29#2 {axis = 1 : i32} : tensor<64xf32> -> tensor<64x1xf32> loc(#loc152)
    %acc0_31 = tt.broadcast %acc0_30 : tensor<64x1xf32> -> tensor<64x128xf32> loc(#loc153)
    %acc0_32 = arith.divf %acc1_29#4, %acc0_31 : tensor<64x128xf32> loc(#loc153)
    %acc1_33 = tt.expand_dims %acc1_29#3 {axis = 1 : i32} : tensor<64xf32> -> tensor<64x1xf32> loc(#loc154)
    %acc1_34 = tt.broadcast %acc1_33 : tensor<64x1xf32> -> tensor<64x128xf32> loc(#loc155)
    %acc1_35 = arith.divf %acc1_29#5, %acc1_34 : tensor<64x128xf32> loc(#loc155)
    %6 = arith.truncf %acc0_32 : tensor<64x128xf32> to tensor<64x128xf16> loc(#loc60)
    %c0_i32_36 = arith.constant 0 : i32 loc(#loc61)
    tt.descriptor_store %out_desc_14[%qo_offset_2, %c0_i32_36], %6 : !tt.tensordesc<64x128xf16>, tensor<64x128xf16> loc(#loc61)
    %c64_i32_37 = arith.constant 64 : i32 loc(#loc62)
    %c64_i32_38 = arith.constant 64 : i32 loc(#loc62)
    %7 = arith.addi %qo_offset_2, %c64_i32_38 : i32 loc(#loc62)
    %8 = arith.truncf %acc1_35 : tensor<64x128xf32> to tensor<64x128xf16> loc(#loc63)
    %c0_i32_39 = arith.constant 0 : i32 loc(#loc64)
    tt.descriptor_store %out_desc_14[%7, %c0_i32_39], %8 : !tt.tensordesc<64x128xf16>, tensor<64x128xf16> loc(#loc64)
    %offs = tt.make_range {end = 64 : i32, start = 0 : i32} : tensor<64xi32> loc(#loc156)
    %9 = tt.addptr %M_lse, %qo_offset_2 : !tt.ptr<f32>, i32 loc(#loc66)
    %10 = tt.splat %9 : !tt.ptr<f32> -> tensor<64x!tt.ptr<f32>> loc(#loc66)
    %11 = tt.addptr %10, %offs : tensor<64x!tt.ptr<f32>>, tensor<64xi32> loc(#loc66)
    %12 = math.log2 %acc1_29#2 : tensor<64xf32> loc(#loc67)
    %13 = arith.addf %acc1_29#0, %12 : tensor<64xf32> loc(#loc68)
    tt.store %11, %13 : tensor<64x!tt.ptr<f32>> loc(#loc69)
    %14 = tt.addptr %M_lse, %qo_offset_2 : !tt.ptr<f32>, i32 loc(#loc70)
    %c64_i32_40 = arith.constant 64 : i32 loc(#loc70)
    %15 = tt.addptr %14, %c64_i32_40 : !tt.ptr<f32>, i32 loc(#loc70)
    %16 = tt.splat %15 : !tt.ptr<f32> -> tensor<64x!tt.ptr<f32>> loc(#loc70)
    %17 = tt.addptr %16, %offs : tensor<64x!tt.ptr<f32>>, tensor<64xi32> loc(#loc70)
    %18 = math.log2 %acc1_29#3 : tensor<64xf32> loc(#loc71)
    %19 = arith.addf %acc1_29#1, %18 : tensor<64xf32> loc(#loc72)
    tt.store %17, %19 : tensor<64x!tt.ptr<f32>> loc(#loc73)
    tt.return loc(#loc)
  } loc(#loc)
  tt.func private @"triton.language.standard.zeros____(0, 0)cconstexpr_64__(0, 1)cconstexpr_128__(1,)cconstexpr_fp32_"() -> tensor<64x128xf32> attributes {noinline = false} {
    %cst = arith.constant 0.000000e+00 : f32 loc(#loc75)
    %cst_0 = arith.constant dense<0.000000e+00> : tensor<64x128xf32> loc(#loc75)
    tt.return %cst_0 : tensor<64x128xf32> loc(#loc76)
  ^bb1:  // no predecessors
    %0 = ub.poison : tensor<64x128xf32> loc(#loc74)
    tt.return %0 : tensor<64x128xf32> loc(#loc74)
  } loc(#loc74)
  tt.func private @"triton.language.standard.max__fp32S64_64S__(1,)cconstexpr_1__(2,)cconstexpr_False__(3,)cconstexpr_True__(4,)cconstexpr_False__(5,)cNone"(%input: tensor<64x64xf32> loc("input"(#loc77))) -> tensor<64xf32> attributes {noinline = false} {
    %0 = "tt.reduce"(%input) <{axis = 1 : i32, reduction_ordering = "unordered"}> ({
    ^bb0(%arg1: f32 loc(unknown), %arg2: f32 loc(unknown)):
      %2 = tt.call @triton.language.standard._elementwise_max__fp32_fp32__(%arg1, %arg2) : (f32, f32) -> f32 loc(#loc78)
      tt.reduce.return %2 : f32 loc(#loc78)
    }) : (tensor<64x64xf32>) -> tensor<64xf32> loc(#loc78)
    tt.return %0 : tensor<64xf32> loc(#loc80)
  ^bb1:  // no predecessors
    %1 = ub.poison : tensor<64xf32> loc(#loc77)
    tt.return %1 : tensor<64xf32> loc(#loc77)
  } loc(#loc77)
  tt.func private @triton.language.standard._elementwise_max__fp32_fp32__(%a: f32 loc("a"(#loc81)), %b: f32 loc("b"(#loc81))) -> f32 attributes {noinline = false} {
    %0 = arith.maxnumf %a, %b : f32 loc(#loc82)
    tt.return %0 : f32 loc(#loc83)
  ^bb1:  // no predecessors
    %1 = ub.poison : f32 loc(#loc81)
    tt.return %1 : f32 loc(#loc81)
  } loc(#loc81)
  tt.func private @"triton.language.standard.sum__fp32S64_64S__(1,)cconstexpr_1__(2,)cconstexpr_False__(3,)cNone_(4,)cNone"(%input: tensor<64x64xf32> loc("input"(#loc84))) -> tensor<64xf32> attributes {noinline = false} {
    %0 = "tt.reduce"(%input) <{axis = 1 : i32, reduction_ordering = "unordered"}> ({
    ^bb0(%arg1: f32 loc(unknown), %arg2: f32 loc(unknown)):
      %2 = tt.call @triton.language.standard._sum_combine__fp32_fp32__(%arg1, %arg2) : (f32, f32) -> f32 loc(#loc85)
      tt.reduce.return %2 : f32 loc(#loc85)
    }) : (tensor<64x64xf32>) -> tensor<64xf32> loc(#loc85)
    tt.return %0 : tensor<64xf32> loc(#loc86)
  ^bb1:  // no predecessors
    %1 = ub.poison : tensor<64xf32> loc(#loc84)
    tt.return %1 : tensor<64xf32> loc(#loc84)
  } loc(#loc84)
  tt.func private @triton.language.standard._sum_combine__fp32_fp32__(%a: f32 loc("a"(#loc87)), %b: f32 loc("b"(#loc87))) -> f32 attributes {noinline = false} {
    %0 = arith.addf %a, %b : f32 loc(#loc88)
    tt.return %0 : f32 loc(#loc89)
  ^bb1:  // no predecessors
    %1 = ub.poison : f32 loc(#loc87)
    tt.return %1 : f32 loc(#loc87)
  } loc(#loc87)
} loc(#loc)
#loc1 = loc("/projects/kzhou6/hwu27/triton-beta-3-paper-solver-wt/third_party/tlx/tools/sched2tlx/examples/case3_FA_fp16_subtiled/fa_fwd_nows_subtiled.py":28:13)
#loc2 = loc("/projects/kzhou6/hwu27/triton-beta-3-paper-solver-wt/third_party/tlx/tools/sched2tlx/examples/case3_FA_fp16_subtiled/fa_fwd_nows_subtiled.py":29:14)
#loc3 = loc("/projects/kzhou6/hwu27/triton-beta-3-paper-solver-wt/third_party/tlx/tools/sched2tlx/examples/case3_FA_fp16_subtiled/fa_fwd_nows_subtiled.py":30:15)
#loc4 = loc("/projects/kzhou6/hwu27/triton-beta-3-paper-solver-wt/third_party/tlx/tools/sched2tlx/examples/case3_FA_fp16_subtiled/fa_fwd_nows_subtiled.py":31:27)
#loc5 = loc("/projects/kzhou6/hwu27/triton-beta-3-paper-solver-wt/third_party/tlx/tools/sched2tlx/examples/case3_FA_fp16_subtiled/fa_fwd_nows_subtiled.py":31:17)
#loc6 = loc("/projects/kzhou6/hwu27/triton-beta-3-paper-solver-wt/third_party/tlx/tools/sched2tlx/examples/case3_FA_fp16_subtiled/fa_fwd_nows_subtiled.py":32:12)
#loc7 = loc("/projects/kzhou6/hwu27/triton-beta-3-paper-solver-wt/third_party/tlx/tools/sched2tlx/examples/case3_FA_fp16_subtiled/fa_fwd_nows_subtiled.py":33:15)
#loc8 = loc("/projects/kzhou6/hwu27/triton-beta-3-paper-solver-wt/third_party/tlx/tools/sched2tlx/examples/case3_FA_fp16_subtiled/fa_fwd_nows_subtiled.py":35:14)
#loc9 = loc("/projects/kzhou6/hwu27/triton-beta-3-paper-solver-wt/third_party/tlx/tools/sched2tlx/examples/case3_FA_fp16_subtiled/fa_fwd_nows_subtiled.py":37:14)
#loc10 = loc("/projects/kzhou6/hwu27/triton-beta-3-paper-solver-wt/third_party/tlx/tools/sched2tlx/examples/case3_FA_fp16_subtiled/fa_fwd_nows_subtiled.py":39:16)
#loc11 = loc("/projects/kzhou6/hwu27/triton-beta-3-paper-solver-wt/third_party/tlx/tools/sched2tlx/examples/case3_FA_fp16_subtiled/fa_fwd_nows_subtiled.py":41:10)
#loc12 = loc("/projects/kzhou6/hwu27/triton-beta-3-paper-solver-wt/third_party/tlx/tools/sched2tlx/examples/case3_FA_fp16_subtiled/fa_fwd_nows_subtiled.py":42:24)
#loc13 = loc("/projects/kzhou6/hwu27/triton-beta-3-paper-solver-wt/third_party/tlx/tools/sched2tlx/examples/case3_FA_fp16_subtiled/fa_fwd_nows_subtiled.py":42:10)
#loc14 = loc("/projects/kzhou6/hwu27/triton-beta-3-paper-solver-wt/third_party/tlx/tools/sched2tlx/examples/case3_FA_fp16_subtiled/fa_fwd_nows_subtiled.py":43:12)
#loc15 = loc("/projects/kzhou6/hwu27/triton-beta-3-paper-solver-wt/third_party/tlx/tools/sched2tlx/examples/case3_FA_fp16_subtiled/fa_fwd_nows_subtiled.py":44:12)
#loc16 = loc("/projects/kzhou6/hwu27/triton-beta-3-paper-solver-wt/third_party/tlx/tools/sched2tlx/examples/case3_FA_fp16_subtiled/fa_fwd_nows_subtiled.py":45:12)
#loc17 = loc("/projects/kzhou6/hwu27/triton-beta-3-paper-solver-wt/third_party/tlx/tools/sched2tlx/examples/case3_FA_fp16_subtiled/fa_fwd_nows_subtiled.py":46:12)
#loc18 = loc("/projects/kzhou6/hwu27/triton-beta-3-paper-solver-wt/third_party/tlx/tools/sched2tlx/examples/case3_FA_fp16_subtiled/fa_fwd_nows_subtiled.py":47:12)
#loc19 = loc("/projects/kzhou6/hwu27/triton-beta-3-paper-solver-wt/third_party/tlx/tools/sched2tlx/examples/case3_FA_fp16_subtiled/fa_fwd_nows_subtiled.py":48:12)
#loc20 = loc("/projects/kzhou6/hwu27/triton-beta-3-paper-solver-wt/third_party/tlx/tools/sched2tlx/examples/case3_FA_fp16_subtiled/fa_fwd_nows_subtiled.py":49:16)
#loc21 = loc("/projects/kzhou6/hwu27/triton-beta-3-paper-solver-wt/third_party/tlx/tools/sched2tlx/examples/case3_FA_fp16_subtiled/fa_fwd_nows_subtiled.py":50:21)
#loc22 = loc("/projects/kzhou6/hwu27/triton-beta-3-paper-solver-wt/third_party/tlx/tools/sched2tlx/examples/case3_FA_fp16_subtiled/fa_fwd_nows_subtiled.py":50:5)
#loc23 = loc("/projects/kzhou6/hwu27/triton-beta-3-paper-solver-wt/third_party/tlx/tools/sched2tlx/examples/case3_FA_fp16_subtiled/fa_fwd_nows_subtiled.py":51:26)
#loc24 = loc("/projects/kzhou6/hwu27/triton-beta-3-paper-solver-wt/third_party/tlx/tools/sched2tlx/examples/case3_FA_fp16_subtiled/fa_fwd_nows_subtiled.py":51:16)
#loc25 = loc("/projects/kzhou6/hwu27/triton-beta-3-paper-solver-wt/third_party/tlx/tools/sched2tlx/examples/case3_FA_fp16_subtiled/fa_fwd_nows_subtiled.py":52:13)
#loc26 = loc("/projects/kzhou6/hwu27/triton-beta-3-paper-solver-wt/third_party/tlx/tools/sched2tlx/examples/case3_FA_fp16_subtiled/fa_fwd_nows_subtiled.py":53:13)
#loc27 = loc("/projects/kzhou6/hwu27/triton-beta-3-paper-solver-wt/third_party/tlx/tools/sched2tlx/examples/case3_FA_fp16_subtiled/fa_fwd_nows_subtiled.py":54:14)
#loc28 = loc("/projects/kzhou6/hwu27/triton-beta-3-paper-solver-wt/third_party/tlx/tools/sched2tlx/examples/case3_FA_fp16_subtiled/fa_fwd_nows_subtiled.py":55:15)
#loc29 = loc("/projects/kzhou6/hwu27/triton-beta-3-paper-solver-wt/third_party/tlx/tools/sched2tlx/examples/case3_FA_fp16_subtiled/fa_fwd_nows_subtiled.py":56:34)
#loc30 = loc("/projects/kzhou6/hwu27/triton-beta-3-paper-solver-wt/third_party/tlx/tools/sched2tlx/examples/case3_FA_fp16_subtiled/fa_fwd_nows_subtiled.py":56:17)
#loc31 = loc("/projects/kzhou6/hwu27/triton-beta-3-paper-solver-wt/third_party/tlx/tools/sched2tlx/examples/case3_FA_fp16_subtiled/fa_fwd_nows_subtiled.py":57:31)
#loc32 = loc("/projects/kzhou6/hwu27/triton-beta-3-paper-solver-wt/third_party/tlx/tools/sched2tlx/examples/case3_FA_fp16_subtiled/fa_fwd_nows_subtiled.py":57:18)
#loc33 = loc("/projects/kzhou6/hwu27/triton-beta-3-paper-solver-wt/third_party/tlx/tools/sched2tlx/examples/case3_FA_fp16_subtiled/fa_fwd_nows_subtiled.py":58:27)
#loc34 = loc("/projects/kzhou6/hwu27/triton-beta-3-paper-solver-wt/third_party/tlx/tools/sched2tlx/examples/case3_FA_fp16_subtiled/fa_fwd_nows_subtiled.py":58:44)
#loc35 = loc("/projects/kzhou6/hwu27/triton-beta-3-paper-solver-wt/third_party/tlx/tools/sched2tlx/examples/case3_FA_fp16_subtiled/fa_fwd_nows_subtiled.py":58:14)
#loc36 = loc("/projects/kzhou6/hwu27/triton-beta-3-paper-solver-wt/third_party/tlx/tools/sched2tlx/examples/case3_FA_fp16_subtiled/fa_fwd_nows_subtiled.py":59:17)
#loc37 = loc("/projects/kzhou6/hwu27/triton-beta-3-paper-solver-wt/third_party/tlx/tools/sched2tlx/examples/case3_FA_fp16_subtiled/fa_fwd_nows_subtiled.py":60:23)
#loc38 = loc("/projects/kzhou6/hwu27/triton-beta-3-paper-solver-wt/third_party/tlx/tools/sched2tlx/examples/case3_FA_fp16_subtiled/fa_fwd_nows_subtiled.py":60:52)
#loc39 = loc("/projects/kzhou6/hwu27/triton-beta-3-paper-solver-wt/third_party/tlx/tools/sched2tlx/examples/case3_FA_fp16_subtiled/fa_fwd_nows_subtiled.py":60:45)
#loc40 = loc("/projects/kzhou6/hwu27/triton-beta-3-paper-solver-wt/third_party/tlx/tools/sched2tlx/examples/case3_FA_fp16_subtiled/fa_fwd_nows_subtiled.py":60:16)
#loc41 = loc("/projects/kzhou6/hwu27/triton-beta-3-paper-solver-wt/third_party/tlx/tools/sched2tlx/examples/case3_FA_fp16_subtiled/fa_fwd_nows_subtiled.py":61:16)
#loc42 = loc("/projects/kzhou6/hwu27/triton-beta-3-paper-solver-wt/third_party/tlx/tools/sched2tlx/examples/case3_FA_fp16_subtiled/fa_fwd_nows_subtiled.py":63:15)
#loc43 = loc("/projects/kzhou6/hwu27/triton-beta-3-paper-solver-wt/third_party/tlx/tools/sched2tlx/examples/case3_FA_fp16_subtiled/fa_fwd_nows_subtiled.py":64:34)
#loc44 = loc("/projects/kzhou6/hwu27/triton-beta-3-paper-solver-wt/third_party/tlx/tools/sched2tlx/examples/case3_FA_fp16_subtiled/fa_fwd_nows_subtiled.py":64:17)
#loc45 = loc("/projects/kzhou6/hwu27/triton-beta-3-paper-solver-wt/third_party/tlx/tools/sched2tlx/examples/case3_FA_fp16_subtiled/fa_fwd_nows_subtiled.py":65:31)
#loc46 = loc("/projects/kzhou6/hwu27/triton-beta-3-paper-solver-wt/third_party/tlx/tools/sched2tlx/examples/case3_FA_fp16_subtiled/fa_fwd_nows_subtiled.py":65:18)
#loc47 = loc("/projects/kzhou6/hwu27/triton-beta-3-paper-solver-wt/third_party/tlx/tools/sched2tlx/examples/case3_FA_fp16_subtiled/fa_fwd_nows_subtiled.py":66:27)
#loc48 = loc("/projects/kzhou6/hwu27/triton-beta-3-paper-solver-wt/third_party/tlx/tools/sched2tlx/examples/case3_FA_fp16_subtiled/fa_fwd_nows_subtiled.py":66:44)
#loc49 = loc("/projects/kzhou6/hwu27/triton-beta-3-paper-solver-wt/third_party/tlx/tools/sched2tlx/examples/case3_FA_fp16_subtiled/fa_fwd_nows_subtiled.py":66:14)
#loc50 = loc("/projects/kzhou6/hwu27/triton-beta-3-paper-solver-wt/third_party/tlx/tools/sched2tlx/examples/case3_FA_fp16_subtiled/fa_fwd_nows_subtiled.py":67:17)
#loc51 = loc("/projects/kzhou6/hwu27/triton-beta-3-paper-solver-wt/third_party/tlx/tools/sched2tlx/examples/case3_FA_fp16_subtiled/fa_fwd_nows_subtiled.py":68:23)
#loc52 = loc("/projects/kzhou6/hwu27/triton-beta-3-paper-solver-wt/third_party/tlx/tools/sched2tlx/examples/case3_FA_fp16_subtiled/fa_fwd_nows_subtiled.py":68:52)
#loc53 = loc("/projects/kzhou6/hwu27/triton-beta-3-paper-solver-wt/third_party/tlx/tools/sched2tlx/examples/case3_FA_fp16_subtiled/fa_fwd_nows_subtiled.py":68:45)
#loc54 = loc("/projects/kzhou6/hwu27/triton-beta-3-paper-solver-wt/third_party/tlx/tools/sched2tlx/examples/case3_FA_fp16_subtiled/fa_fwd_nows_subtiled.py":68:16)
#loc55 = loc("/projects/kzhou6/hwu27/triton-beta-3-paper-solver-wt/third_party/tlx/tools/sched2tlx/examples/case3_FA_fp16_subtiled/fa_fwd_nows_subtiled.py":69:16)
#loc56 = loc("/projects/kzhou6/hwu27/triton-beta-3-paper-solver-wt/third_party/tlx/tools/sched2tlx/examples/case3_FA_fp16_subtiled/fa_fwd_nows_subtiled.py":71:19)
#loc57 = loc("/projects/kzhou6/hwu27/triton-beta-3-paper-solver-wt/third_party/tlx/tools/sched2tlx/examples/case3_FA_fp16_subtiled/fa_fwd_nows_subtiled.py":71:12)
#loc58 = loc("/projects/kzhou6/hwu27/triton-beta-3-paper-solver-wt/third_party/tlx/tools/sched2tlx/examples/case3_FA_fp16_subtiled/fa_fwd_nows_subtiled.py":72:19)
#loc59 = loc("/projects/kzhou6/hwu27/triton-beta-3-paper-solver-wt/third_party/tlx/tools/sched2tlx/examples/case3_FA_fp16_subtiled/fa_fwd_nows_subtiled.py":72:12)
#loc60 = loc("/projects/kzhou6/hwu27/triton-beta-3-paper-solver-wt/third_party/tlx/tools/sched2tlx/examples/case3_FA_fp16_subtiled/fa_fwd_nows_subtiled.py":73:36)
#loc61 = loc("/projects/kzhou6/hwu27/triton-beta-3-paper-solver-wt/third_party/tlx/tools/sched2tlx/examples/case3_FA_fp16_subtiled/fa_fwd_nows_subtiled.py":73:5)
#loc62 = loc("/projects/kzhou6/hwu27/triton-beta-3-paper-solver-wt/third_party/tlx/tools/sched2tlx/examples/case3_FA_fp16_subtiled/fa_fwd_nows_subtiled.py":74:21)
#loc63 = loc("/projects/kzhou6/hwu27/triton-beta-3-paper-solver-wt/third_party/tlx/tools/sched2tlx/examples/case3_FA_fp16_subtiled/fa_fwd_nows_subtiled.py":74:44)
#loc64 = loc("/projects/kzhou6/hwu27/triton-beta-3-paper-solver-wt/third_party/tlx/tools/sched2tlx/examples/case3_FA_fp16_subtiled/fa_fwd_nows_subtiled.py":74:5)
#loc65 = loc("/projects/kzhou6/hwu27/triton-beta-3-paper-solver-wt/third_party/tlx/tools/sched2tlx/examples/case3_FA_fp16_subtiled/fa_fwd_nows_subtiled.py":75:12)
#loc66 = loc("/projects/kzhou6/hwu27/triton-beta-3-paper-solver-wt/third_party/tlx/tools/sched2tlx/examples/case3_FA_fp16_subtiled/fa_fwd_nows_subtiled.py":76:14)
#loc67 = loc("/projects/kzhou6/hwu27/triton-beta-3-paper-solver-wt/third_party/tlx/tools/sched2tlx/examples/case3_FA_fp16_subtiled/fa_fwd_nows_subtiled.py":76:47)
#loc68 = loc("/projects/kzhou6/hwu27/triton-beta-3-paper-solver-wt/third_party/tlx/tools/sched2tlx/examples/case3_FA_fp16_subtiled/fa_fwd_nows_subtiled.py":76:40)
#loc69 = loc("/projects/kzhou6/hwu27/triton-beta-3-paper-solver-wt/third_party/tlx/tools/sched2tlx/examples/case3_FA_fp16_subtiled/fa_fwd_nows_subtiled.py":76:5)
#loc70 = loc("/projects/kzhou6/hwu27/triton-beta-3-paper-solver-wt/third_party/tlx/tools/sched2tlx/examples/case3_FA_fp16_subtiled/fa_fwd_nows_subtiled.py":77:14)
#loc71 = loc("/projects/kzhou6/hwu27/triton-beta-3-paper-solver-wt/third_party/tlx/tools/sched2tlx/examples/case3_FA_fp16_subtiled/fa_fwd_nows_subtiled.py":77:55)
#loc72 = loc("/projects/kzhou6/hwu27/triton-beta-3-paper-solver-wt/third_party/tlx/tools/sched2tlx/examples/case3_FA_fp16_subtiled/fa_fwd_nows_subtiled.py":77:48)
#loc73 = loc("/projects/kzhou6/hwu27/triton-beta-3-paper-solver-wt/third_party/tlx/tools/sched2tlx/examples/case3_FA_fp16_subtiled/fa_fwd_nows_subtiled.py":77:5)
#loc74 = loc("/projects/kzhou6/hwu27/triton-beta-3-paper-solver-wt/python/triton/language/standard.py":120:1)
#loc75 = loc("/projects/kzhou6/hwu27/triton-beta-3-paper-solver-wt/python/triton/language/standard.py":129:12)
#loc76 = loc("/projects/kzhou6/hwu27/triton-beta-3-paper-solver-wt/python/triton/language/standard.py":129:5)
#loc78 = loc("/projects/kzhou6/hwu27/triton-beta-3-paper-solver-wt/python/triton/language/standard.py":194:16)
#loc80 = loc("/projects/kzhou6/hwu27/triton-beta-3-paper-solver-wt/python/triton/language/standard.py":194:9)
#loc82 = loc("/projects/kzhou6/hwu27/triton-beta-3-paper-solver-wt/python/triton/language/standard.py":170:12)
#loc83 = loc("/projects/kzhou6/hwu27/triton-beta-3-paper-solver-wt/python/triton/language/standard.py":170:5)
#loc85 = loc("/projects/kzhou6/hwu27/triton-beta-3-paper-solver-wt/python/triton/language/standard.py":313:12)
#loc86 = loc("/projects/kzhou6/hwu27/triton-beta-3-paper-solver-wt/python/triton/language/standard.py":313:5)
#loc88 = loc("/projects/kzhou6/hwu27/triton-beta-3-paper-solver-wt/python/triton/language/standard.py":273:12)
#loc89 = loc("/projects/kzhou6/hwu27/triton-beta-3-paper-solver-wt/python/triton/language/standard.py":273:5)
#loc98 = loc("pid_m"(#loc1))
#loc99 = loc("pid_bh"(#loc2))
#loc100 = loc("kv_base"(#loc3))
#loc101 = loc("qo_offset"(#loc4))
#loc102 = loc("qo_offset"(#loc5))
#loc103 = loc("rows"(#loc6))
#loc104 = loc("qo_desc"(#loc7))
#loc105 = loc("k_desc"(#loc8))
#loc106 = loc("v_desc"(#loc9))
#loc107 = loc("out_desc"(#loc10))
#loc108 = loc("q0"(#loc11))
#loc109 = loc("q1"(#loc12))
#loc110 = loc("q1"(#loc13))
#loc111 = loc("m_i0"(#loc14))
#loc112 = loc("m_i1"(#loc15))
#loc113 = loc("l_i0"(#loc16))
#loc114 = loc("l_i1"(#loc17))
#loc115 = loc("acc0"(#loc18))
#loc116 = loc("acc1"(#loc19))
#loc117 = loc("qk_scale"(#loc20))
#loc118 = loc("m_i0"(#loc22))
#loc119 = loc("koff"(#loc23))
#loc120 = loc("koff"(#loc24))
#loc121 = loc("k"(#loc25))
#loc122 = loc("v"(#loc26))
#loc123 = loc("kt"(#loc27))
#loc124 = loc("qk0"(#loc28))
#loc125 = loc("m_ij0"(#loc29))
#loc126 = loc("m_ij0"(#loc30))
#loc127 = loc("alpha0"(#loc31))
#loc128 = loc("alpha0"(#loc32))
#loc129 = loc("p0"(#loc33))
#loc130 = loc("p0"(#loc34))
#loc131 = loc("p0"(#loc35))
#loc132 = loc("l_ij0"(#loc36))
#loc133 = loc("acc0"(#loc37))
#loc134 = loc("acc0"(#loc38))
#loc135 = loc("acc0"(#loc39))
#loc136 = loc("acc0"(#loc40))
#loc137 = loc("l_i0"(#loc41))
#loc138 = loc("qk1"(#loc42))
#loc139 = loc("m_ij1"(#loc43))
#loc140 = loc("m_ij1"(#loc44))
#loc141 = loc("alpha1"(#loc45))
#loc142 = loc("alpha1"(#loc46))
#loc143 = loc("p1"(#loc47))
#loc144 = loc("p1"(#loc48))
#loc145 = loc("p1"(#loc49))
#loc146 = loc("l_ij1"(#loc50))
#loc147 = loc("acc1"(#loc51))
#loc148 = loc("acc1"(#loc52))
#loc149 = loc("acc1"(#loc53))
#loc150 = loc("acc1"(#loc54))
#loc151 = loc("l_i1"(#loc55))
#loc152 = loc("acc0"(#loc56))
#loc153 = loc("acc0"(#loc57))
#loc154 = loc("acc1"(#loc58))
#loc155 = loc("acc1"(#loc59))
#loc156 = loc("offs"(#loc65))
#loc163 = loc("m_i1"(#loc118))
#loc164 = loc("l_i0"(#loc163))
#loc165 = loc("l_i1"(#loc164))
#loc166 = loc("acc0"(#loc165))
#loc167 = loc("acc1"(#loc166))


// -----// IR Dump Before CanonicalizerPass: canonicalize{cse-between-iterations=false    max-iterations=10 max-num-rewrites=-1 region-simplify=normal test-convergence=false top-down=true} ('tt.func' operation: @fa_fwd_kernel_nows_subtiled) //----- //
#loc = loc("/projects/kzhou6/hwu27/triton-beta-3-paper-solver-wt/third_party/tlx/tools/sched2tlx/examples/case3_FA_fp16_subtiled/fa_fwd_nows_subtiled.py":25:1)
#loc77 = loc("/projects/kzhou6/hwu27/triton-beta-3-paper-solver-wt/python/triton/language/standard.py":177:1)
#loc79 = loc(unknown)
#loc83 = loc("/projects/kzhou6/hwu27/triton-beta-3-paper-solver-wt/python/triton/language/standard.py":297:1)
#loc88 = loc("Q"(#loc))
#loc89 = loc("K"(#loc))
#loc90 = loc("V"(#loc))
#loc91 = loc("Out"(#loc))
#loc92 = loc("M_lse"(#loc))
#loc93 = loc("sm_scale"(#loc))
#loc94 = loc("H"(#loc))
#loc95 = loc("N_CTX"(#loc))
#loc155 = loc("input"(#loc77))
#loc157 = loc("input"(#loc83))
module {
  tt.func public @fa_fwd_kernel_nows_subtiled(%Q: !tt.ptr<f16> {tt.divisibility = 16 : i32} loc("Q"(#loc)), %K: !tt.ptr<f16> {tt.divisibility = 16 : i32} loc("K"(#loc)), %V: !tt.ptr<f16> {tt.divisibility = 16 : i32} loc("V"(#loc)), %Out: !tt.ptr<f16> {tt.divisibility = 16 : i32} loc("Out"(#loc)), %M_lse: !tt.ptr<f32> {tt.divisibility = 16 : i32} loc("M_lse"(#loc)), %sm_scale: f32 loc("sm_scale"(#loc)), %H: i32 loc("H"(#loc)), %N_CTX: i32 {tt.divisibility = 16 : i32} loc("N_CTX"(#loc))) attributes {noinline = false} {
    %pid_m = tt.get_program_id x : i32 loc(#loc96)
    %pid_bh = tt.get_program_id y : i32 loc(#loc97)
    %kv_base = arith.muli %pid_bh, %N_CTX : i32 loc(#loc98)
    %qo_offset = arith.constant 128 : i32 loc(#loc99)
    %qo_offset_0 = arith.constant 128 : i32 loc(#loc99)
    %qo_offset_1 = arith.muli %pid_m, %qo_offset_0 : i32 loc(#loc99)
    %qo_offset_2 = arith.addi %kv_base, %qo_offset_1 : i32 loc(#loc100)
    %rows = arith.muli %H, %N_CTX : i32 loc(#loc101)
    %qo_desc = arith.constant 128 : i32 loc(#loc102)
    %qo_desc_3 = arith.constant 128 : i64 loc(#loc102)
    %qo_desc_4 = arith.constant 1 : i64 loc(#loc102)
    %qo_desc_5 = tt.make_tensor_descriptor %Q, [%rows, %qo_desc], [%qo_desc_3, %qo_desc_4] : !tt.ptr<f16>, !tt.tensordesc<64x128xf16> loc(#loc102)
    %k_desc = arith.constant 128 : i32 loc(#loc103)
    %k_desc_6 = arith.constant 128 : i64 loc(#loc103)
    %k_desc_7 = arith.constant 1 : i64 loc(#loc103)
    %k_desc_8 = tt.make_tensor_descriptor %K, [%rows, %k_desc], [%k_desc_6, %k_desc_7] : !tt.ptr<f16>, !tt.tensordesc<64x128xf16> loc(#loc103)
    %v_desc = arith.constant 128 : i32 loc(#loc104)
    %v_desc_9 = arith.constant 128 : i64 loc(#loc104)
    %v_desc_10 = arith.constant 1 : i64 loc(#loc104)
    %v_desc_11 = tt.make_tensor_descriptor %V, [%rows, %v_desc], [%v_desc_9, %v_desc_10] : !tt.ptr<f16>, !tt.tensordesc<64x128xf16> loc(#loc104)
    %out_desc = arith.constant 128 : i32 loc(#loc105)
    %out_desc_12 = arith.constant 128 : i64 loc(#loc105)
    %out_desc_13 = arith.constant 1 : i64 loc(#loc105)
    %out_desc_14 = tt.make_tensor_descriptor %Out, [%rows, %out_desc], [%out_desc_12, %out_desc_13] : !tt.ptr<f16>, !tt.tensordesc<64x128xf16> loc(#loc105)
    %q0 = arith.constant 0 : i32 loc(#loc106)
    %q0_15 = tt.descriptor_load %qo_desc_5[%qo_offset_2, %q0] : !tt.tensordesc<64x128xf16> -> tensor<64x128xf16> loc(#loc106)
    %q1 = arith.constant 64 : i32 loc(#loc107)
    %q1_16 = arith.constant 64 : i32 loc(#loc107)
    %q1_17 = arith.addi %qo_offset_2, %q1_16 : i32 loc(#loc107)
    %q1_18 = arith.constant 0 : i32 loc(#loc108)
    %q1_19 = tt.descriptor_load %qo_desc_5[%q1_17, %q1_18] : !tt.tensordesc<64x128xf16> -> tensor<64x128xf16> loc(#loc108)
    %m_i0 = arith.constant 0xFF800000 : f32 loc(#loc109)
    %m_i0_20 = arith.constant dense<0xFF800000> : tensor<64xf32> loc(#loc109)
    %m_i1 = arith.constant 0xFF800000 : f32 loc(#loc110)
    %m_i1_21 = arith.constant dense<0xFF800000> : tensor<64xf32> loc(#loc110)
    %l_i0 = arith.constant 1.000000e+00 : f32 loc(#loc111)
    %l_i0_22 = arith.constant dense<1.000000e+00> : tensor<64xf32> loc(#loc111)
    %l_i1 = arith.constant 1.000000e+00 : f32 loc(#loc112)
    %l_i1_23 = arith.constant dense<1.000000e+00> : tensor<64xf32> loc(#loc112)
    %acc0 = tt.call @"triton.language.standard.zeros____(0, 0)cconstexpr_64__(0, 1)cconstexpr_128__(1,)cconstexpr_fp32_"() : () -> tensor<64x128xf32> loc(#loc113)
    %acc1 = tt.call @"triton.language.standard.zeros____(0, 0)cconstexpr_64__(0, 1)cconstexpr_128__(1,)cconstexpr_fp32_"() : () -> tensor<64x128xf32> loc(#loc114)
    %qk_scale = arith.constant 1.44269502 : f32 loc(#loc115)
    %qk_scale_24 = arith.constant 1.44269502 : f32 loc(#loc115)
    %qk_scale_25 = arith.mulf %sm_scale, %qk_scale_24 : f32 loc(#loc115)
    %c64_i32 = arith.constant 64 : i32 loc(#loc21)
    %c64_i32_26 = arith.constant 64 : i32 loc(#loc21)
    %0 = arith.divsi %N_CTX, %c64_i32_26 : i32 loc(#loc21)
    %c64_i32_27 = arith.constant 64 : i32 loc(#loc21)
    %c64_i32_28 = arith.constant 64 : i32 loc(#loc21)
    %1 = arith.divsi %N_CTX, %c64_i32_28 : i32 loc(#loc21)
    %c0_i32 = arith.constant 0 : i32 loc(#loc22)
    %c1_i32 = arith.constant 1 : i32 loc(#loc22)
    %2 = arith.bitcast %c0_i32 : i32 to i32 loc(#loc22)
    %3 = arith.bitcast %1 : i32 to i32 loc(#loc22)
    %4 = arith.bitcast %c1_i32 : i32 to i32 loc(#loc22)
    %5 = ub.poison : i32 loc(#loc22)
    %acc1_29:6 = scf.for %kv = %2 to %3 step %4 iter_args(%m_i0_41 = %m_i0_20, %m_i1_42 = %m_i1_21, %l_i0_43 = %l_i0_22, %l_i1_44 = %l_i1_23, %acc0_45 = %acc0, %acc1_46 = %acc1) -> (tensor<64xf32>, tensor<64xf32>, tensor<64xf32>, tensor<64xf32>, tensor<64x128xf32>, tensor<64x128xf32>)  : i32 {
      %koff = arith.constant 64 : i32 loc(#loc117)
      %koff_47 = arith.constant 64 : i32 loc(#loc117)
      %koff_48 = arith.muli %kv, %koff_47 : i32 loc(#loc117)
      %koff_49 = arith.addi %kv_base, %koff_48 : i32 loc(#loc118)
      %k = arith.constant 0 : i32 loc(#loc119)
      %k_50 = tt.descriptor_load %k_desc_8[%koff_49, %k] : !tt.tensordesc<64x128xf16> -> tensor<64x128xf16> loc(#loc119)
      %v = arith.constant 0 : i32 loc(#loc120)
      %v_51 = tt.descriptor_load %v_desc_11[%koff_49, %v] : !tt.tensordesc<64x128xf16> -> tensor<64x128xf16> loc(#loc120)
      %kt = tt.trans %k_50 {order = array<i32: 1, 0>} : tensor<64x128xf16> -> tensor<128x64xf16> loc(#loc121)
      %qk0 = arith.constant 0.000000e+00 : f32 loc(#loc122)
      %qk0_52 = arith.constant dense<0.000000e+00> : tensor<64x64xf32> loc(#loc122)
      %qk0_53 = tt.dot %q0_15, %kt, %qk0_52, inputPrecision = tf32 : tensor<64x128xf16> * tensor<128x64xf16> -> tensor<64x64xf32> loc(#loc122)
      %m_ij0 = tt.call @"triton.language.standard.max__fp32S64_64S__(1,)cconstexpr_1__(2,)cconstexpr_False__(3,)cconstexpr_True__(4,)cconstexpr_False__(5,)cNone"(%qk0_53) : (tensor<64x64xf32>) -> tensor<64xf32> loc(#loc123)
      %m_ij0_54 = tt.splat %qk_scale_25 : f32 -> tensor<64xf32> loc(#loc123)
      %m_ij0_55 = arith.mulf %m_ij0, %m_ij0_54 : tensor<64xf32> loc(#loc123)
      %m_ij0_56 = arith.maxnumf %m_i0_41, %m_ij0_55 : tensor<64xf32> loc(#loc124)
      %alpha0 = arith.subf %m_i0_41, %m_ij0_56 : tensor<64xf32> loc(#loc125)
      %alpha0_57 = math.exp2 %alpha0 : tensor<64xf32> loc(#loc126)
      %p0 = tt.splat %qk_scale_25 : f32 -> tensor<64x64xf32> loc(#loc127)
      %p0_58 = arith.mulf %qk0_53, %p0 : tensor<64x64xf32> loc(#loc127)
      %p0_59 = tt.expand_dims %m_ij0_56 {axis = 1 : i32} : tensor<64xf32> -> tensor<64x1xf32> loc(#loc128)
      %p0_60 = tt.broadcast %p0_59 : tensor<64x1xf32> -> tensor<64x64xf32> loc(#loc127)
      %p0_61 = arith.subf %p0_58, %p0_60 : tensor<64x64xf32> loc(#loc127)
      %p0_62 = math.exp2 %p0_61 : tensor<64x64xf32> loc(#loc129)
      %l_ij0 = tt.call @"triton.language.standard.sum__fp32S64_64S__(1,)cconstexpr_1__(2,)cconstexpr_False__(3,)cNone_(4,)cNone"(%p0_62) : (tensor<64x64xf32>) -> tensor<64xf32> loc(#loc130)
      %acc0_63 = arith.truncf %p0_62 : tensor<64x64xf32> to tensor<64x64xf16> loc(#loc131)
      %acc0_64 = tt.expand_dims %alpha0_57 {axis = 1 : i32} : tensor<64xf32> -> tensor<64x1xf32> loc(#loc132)
      %acc0_65 = tt.broadcast %acc0_64 : tensor<64x1xf32> -> tensor<64x128xf32> loc(#loc133)
      %acc0_66 = arith.mulf %acc0_45, %acc0_65 : tensor<64x128xf32> loc(#loc133)
      %acc0_67 = arith.constant 0.000000e+00 : f32 loc(#loc134)
      %acc0_68 = tt.dot %acc0_63, %v_51, %acc0_66, inputPrecision = tf32 : tensor<64x64xf16> * tensor<64x128xf16> -> tensor<64x128xf32> loc(#loc134)
      %l_i0_69 = arith.mulf %l_i0_43, %alpha0_57 : tensor<64xf32> loc(#loc135)
      %l_i0_70 = arith.addf %l_i0_69, %l_ij0 : tensor<64xf32> loc(#loc135)
      %qk1 = arith.constant 0.000000e+00 : f32 loc(#loc136)
      %qk1_71 = arith.constant dense<0.000000e+00> : tensor<64x64xf32> loc(#loc136)
      %qk1_72 = tt.dot %q1_19, %kt, %qk1_71, inputPrecision = tf32 : tensor<64x128xf16> * tensor<128x64xf16> -> tensor<64x64xf32> loc(#loc136)
      %m_ij1 = tt.call @"triton.language.standard.max__fp32S64_64S__(1,)cconstexpr_1__(2,)cconstexpr_False__(3,)cconstexpr_True__(4,)cconstexpr_False__(5,)cNone"(%qk1_72) : (tensor<64x64xf32>) -> tensor<64xf32> loc(#loc137)
      %m_ij1_73 = tt.splat %qk_scale_25 : f32 -> tensor<64xf32> loc(#loc137)
      %m_ij1_74 = arith.mulf %m_ij1, %m_ij1_73 : tensor<64xf32> loc(#loc137)
      %m_ij1_75 = arith.maxnumf %m_i1_42, %m_ij1_74 : tensor<64xf32> loc(#loc138)
      %alpha1 = arith.subf %m_i1_42, %m_ij1_75 : tensor<64xf32> loc(#loc139)
      %alpha1_76 = math.exp2 %alpha1 : tensor<64xf32> loc(#loc140)
      %p1 = tt.splat %qk_scale_25 : f32 -> tensor<64x64xf32> loc(#loc141)
      %p1_77 = arith.mulf %qk1_72, %p1 : tensor<64x64xf32> loc(#loc141)
      %p1_78 = tt.expand_dims %m_ij1_75 {axis = 1 : i32} : tensor<64xf32> -> tensor<64x1xf32> loc(#loc142)
      %p1_79 = tt.broadcast %p1_78 : tensor<64x1xf32> -> tensor<64x64xf32> loc(#loc141)
      %p1_80 = arith.subf %p1_77, %p1_79 : tensor<64x64xf32> loc(#loc141)
      %p1_81 = math.exp2 %p1_80 : tensor<64x64xf32> loc(#loc143)
      %l_ij1 = tt.call @"triton.language.standard.sum__fp32S64_64S__(1,)cconstexpr_1__(2,)cconstexpr_False__(3,)cNone_(4,)cNone"(%p1_81) : (tensor<64x64xf32>) -> tensor<64xf32> loc(#loc144)
      %acc1_82 = arith.truncf %p1_81 : tensor<64x64xf32> to tensor<64x64xf16> loc(#loc145)
      %acc1_83 = tt.expand_dims %alpha1_76 {axis = 1 : i32} : tensor<64xf32> -> tensor<64x1xf32> loc(#loc146)
      %acc1_84 = tt.broadcast %acc1_83 : tensor<64x1xf32> -> tensor<64x128xf32> loc(#loc147)
      %acc1_85 = arith.mulf %acc1_46, %acc1_84 : tensor<64x128xf32> loc(#loc147)
      %acc1_86 = arith.constant 0.000000e+00 : f32 loc(#loc148)
      %acc1_87 = tt.dot %acc1_82, %v_51, %acc1_85, inputPrecision = tf32 : tensor<64x64xf16> * tensor<64x128xf16> -> tensor<64x128xf32> loc(#loc148)
      %l_i1_88 = arith.mulf %l_i1_44, %alpha1_76 : tensor<64xf32> loc(#loc149)
      %l_i1_89 = arith.addf %l_i1_88, %l_ij1 : tensor<64xf32> loc(#loc149)
      scf.yield %m_ij0_56, %m_ij1_75, %l_i0_70, %l_i1_89, %acc0_68, %acc1_87 : tensor<64xf32>, tensor<64xf32>, tensor<64xf32>, tensor<64xf32>, tensor<64x128xf32>, tensor<64x128xf32> loc(#loc22)
    } loc(#loc163)
    %acc0_30 = tt.expand_dims %acc1_29#2 {axis = 1 : i32} : tensor<64xf32> -> tensor<64x1xf32> loc(#loc150)
    %acc0_31 = tt.broadcast %acc0_30 : tensor<64x1xf32> -> tensor<64x128xf32> loc(#loc151)
    %acc0_32 = arith.divf %acc1_29#4, %acc0_31 : tensor<64x128xf32> loc(#loc151)
    %acc1_33 = tt.expand_dims %acc1_29#3 {axis = 1 : i32} : tensor<64xf32> -> tensor<64x1xf32> loc(#loc152)
    %acc1_34 = tt.broadcast %acc1_33 : tensor<64x1xf32> -> tensor<64x128xf32> loc(#loc153)
    %acc1_35 = arith.divf %acc1_29#5, %acc1_34 : tensor<64x128xf32> loc(#loc153)
    %6 = arith.truncf %acc0_32 : tensor<64x128xf32> to tensor<64x128xf16> loc(#loc60)
    %c0_i32_36 = arith.constant 0 : i32 loc(#loc61)
    tt.descriptor_store %out_desc_14[%qo_offset_2, %c0_i32_36], %6 : !tt.tensordesc<64x128xf16>, tensor<64x128xf16> loc(#loc61)
    %c64_i32_37 = arith.constant 64 : i32 loc(#loc62)
    %c64_i32_38 = arith.constant 64 : i32 loc(#loc62)
    %7 = arith.addi %qo_offset_2, %c64_i32_38 : i32 loc(#loc62)
    %8 = arith.truncf %acc1_35 : tensor<64x128xf32> to tensor<64x128xf16> loc(#loc63)
    %c0_i32_39 = arith.constant 0 : i32 loc(#loc64)
    tt.descriptor_store %out_desc_14[%7, %c0_i32_39], %8 : !tt.tensordesc<64x128xf16>, tensor<64x128xf16> loc(#loc64)
    %offs = tt.make_range {end = 64 : i32, start = 0 : i32} : tensor<64xi32> loc(#loc154)
    %9 = tt.addptr %M_lse, %qo_offset_2 : !tt.ptr<f32>, i32 loc(#loc66)
    %10 = tt.splat %9 : !tt.ptr<f32> -> tensor<64x!tt.ptr<f32>> loc(#loc66)
    %11 = tt.addptr %10, %offs : tensor<64x!tt.ptr<f32>>, tensor<64xi32> loc(#loc66)
    %12 = math.log2 %acc1_29#2 : tensor<64xf32> loc(#loc67)
    %13 = arith.addf %acc1_29#0, %12 : tensor<64xf32> loc(#loc68)
    tt.store %11, %13 : tensor<64x!tt.ptr<f32>> loc(#loc69)
    %14 = tt.addptr %M_lse, %qo_offset_2 : !tt.ptr<f32>, i32 loc(#loc70)
    %c64_i32_40 = arith.constant 64 : i32 loc(#loc70)
    %15 = tt.addptr %14, %c64_i32_40 : !tt.ptr<f32>, i32 loc(#loc70)
    %16 = tt.splat %15 : !tt.ptr<f32> -> tensor<64x!tt.ptr<f32>> loc(#loc70)
    %17 = tt.addptr %16, %offs : tensor<64x!tt.ptr<f32>>, tensor<64xi32> loc(#loc70)
    %18 = math.log2 %acc1_29#3 : tensor<64xf32> loc(#loc71)
    %19 = arith.addf %acc1_29#1, %18 : tensor<64xf32> loc(#loc72)
    tt.store %17, %19 : tensor<64x!tt.ptr<f32>> loc(#loc73)
    tt.return loc(#loc)
  } loc(#loc)
  tt.func private @"triton.language.standard.zeros____(0, 0)cconstexpr_64__(0, 1)cconstexpr_128__(1,)cconstexpr_fp32_"() -> tensor<64x128xf32> attributes {noinline = false} {
    %cst = arith.constant dense<0.000000e+00> : tensor<64x128xf32> loc(#loc75)
    tt.return %cst : tensor<64x128xf32> loc(#loc76)
  } loc(#loc74)
  tt.func private @"triton.language.standard.max__fp32S64_64S__(1,)cconstexpr_1__(2,)cconstexpr_False__(3,)cconstexpr_True__(4,)cconstexpr_False__(5,)cNone"(%input: tensor<64x64xf32> loc("input"(#loc77))) -> tensor<64xf32> attributes {noinline = false} {
    %0 = "tt.reduce"(%input) <{axis = 1 : i32, reduction_ordering = "unordered"}> ({
    ^bb0(%arg1: f32 loc(unknown), %arg2: f32 loc(unknown)):
      %1 = arith.maxnumf %arg1, %arg2 : f32 loc(#loc156)
      tt.reduce.return %1 : f32 loc(#loc78)
    }) : (tensor<64x64xf32>) -> tensor<64xf32> loc(#loc78)
    tt.return %0 : tensor<64xf32> loc(#loc81)
  } loc(#loc77)
  tt.func private @triton.language.standard._elementwise_max__fp32_fp32__(f32, f32) -> f32 attributes {noinline = false} loc(#loc82)
  tt.func private @"triton.language.standard.sum__fp32S64_64S__(1,)cconstexpr_1__(2,)cconstexpr_False__(3,)cNone_(4,)cNone"(%input: tensor<64x64xf32> loc("input"(#loc83))) -> tensor<64xf32> attributes {noinline = false} {
    %0 = "tt.reduce"(%input) <{axis = 1 : i32, reduction_ordering = "unordered"}> ({
    ^bb0(%arg1: f32 loc(unknown), %arg2: f32 loc(unknown)):
      %1 = arith.addf %arg1, %arg2 : f32 loc(#loc158)
      tt.reduce.return %1 : f32 loc(#loc84)
    }) : (tensor<64x64xf32>) -> tensor<64xf32> loc(#loc84)
    tt.return %0 : tensor<64xf32> loc(#loc86)
  } loc(#loc83)
  tt.func private @triton.language.standard._sum_combine__fp32_fp32__(f32, f32) -> f32 attributes {noinline = false} loc(#loc87)
} loc(#loc)
#loc1 = loc("/projects/kzhou6/hwu27/triton-beta-3-paper-solver-wt/third_party/tlx/tools/sched2tlx/examples/case3_FA_fp16_subtiled/fa_fwd_nows_subtiled.py":28:13)
#loc2 = loc("/projects/kzhou6/hwu27/triton-beta-3-paper-solver-wt/third_party/tlx/tools/sched2tlx/examples/case3_FA_fp16_subtiled/fa_fwd_nows_subtiled.py":29:14)
#loc3 = loc("/projects/kzhou6/hwu27/triton-beta-3-paper-solver-wt/third_party/tlx/tools/sched2tlx/examples/case3_FA_fp16_subtiled/fa_fwd_nows_subtiled.py":30:15)
#loc4 = loc("/projects/kzhou6/hwu27/triton-beta-3-paper-solver-wt/third_party/tlx/tools/sched2tlx/examples/case3_FA_fp16_subtiled/fa_fwd_nows_subtiled.py":31:27)
#loc5 = loc("/projects/kzhou6/hwu27/triton-beta-3-paper-solver-wt/third_party/tlx/tools/sched2tlx/examples/case3_FA_fp16_subtiled/fa_fwd_nows_subtiled.py":31:17)
#loc6 = loc("/projects/kzhou6/hwu27/triton-beta-3-paper-solver-wt/third_party/tlx/tools/sched2tlx/examples/case3_FA_fp16_subtiled/fa_fwd_nows_subtiled.py":32:12)
#loc7 = loc("/projects/kzhou6/hwu27/triton-beta-3-paper-solver-wt/third_party/tlx/tools/sched2tlx/examples/case3_FA_fp16_subtiled/fa_fwd_nows_subtiled.py":33:15)
#loc8 = loc("/projects/kzhou6/hwu27/triton-beta-3-paper-solver-wt/third_party/tlx/tools/sched2tlx/examples/case3_FA_fp16_subtiled/fa_fwd_nows_subtiled.py":35:14)
#loc9 = loc("/projects/kzhou6/hwu27/triton-beta-3-paper-solver-wt/third_party/tlx/tools/sched2tlx/examples/case3_FA_fp16_subtiled/fa_fwd_nows_subtiled.py":37:14)
#loc10 = loc("/projects/kzhou6/hwu27/triton-beta-3-paper-solver-wt/third_party/tlx/tools/sched2tlx/examples/case3_FA_fp16_subtiled/fa_fwd_nows_subtiled.py":39:16)
#loc11 = loc("/projects/kzhou6/hwu27/triton-beta-3-paper-solver-wt/third_party/tlx/tools/sched2tlx/examples/case3_FA_fp16_subtiled/fa_fwd_nows_subtiled.py":41:10)
#loc12 = loc("/projects/kzhou6/hwu27/triton-beta-3-paper-solver-wt/third_party/tlx/tools/sched2tlx/examples/case3_FA_fp16_subtiled/fa_fwd_nows_subtiled.py":42:24)
#loc13 = loc("/projects/kzhou6/hwu27/triton-beta-3-paper-solver-wt/third_party/tlx/tools/sched2tlx/examples/case3_FA_fp16_subtiled/fa_fwd_nows_subtiled.py":42:10)
#loc14 = loc("/projects/kzhou6/hwu27/triton-beta-3-paper-solver-wt/third_party/tlx/tools/sched2tlx/examples/case3_FA_fp16_subtiled/fa_fwd_nows_subtiled.py":43:12)
#loc15 = loc("/projects/kzhou6/hwu27/triton-beta-3-paper-solver-wt/third_party/tlx/tools/sched2tlx/examples/case3_FA_fp16_subtiled/fa_fwd_nows_subtiled.py":44:12)
#loc16 = loc("/projects/kzhou6/hwu27/triton-beta-3-paper-solver-wt/third_party/tlx/tools/sched2tlx/examples/case3_FA_fp16_subtiled/fa_fwd_nows_subtiled.py":45:12)
#loc17 = loc("/projects/kzhou6/hwu27/triton-beta-3-paper-solver-wt/third_party/tlx/tools/sched2tlx/examples/case3_FA_fp16_subtiled/fa_fwd_nows_subtiled.py":46:12)
#loc18 = loc("/projects/kzhou6/hwu27/triton-beta-3-paper-solver-wt/third_party/tlx/tools/sched2tlx/examples/case3_FA_fp16_subtiled/fa_fwd_nows_subtiled.py":47:12)
#loc19 = loc("/projects/kzhou6/hwu27/triton-beta-3-paper-solver-wt/third_party/tlx/tools/sched2tlx/examples/case3_FA_fp16_subtiled/fa_fwd_nows_subtiled.py":48:12)
#loc20 = loc("/projects/kzhou6/hwu27/triton-beta-3-paper-solver-wt/third_party/tlx/tools/sched2tlx/examples/case3_FA_fp16_subtiled/fa_fwd_nows_subtiled.py":49:16)
#loc21 = loc("/projects/kzhou6/hwu27/triton-beta-3-paper-solver-wt/third_party/tlx/tools/sched2tlx/examples/case3_FA_fp16_subtiled/fa_fwd_nows_subtiled.py":50:21)
#loc22 = loc("/projects/kzhou6/hwu27/triton-beta-3-paper-solver-wt/third_party/tlx/tools/sched2tlx/examples/case3_FA_fp16_subtiled/fa_fwd_nows_subtiled.py":50:5)
#loc23 = loc("/projects/kzhou6/hwu27/triton-beta-3-paper-solver-wt/third_party/tlx/tools/sched2tlx/examples/case3_FA_fp16_subtiled/fa_fwd_nows_subtiled.py":51:26)
#loc24 = loc("/projects/kzhou6/hwu27/triton-beta-3-paper-solver-wt/third_party/tlx/tools/sched2tlx/examples/case3_FA_fp16_subtiled/fa_fwd_nows_subtiled.py":51:16)
#loc25 = loc("/projects/kzhou6/hwu27/triton-beta-3-paper-solver-wt/third_party/tlx/tools/sched2tlx/examples/case3_FA_fp16_subtiled/fa_fwd_nows_subtiled.py":52:13)
#loc26 = loc("/projects/kzhou6/hwu27/triton-beta-3-paper-solver-wt/third_party/tlx/tools/sched2tlx/examples/case3_FA_fp16_subtiled/fa_fwd_nows_subtiled.py":53:13)
#loc27 = loc("/projects/kzhou6/hwu27/triton-beta-3-paper-solver-wt/third_party/tlx/tools/sched2tlx/examples/case3_FA_fp16_subtiled/fa_fwd_nows_subtiled.py":54:14)
#loc28 = loc("/projects/kzhou6/hwu27/triton-beta-3-paper-solver-wt/third_party/tlx/tools/sched2tlx/examples/case3_FA_fp16_subtiled/fa_fwd_nows_subtiled.py":55:15)
#loc29 = loc("/projects/kzhou6/hwu27/triton-beta-3-paper-solver-wt/third_party/tlx/tools/sched2tlx/examples/case3_FA_fp16_subtiled/fa_fwd_nows_subtiled.py":56:34)
#loc30 = loc("/projects/kzhou6/hwu27/triton-beta-3-paper-solver-wt/third_party/tlx/tools/sched2tlx/examples/case3_FA_fp16_subtiled/fa_fwd_nows_subtiled.py":56:17)
#loc31 = loc("/projects/kzhou6/hwu27/triton-beta-3-paper-solver-wt/third_party/tlx/tools/sched2tlx/examples/case3_FA_fp16_subtiled/fa_fwd_nows_subtiled.py":57:31)
#loc32 = loc("/projects/kzhou6/hwu27/triton-beta-3-paper-solver-wt/third_party/tlx/tools/sched2tlx/examples/case3_FA_fp16_subtiled/fa_fwd_nows_subtiled.py":57:18)
#loc33 = loc("/projects/kzhou6/hwu27/triton-beta-3-paper-solver-wt/third_party/tlx/tools/sched2tlx/examples/case3_FA_fp16_subtiled/fa_fwd_nows_subtiled.py":58:27)
#loc34 = loc("/projects/kzhou6/hwu27/triton-beta-3-paper-solver-wt/third_party/tlx/tools/sched2tlx/examples/case3_FA_fp16_subtiled/fa_fwd_nows_subtiled.py":58:44)
#loc35 = loc("/projects/kzhou6/hwu27/triton-beta-3-paper-solver-wt/third_party/tlx/tools/sched2tlx/examples/case3_FA_fp16_subtiled/fa_fwd_nows_subtiled.py":58:14)
#loc36 = loc("/projects/kzhou6/hwu27/triton-beta-3-paper-solver-wt/third_party/tlx/tools/sched2tlx/examples/case3_FA_fp16_subtiled/fa_fwd_nows_subtiled.py":59:17)
#loc37 = loc("/projects/kzhou6/hwu27/triton-beta-3-paper-solver-wt/third_party/tlx/tools/sched2tlx/examples/case3_FA_fp16_subtiled/fa_fwd_nows_subtiled.py":60:23)
#loc38 = loc("/projects/kzhou6/hwu27/triton-beta-3-paper-solver-wt/third_party/tlx/tools/sched2tlx/examples/case3_FA_fp16_subtiled/fa_fwd_nows_subtiled.py":60:52)
#loc39 = loc("/projects/kzhou6/hwu27/triton-beta-3-paper-solver-wt/third_party/tlx/tools/sched2tlx/examples/case3_FA_fp16_subtiled/fa_fwd_nows_subtiled.py":60:45)
#loc40 = loc("/projects/kzhou6/hwu27/triton-beta-3-paper-solver-wt/third_party/tlx/tools/sched2tlx/examples/case3_FA_fp16_subtiled/fa_fwd_nows_subtiled.py":60:16)
#loc41 = loc("/projects/kzhou6/hwu27/triton-beta-3-paper-solver-wt/third_party/tlx/tools/sched2tlx/examples/case3_FA_fp16_subtiled/fa_fwd_nows_subtiled.py":61:16)
#loc42 = loc("/projects/kzhou6/hwu27/triton-beta-3-paper-solver-wt/third_party/tlx/tools/sched2tlx/examples/case3_FA_fp16_subtiled/fa_fwd_nows_subtiled.py":63:15)
#loc43 = loc("/projects/kzhou6/hwu27/triton-beta-3-paper-solver-wt/third_party/tlx/tools/sched2tlx/examples/case3_FA_fp16_subtiled/fa_fwd_nows_subtiled.py":64:34)
#loc44 = loc("/projects/kzhou6/hwu27/triton-beta-3-paper-solver-wt/third_party/tlx/tools/sched2tlx/examples/case3_FA_fp16_subtiled/fa_fwd_nows_subtiled.py":64:17)
#loc45 = loc("/projects/kzhou6/hwu27/triton-beta-3-paper-solver-wt/third_party/tlx/tools/sched2tlx/examples/case3_FA_fp16_subtiled/fa_fwd_nows_subtiled.py":65:31)
#loc46 = loc("/projects/kzhou6/hwu27/triton-beta-3-paper-solver-wt/third_party/tlx/tools/sched2tlx/examples/case3_FA_fp16_subtiled/fa_fwd_nows_subtiled.py":65:18)
#loc47 = loc("/projects/kzhou6/hwu27/triton-beta-3-paper-solver-wt/third_party/tlx/tools/sched2tlx/examples/case3_FA_fp16_subtiled/fa_fwd_nows_subtiled.py":66:27)
#loc48 = loc("/projects/kzhou6/hwu27/triton-beta-3-paper-solver-wt/third_party/tlx/tools/sched2tlx/examples/case3_FA_fp16_subtiled/fa_fwd_nows_subtiled.py":66:44)
#loc49 = loc("/projects/kzhou6/hwu27/triton-beta-3-paper-solver-wt/third_party/tlx/tools/sched2tlx/examples/case3_FA_fp16_subtiled/fa_fwd_nows_subtiled.py":66:14)
#loc50 = loc("/projects/kzhou6/hwu27/triton-beta-3-paper-solver-wt/third_party/tlx/tools/sched2tlx/examples/case3_FA_fp16_subtiled/fa_fwd_nows_subtiled.py":67:17)
#loc51 = loc("/projects/kzhou6/hwu27/triton-beta-3-paper-solver-wt/third_party/tlx/tools/sched2tlx/examples/case3_FA_fp16_subtiled/fa_fwd_nows_subtiled.py":68:23)
#loc52 = loc("/projects/kzhou6/hwu27/triton-beta-3-paper-solver-wt/third_party/tlx/tools/sched2tlx/examples/case3_FA_fp16_subtiled/fa_fwd_nows_subtiled.py":68:52)
#loc53 = loc("/projects/kzhou6/hwu27/triton-beta-3-paper-solver-wt/third_party/tlx/tools/sched2tlx/examples/case3_FA_fp16_subtiled/fa_fwd_nows_subtiled.py":68:45)
#loc54 = loc("/projects/kzhou6/hwu27/triton-beta-3-paper-solver-wt/third_party/tlx/tools/sched2tlx/examples/case3_FA_fp16_subtiled/fa_fwd_nows_subtiled.py":68:16)
#loc55 = loc("/projects/kzhou6/hwu27/triton-beta-3-paper-solver-wt/third_party/tlx/tools/sched2tlx/examples/case3_FA_fp16_subtiled/fa_fwd_nows_subtiled.py":69:16)
#loc56 = loc("/projects/kzhou6/hwu27/triton-beta-3-paper-solver-wt/third_party/tlx/tools/sched2tlx/examples/case3_FA_fp16_subtiled/fa_fwd_nows_subtiled.py":71:19)
#loc57 = loc("/projects/kzhou6/hwu27/triton-beta-3-paper-solver-wt/third_party/tlx/tools/sched2tlx/examples/case3_FA_fp16_subtiled/fa_fwd_nows_subtiled.py":71:12)
#loc58 = loc("/projects/kzhou6/hwu27/triton-beta-3-paper-solver-wt/third_party/tlx/tools/sched2tlx/examples/case3_FA_fp16_subtiled/fa_fwd_nows_subtiled.py":72:19)
#loc59 = loc("/projects/kzhou6/hwu27/triton-beta-3-paper-solver-wt/third_party/tlx/tools/sched2tlx/examples/case3_FA_fp16_subtiled/fa_fwd_nows_subtiled.py":72:12)
#loc60 = loc("/projects/kzhou6/hwu27/triton-beta-3-paper-solver-wt/third_party/tlx/tools/sched2tlx/examples/case3_FA_fp16_subtiled/fa_fwd_nows_subtiled.py":73:36)
#loc61 = loc("/projects/kzhou6/hwu27/triton-beta-3-paper-solver-wt/third_party/tlx/tools/sched2tlx/examples/case3_FA_fp16_subtiled/fa_fwd_nows_subtiled.py":73:5)
#loc62 = loc("/projects/kzhou6/hwu27/triton-beta-3-paper-solver-wt/third_party/tlx/tools/sched2tlx/examples/case3_FA_fp16_subtiled/fa_fwd_nows_subtiled.py":74:21)
#loc63 = loc("/projects/kzhou6/hwu27/triton-beta-3-paper-solver-wt/third_party/tlx/tools/sched2tlx/examples/case3_FA_fp16_subtiled/fa_fwd_nows_subtiled.py":74:44)
#loc64 = loc("/projects/kzhou6/hwu27/triton-beta-3-paper-solver-wt/third_party/tlx/tools/sched2tlx/examples/case3_FA_fp16_subtiled/fa_fwd_nows_subtiled.py":74:5)
#loc65 = loc("/projects/kzhou6/hwu27/triton-beta-3-paper-solver-wt/third_party/tlx/tools/sched2tlx/examples/case3_FA_fp16_subtiled/fa_fwd_nows_subtiled.py":75:12)
#loc66 = loc("/projects/kzhou6/hwu27/triton-beta-3-paper-solver-wt/third_party/tlx/tools/sched2tlx/examples/case3_FA_fp16_subtiled/fa_fwd_nows_subtiled.py":76:14)
#loc67 = loc("/projects/kzhou6/hwu27/triton-beta-3-paper-solver-wt/third_party/tlx/tools/sched2tlx/examples/case3_FA_fp16_subtiled/fa_fwd_nows_subtiled.py":76:47)
#loc68 = loc("/projects/kzhou6/hwu27/triton-beta-3-paper-solver-wt/third_party/tlx/tools/sched2tlx/examples/case3_FA_fp16_subtiled/fa_fwd_nows_subtiled.py":76:40)
#loc69 = loc("/projects/kzhou6/hwu27/triton-beta-3-paper-solver-wt/third_party/tlx/tools/sched2tlx/examples/case3_FA_fp16_subtiled/fa_fwd_nows_subtiled.py":76:5)
#loc70 = loc("/projects/kzhou6/hwu27/triton-beta-3-paper-solver-wt/third_party/tlx/tools/sched2tlx/examples/case3_FA_fp16_subtiled/fa_fwd_nows_subtiled.py":77:14)
#loc71 = loc("/projects/kzhou6/hwu27/triton-beta-3-paper-solver-wt/third_party/tlx/tools/sched2tlx/examples/case3_FA_fp16_subtiled/fa_fwd_nows_subtiled.py":77:55)
#loc72 = loc("/projects/kzhou6/hwu27/triton-beta-3-paper-solver-wt/third_party/tlx/tools/sched2tlx/examples/case3_FA_fp16_subtiled/fa_fwd_nows_subtiled.py":77:48)
#loc73 = loc("/projects/kzhou6/hwu27/triton-beta-3-paper-solver-wt/third_party/tlx/tools/sched2tlx/examples/case3_FA_fp16_subtiled/fa_fwd_nows_subtiled.py":77:5)
#loc74 = loc("/projects/kzhou6/hwu27/triton-beta-3-paper-solver-wt/python/triton/language/standard.py":120:1)
#loc75 = loc("/projects/kzhou6/hwu27/triton-beta-3-paper-solver-wt/python/triton/language/standard.py":129:12)
#loc76 = loc("/projects/kzhou6/hwu27/triton-beta-3-paper-solver-wt/python/triton/language/standard.py":129:5)
#loc78 = loc("/projects/kzhou6/hwu27/triton-beta-3-paper-solver-wt/python/triton/language/standard.py":194:16)
#loc80 = loc("/projects/kzhou6/hwu27/triton-beta-3-paper-solver-wt/python/triton/language/standard.py":170:12)
#loc81 = loc("/projects/kzhou6/hwu27/triton-beta-3-paper-solver-wt/python/triton/language/standard.py":194:9)
#loc82 = loc("/projects/kzhou6/hwu27/triton-beta-3-paper-solver-wt/python/triton/language/standard.py":169:1)
#loc84 = loc("/projects/kzhou6/hwu27/triton-beta-3-paper-solver-wt/python/triton/language/standard.py":313:12)
#loc85 = loc("/projects/kzhou6/hwu27/triton-beta-3-paper-solver-wt/python/triton/language/standard.py":273:12)
#loc86 = loc("/projects/kzhou6/hwu27/triton-beta-3-paper-solver-wt/python/triton/language/standard.py":313:5)
#loc87 = loc("/projects/kzhou6/hwu27/triton-beta-3-paper-solver-wt/python/triton/language/standard.py":272:1)
#loc96 = loc("pid_m"(#loc1))
#loc97 = loc("pid_bh"(#loc2))
#loc98 = loc("kv_base"(#loc3))
#loc99 = loc("qo_offset"(#loc4))
#loc100 = loc("qo_offset"(#loc5))
#loc101 = loc("rows"(#loc6))
#loc102 = loc("qo_desc"(#loc7))
#loc103 = loc("k_desc"(#loc8))
#loc104 = loc("v_desc"(#loc9))
#loc105 = loc("out_desc"(#loc10))
#loc106 = loc("q0"(#loc11))
#loc107 = loc("q1"(#loc12))
#loc108 = loc("q1"(#loc13))
#loc109 = loc("m_i0"(#loc14))
#loc110 = loc("m_i1"(#loc15))
#loc111 = loc("l_i0"(#loc16))
#loc112 = loc("l_i1"(#loc17))
#loc113 = loc("acc0"(#loc18))
#loc114 = loc("acc1"(#loc19))
#loc115 = loc("qk_scale"(#loc20))
#loc116 = loc("m_i0"(#loc22))
#loc117 = loc("koff"(#loc23))
#loc118 = loc("koff"(#loc24))
#loc119 = loc("k"(#loc25))
#loc120 = loc("v"(#loc26))
#loc121 = loc("kt"(#loc27))
#loc122 = loc("qk0"(#loc28))
#loc123 = loc("m_ij0"(#loc29))
#loc124 = loc("m_ij0"(#loc30))
#loc125 = loc("alpha0"(#loc31))
#loc126 = loc("alpha0"(#loc32))
#loc127 = loc("p0"(#loc33))
#loc128 = loc("p0"(#loc34))
#loc129 = loc("p0"(#loc35))
#loc130 = loc("l_ij0"(#loc36))
#loc131 = loc("acc0"(#loc37))
#loc132 = loc("acc0"(#loc38))
#loc133 = loc("acc0"(#loc39))
#loc134 = loc("acc0"(#loc40))
#loc135 = loc("l_i0"(#loc41))
#loc136 = loc("qk1"(#loc42))
#loc137 = loc("m_ij1"(#loc43))
#loc138 = loc("m_ij1"(#loc44))
#loc139 = loc("alpha1"(#loc45))
#loc140 = loc("alpha1"(#loc46))
#loc141 = loc("p1"(#loc47))
#loc142 = loc("p1"(#loc48))
#loc143 = loc("p1"(#loc49))
#loc144 = loc("l_ij1"(#loc50))
#loc145 = loc("acc1"(#loc51))
#loc146 = loc("acc1"(#loc52))
#loc147 = loc("acc1"(#loc53))
#loc148 = loc("acc1"(#loc54))
#loc149 = loc("l_i1"(#loc55))
#loc150 = loc("acc0"(#loc56))
#loc151 = loc("acc0"(#loc57))
#loc152 = loc("acc1"(#loc58))
#loc153 = loc("acc1"(#loc59))
#loc154 = loc("offs"(#loc65))
#loc156 = loc(callsite(#loc80 at #loc78))
#loc158 = loc(callsite(#loc85 at #loc84))
#loc159 = loc("m_i1"(#loc116))
#loc160 = loc("l_i0"(#loc159))
#loc161 = loc("l_i1"(#loc160))
#loc162 = loc("acc0"(#loc161))
#loc163 = loc("acc1"(#loc162))


// -----// IR Dump Before CanonicalizerPass: canonicalize{cse-between-iterations=false    max-iterations=10 max-num-rewrites=-1 region-simplify=normal test-convergence=false top-down=true} ('tt.func' operation: @fa_fwd_kernel_nows_subtiled) //----- //
#loc = loc("/projects/kzhou6/hwu27/triton-beta-3-paper-solver-wt/third_party/tlx/tools/sched2tlx/examples/case3_FA_fp16_subtiled/fa_fwd_nows_subtiled.py":25:1)
#loc2 = loc(unknown)
#loc28 = loc("/projects/kzhou6/hwu27/triton-beta-3-paper-solver-wt/third_party/tlx/tools/sched2tlx/examples/case3_FA_fp16_subtiled/fa_fwd_nows_subtiled.py":56:34)
#loc37 = loc("/projects/kzhou6/hwu27/triton-beta-3-paper-solver-wt/third_party/tlx/tools/sched2tlx/examples/case3_FA_fp16_subtiled/fa_fwd_nows_subtiled.py":59:17)
#loc45 = loc("/projects/kzhou6/hwu27/triton-beta-3-paper-solver-wt/third_party/tlx/tools/sched2tlx/examples/case3_FA_fp16_subtiled/fa_fwd_nows_subtiled.py":64:34)
#loc52 = loc("/projects/kzhou6/hwu27/triton-beta-3-paper-solver-wt/third_party/tlx/tools/sched2tlx/examples/case3_FA_fp16_subtiled/fa_fwd_nows_subtiled.py":67:17)
#loc81 = loc("Q"(#loc))
#loc82 = loc("K"(#loc))
#loc83 = loc("V"(#loc))
#loc84 = loc("Out"(#loc))
#loc85 = loc("M_lse"(#loc))
#loc86 = loc("sm_scale"(#loc))
#loc87 = loc("H"(#loc))
#loc88 = loc("N_CTX"(#loc))
#loc112 = loc("m_ij0"(#loc28))
#loc119 = loc("l_ij0"(#loc37))
#loc126 = loc("m_ij1"(#loc45))
#loc133 = loc("l_ij1"(#loc52))
#loc148 = loc(callsite(#loc2 at #loc112))
#loc150 = loc(callsite(#loc2 at #loc119))
#loc152 = loc(callsite(#loc2 at #loc126))
#loc154 = loc(callsite(#loc2 at #loc133))
module {
  tt.func public @fa_fwd_kernel_nows_subtiled(%Q: !tt.ptr<f16> {tt.divisibility = 16 : i32} loc("Q"(#loc)), %K: !tt.ptr<f16> {tt.divisibility = 16 : i32} loc("K"(#loc)), %V: !tt.ptr<f16> {tt.divisibility = 16 : i32} loc("V"(#loc)), %Out: !tt.ptr<f16> {tt.divisibility = 16 : i32} loc("Out"(#loc)), %M_lse: !tt.ptr<f32> {tt.divisibility = 16 : i32} loc("M_lse"(#loc)), %sm_scale: f32 loc("sm_scale"(#loc)), %H: i32 loc("H"(#loc)), %N_CTX: i32 {tt.divisibility = 16 : i32} loc("N_CTX"(#loc))) attributes {noinline = false} {
    %c1_i32 = arith.constant 1 : i32 loc(#loc1)
    %cst = arith.constant dense<0.000000e+00> : tensor<64x64xf32> loc(#loc2)
    %cst_0 = arith.constant 1.44269502 : f32 loc(#loc2)
    %cst_1 = arith.constant dense<1.000000e+00> : tensor<64xf32> loc(#loc2)
    %cst_2 = arith.constant dense<0xFF800000> : tensor<64xf32> loc(#loc2)
    %c64_i32 = arith.constant 64 : i32 loc(#loc2)
    %c0_i32 = arith.constant 0 : i32 loc(#loc2)
    %c1_i64 = arith.constant 1 : i64 loc(#loc2)
    %c128_i64 = arith.constant 128 : i64 loc(#loc2)
    %c128_i32 = arith.constant 128 : i32 loc(#loc2)
    %pid_m = tt.get_program_id x : i32 loc(#loc89)
    %pid_bh = tt.get_program_id y : i32 loc(#loc90)
    %kv_base = arith.muli %pid_bh, %N_CTX : i32 loc(#loc91)
    %qo_offset = arith.muli %pid_m, %c128_i32 : i32 loc(#loc92)
    %qo_offset_3 = arith.addi %kv_base, %qo_offset : i32 loc(#loc93)
    %rows = arith.muli %H, %N_CTX : i32 loc(#loc94)
    %qo_desc = tt.make_tensor_descriptor %Q, [%rows, %c128_i32], [%c128_i64, %c1_i64] : !tt.ptr<f16>, !tt.tensordesc<64x128xf16> loc(#loc95)
    %k_desc = tt.make_tensor_descriptor %K, [%rows, %c128_i32], [%c128_i64, %c1_i64] : !tt.ptr<f16>, !tt.tensordesc<64x128xf16> loc(#loc96)
    %v_desc = tt.make_tensor_descriptor %V, [%rows, %c128_i32], [%c128_i64, %c1_i64] : !tt.ptr<f16>, !tt.tensordesc<64x128xf16> loc(#loc97)
    %out_desc = tt.make_tensor_descriptor %Out, [%rows, %c128_i32], [%c128_i64, %c1_i64] : !tt.ptr<f16>, !tt.tensordesc<64x128xf16> loc(#loc98)
    %q0 = tt.descriptor_load %qo_desc[%qo_offset_3, %c0_i32] : !tt.tensordesc<64x128xf16> -> tensor<64x128xf16> loc(#loc99)
    %q1 = arith.addi %qo_offset_3, %c64_i32 : i32 loc(#loc100)
    %q1_4 = tt.descriptor_load %qo_desc[%q1, %c0_i32] : !tt.tensordesc<64x128xf16> -> tensor<64x128xf16> loc(#loc101)
    %acc0 = arith.constant dense<0.000000e+00> : tensor<64x128xf32> loc(#loc144)
    %acc1 = arith.constant dense<0.000000e+00> : tensor<64x128xf32> loc(#loc145)
    %qk_scale = arith.mulf %sm_scale, %cst_0 : f32 loc(#loc104)
    %0 = arith.divsi %N_CTX, %c64_i32 : i32 loc(#loc20)
    %acc1_5:6 = scf.for %kv = %c0_i32 to %0 step %c1_i32 iter_args(%m_i0 = %cst_2, %m_i1 = %cst_2, %l_i0 = %cst_1, %l_i1 = %cst_1, %acc0_12 = %acc0, %acc1_13 = %acc1) -> (tensor<64xf32>, tensor<64xf32>, tensor<64xf32>, tensor<64xf32>, tensor<64x128xf32>, tensor<64x128xf32>)  : i32 {
      %koff = arith.muli %kv, %c64_i32 : i32 loc(#loc106)
      %koff_14 = arith.addi %kv_base, %koff : i32 loc(#loc107)
      %k = tt.descriptor_load %k_desc[%koff_14, %c0_i32] : !tt.tensordesc<64x128xf16> -> tensor<64x128xf16> loc(#loc108)
      %v = tt.descriptor_load %v_desc[%koff_14, %c0_i32] : !tt.tensordesc<64x128xf16> -> tensor<64x128xf16> loc(#loc109)
      %kt = tt.trans %k {order = array<i32: 1, 0>} : tensor<64x128xf16> -> tensor<128x64xf16> loc(#loc110)
      %qk0 = tt.dot %q0, %kt, %cst, inputPrecision = tf32 : tensor<64x128xf16> * tensor<128x64xf16> -> tensor<64x64xf32> loc(#loc111)
      %m_ij0 = "tt.reduce"(%qk0) <{axis = 1 : i32, reduction_ordering = "unordered"}> ({
      ^bb0(%m_ij0_47: f32 loc(callsite(#loc2 at #loc112)), %m_ij0_48: f32 loc(callsite(#loc2 at #loc112))):
        %m_ij0_49 = arith.maxnumf %m_ij0_47, %m_ij0_48 : f32 loc(#loc156)
        tt.reduce.return %m_ij0_49 : f32 loc(#loc147)
      }) : (tensor<64x64xf32>) -> tensor<64xf32> loc(#loc147)
      %m_ij0_15 = tt.splat %qk_scale : f32 -> tensor<64xf32> loc(#loc112)
      %m_ij0_16 = arith.mulf %m_ij0, %m_ij0_15 : tensor<64xf32> loc(#loc112)
      %m_ij0_17 = arith.maxnumf %m_i0, %m_ij0_16 : tensor<64xf32> loc(#loc113)
      %alpha0 = arith.subf %m_i0, %m_ij0_17 : tensor<64xf32> loc(#loc114)
      %alpha0_18 = math.exp2 %alpha0 : tensor<64xf32> loc(#loc115)
      %p0 = tt.splat %qk_scale : f32 -> tensor<64x64xf32> loc(#loc116)
      %p0_19 = arith.mulf %qk0, %p0 : tensor<64x64xf32> loc(#loc116)
      %p0_20 = tt.expand_dims %m_ij0_17 {axis = 1 : i32} : tensor<64xf32> -> tensor<64x1xf32> loc(#loc117)
      %p0_21 = tt.broadcast %p0_20 : tensor<64x1xf32> -> tensor<64x64xf32> loc(#loc116)
      %p0_22 = arith.subf %p0_19, %p0_21 : tensor<64x64xf32> loc(#loc116)
      %p0_23 = math.exp2 %p0_22 : tensor<64x64xf32> loc(#loc118)
      %l_ij0 = "tt.reduce"(%p0_23) <{axis = 1 : i32, reduction_ordering = "unordered"}> ({
      ^bb0(%l_ij0_47: f32 loc(callsite(#loc2 at #loc119)), %l_ij0_48: f32 loc(callsite(#loc2 at #loc119))):
        %l_ij0_49 = arith.addf %l_ij0_47, %l_ij0_48 : f32 loc(#loc157)
        tt.reduce.return %l_ij0_49 : f32 loc(#loc149)
      }) : (tensor<64x64xf32>) -> tensor<64xf32> loc(#loc149)
      %acc0_24 = arith.truncf %p0_23 : tensor<64x64xf32> to tensor<64x64xf16> loc(#loc120)
      %acc0_25 = tt.expand_dims %alpha0_18 {axis = 1 : i32} : tensor<64xf32> -> tensor<64x1xf32> loc(#loc121)
      %acc0_26 = tt.broadcast %acc0_25 : tensor<64x1xf32> -> tensor<64x128xf32> loc(#loc122)
      %acc0_27 = arith.mulf %acc0_12, %acc0_26 : tensor<64x128xf32> loc(#loc122)
      %acc0_28 = tt.dot %acc0_24, %v, %acc0_27, inputPrecision = tf32 : tensor<64x64xf16> * tensor<64x128xf16> -> tensor<64x128xf32> loc(#loc123)
      %l_i0_29 = arith.mulf %l_i0, %alpha0_18 : tensor<64xf32> loc(#loc124)
      %l_i0_30 = arith.addf %l_i0_29, %l_ij0 : tensor<64xf32> loc(#loc124)
      %qk1 = tt.dot %q1_4, %kt, %cst, inputPrecision = tf32 : tensor<64x128xf16> * tensor<128x64xf16> -> tensor<64x64xf32> loc(#loc125)
      %m_ij1 = "tt.reduce"(%qk1) <{axis = 1 : i32, reduction_ordering = "unordered"}> ({
      ^bb0(%m_ij1_47: f32 loc(callsite(#loc2 at #loc126)), %m_ij1_48: f32 loc(callsite(#loc2 at #loc126))):
        %m_ij1_49 = arith.maxnumf %m_ij1_47, %m_ij1_48 : f32 loc(#loc158)
        tt.reduce.return %m_ij1_49 : f32 loc(#loc151)
      }) : (tensor<64x64xf32>) -> tensor<64xf32> loc(#loc151)
      %m_ij1_31 = tt.splat %qk_scale : f32 -> tensor<64xf32> loc(#loc126)
      %m_ij1_32 = arith.mulf %m_ij1, %m_ij1_31 : tensor<64xf32> loc(#loc126)
      %m_ij1_33 = arith.maxnumf %m_i1, %m_ij1_32 : tensor<64xf32> loc(#loc127)
      %alpha1 = arith.subf %m_i1, %m_ij1_33 : tensor<64xf32> loc(#loc128)
      %alpha1_34 = math.exp2 %alpha1 : tensor<64xf32> loc(#loc129)
      %p1 = tt.splat %qk_scale : f32 -> tensor<64x64xf32> loc(#loc130)
      %p1_35 = arith.mulf %qk1, %p1 : tensor<64x64xf32> loc(#loc130)
      %p1_36 = tt.expand_dims %m_ij1_33 {axis = 1 : i32} : tensor<64xf32> -> tensor<64x1xf32> loc(#loc131)
      %p1_37 = tt.broadcast %p1_36 : tensor<64x1xf32> -> tensor<64x64xf32> loc(#loc130)
      %p1_38 = arith.subf %p1_35, %p1_37 : tensor<64x64xf32> loc(#loc130)
      %p1_39 = math.exp2 %p1_38 : tensor<64x64xf32> loc(#loc132)
      %l_ij1 = "tt.reduce"(%p1_39) <{axis = 1 : i32, reduction_ordering = "unordered"}> ({
      ^bb0(%l_ij1_47: f32 loc(callsite(#loc2 at #loc133)), %l_ij1_48: f32 loc(callsite(#loc2 at #loc133))):
        %l_ij1_49 = arith.addf %l_ij1_47, %l_ij1_48 : f32 loc(#loc159)
        tt.reduce.return %l_ij1_49 : f32 loc(#loc153)
      }) : (tensor<64x64xf32>) -> tensor<64xf32> loc(#loc153)
      %acc1_40 = arith.truncf %p1_39 : tensor<64x64xf32> to tensor<64x64xf16> loc(#loc134)
      %acc1_41 = tt.expand_dims %alpha1_34 {axis = 1 : i32} : tensor<64xf32> -> tensor<64x1xf32> loc(#loc135)
      %acc1_42 = tt.broadcast %acc1_41 : tensor<64x1xf32> -> tensor<64x128xf32> loc(#loc136)
      %acc1_43 = arith.mulf %acc1_13, %acc1_42 : tensor<64x128xf32> loc(#loc136)
      %acc1_44 = tt.dot %acc1_40, %v, %acc1_43, inputPrecision = tf32 : tensor<64x64xf16> * tensor<64x128xf16> -> tensor<64x128xf32> loc(#loc137)
      %l_i1_45 = arith.mulf %l_i1, %alpha1_34 : tensor<64xf32> loc(#loc138)
      %l_i1_46 = arith.addf %l_i1_45, %l_ij1 : tensor<64xf32> loc(#loc138)
      scf.yield %m_ij0_17, %m_ij1_33, %l_i0_30, %l_i1_46, %acc0_28, %acc1_44 : tensor<64xf32>, tensor<64xf32>, tensor<64xf32>, tensor<64xf32>, tensor<64x128xf32>, tensor<64x128xf32> loc(#loc1)
    } loc(#loc162)
    %acc0_6 = tt.expand_dims %acc1_5#2 {axis = 1 : i32} : tensor<64xf32> -> tensor<64x1xf32> loc(#loc139)
    %acc0_7 = tt.broadcast %acc0_6 : tensor<64x1xf32> -> tensor<64x128xf32> loc(#loc140)
    %acc0_8 = arith.divf %acc1_5#4, %acc0_7 : tensor<64x128xf32> loc(#loc140)
    %acc1_9 = tt.expand_dims %acc1_5#3 {axis = 1 : i32} : tensor<64xf32> -> tensor<64x1xf32> loc(#loc141)
    %acc1_10 = tt.broadcast %acc1_9 : tensor<64x1xf32> -> tensor<64x128xf32> loc(#loc142)
    %acc1_11 = arith.divf %acc1_5#5, %acc1_10 : tensor<64x128xf32> loc(#loc142)
    %1 = arith.truncf %acc0_8 : tensor<64x128xf32> to tensor<64x128xf16> loc(#loc62)
    tt.descriptor_store %out_desc[%qo_offset_3, %c0_i32], %1 : !tt.tensordesc<64x128xf16>, tensor<64x128xf16> loc(#loc63)
    %2 = arith.addi %qo_offset_3, %c64_i32 : i32 loc(#loc64)
    %3 = arith.truncf %acc1_11 : tensor<64x128xf32> to tensor<64x128xf16> loc(#loc65)
    tt.descriptor_store %out_desc[%2, %c0_i32], %3 : !tt.tensordesc<64x128xf16>, tensor<64x128xf16> loc(#loc66)
    %offs = tt.make_range {end = 64 : i32, start = 0 : i32} : tensor<64xi32> loc(#loc143)
    %4 = tt.addptr %M_lse, %qo_offset_3 : !tt.ptr<f32>, i32 loc(#loc68)
    %5 = tt.splat %4 : !tt.ptr<f32> -> tensor<64x!tt.ptr<f32>> loc(#loc68)
    %6 = tt.addptr %5, %offs : tensor<64x!tt.ptr<f32>>, tensor<64xi32> loc(#loc68)
    %7 = math.log2 %acc1_5#2 : tensor<64xf32> loc(#loc69)
    %8 = arith.addf %acc1_5#0, %7 : tensor<64xf32> loc(#loc70)
    tt.store %6, %8 : tensor<64x!tt.ptr<f32>> loc(#loc71)
    %9 = tt.addptr %M_lse, %qo_offset_3 : !tt.ptr<f32>, i32 loc(#loc72)
    %10 = tt.addptr %9, %c64_i32 : !tt.ptr<f32>, i32 loc(#loc72)
    %11 = tt.splat %10 : !tt.ptr<f32> -> tensor<64x!tt.ptr<f32>> loc(#loc72)
    %12 = tt.addptr %11, %offs : tensor<64x!tt.ptr<f32>>, tensor<64xi32> loc(#loc72)
    %13 = math.log2 %acc1_5#3 : tensor<64xf32> loc(#loc73)
    %14 = arith.addf %acc1_5#1, %13 : tensor<64xf32> loc(#loc74)
    tt.store %12, %14 : tensor<64x!tt.ptr<f32>> loc(#loc75)
    tt.return loc(#loc)
  } loc(#loc)
  tt.func private @"triton.language.standard.zeros____(0, 0)cconstexpr_64__(0, 1)cconstexpr_128__(1,)cconstexpr_fp32_"() -> tensor<64x128xf32> attributes {noinline = false} loc(#loc76)
  tt.func private @"triton.language.standard.max__fp32S64_64S__(1,)cconstexpr_1__(2,)cconstexpr_False__(3,)cconstexpr_True__(4,)cconstexpr_False__(5,)cNone"(tensor<64x64xf32>) -> tensor<64xf32> attributes {noinline = false} loc(#loc77)
  tt.func private @triton.language.standard._elementwise_max__fp32_fp32__(f32, f32) -> f32 attributes {noinline = false} loc(#loc78)
  tt.func private @"triton.language.standard.sum__fp32S64_64S__(1,)cconstexpr_1__(2,)cconstexpr_False__(3,)cNone_(4,)cNone"(tensor<64x64xf32>) -> tensor<64xf32> attributes {noinline = false} loc(#loc79)
  tt.func private @triton.language.standard._sum_combine__fp32_fp32__(f32, f32) -> f32 attributes {noinline = false} loc(#loc80)
} loc(#loc)
#loc1 = loc("/projects/kzhou6/hwu27/triton-beta-3-paper-solver-wt/third_party/tlx/tools/sched2tlx/examples/case3_FA_fp16_subtiled/fa_fwd_nows_subtiled.py":50:5)
#loc3 = loc("/projects/kzhou6/hwu27/triton-beta-3-paper-solver-wt/third_party/tlx/tools/sched2tlx/examples/case3_FA_fp16_subtiled/fa_fwd_nows_subtiled.py":28:13)
#loc4 = loc("/projects/kzhou6/hwu27/triton-beta-3-paper-solver-wt/third_party/tlx/tools/sched2tlx/examples/case3_FA_fp16_subtiled/fa_fwd_nows_subtiled.py":29:14)
#loc5 = loc("/projects/kzhou6/hwu27/triton-beta-3-paper-solver-wt/third_party/tlx/tools/sched2tlx/examples/case3_FA_fp16_subtiled/fa_fwd_nows_subtiled.py":30:15)
#loc6 = loc("/projects/kzhou6/hwu27/triton-beta-3-paper-solver-wt/third_party/tlx/tools/sched2tlx/examples/case3_FA_fp16_subtiled/fa_fwd_nows_subtiled.py":31:27)
#loc7 = loc("/projects/kzhou6/hwu27/triton-beta-3-paper-solver-wt/third_party/tlx/tools/sched2tlx/examples/case3_FA_fp16_subtiled/fa_fwd_nows_subtiled.py":31:17)
#loc8 = loc("/projects/kzhou6/hwu27/triton-beta-3-paper-solver-wt/third_party/tlx/tools/sched2tlx/examples/case3_FA_fp16_subtiled/fa_fwd_nows_subtiled.py":32:12)
#loc9 = loc("/projects/kzhou6/hwu27/triton-beta-3-paper-solver-wt/third_party/tlx/tools/sched2tlx/examples/case3_FA_fp16_subtiled/fa_fwd_nows_subtiled.py":33:15)
#loc10 = loc("/projects/kzhou6/hwu27/triton-beta-3-paper-solver-wt/third_party/tlx/tools/sched2tlx/examples/case3_FA_fp16_subtiled/fa_fwd_nows_subtiled.py":35:14)
#loc11 = loc("/projects/kzhou6/hwu27/triton-beta-3-paper-solver-wt/third_party/tlx/tools/sched2tlx/examples/case3_FA_fp16_subtiled/fa_fwd_nows_subtiled.py":37:14)
#loc12 = loc("/projects/kzhou6/hwu27/triton-beta-3-paper-solver-wt/third_party/tlx/tools/sched2tlx/examples/case3_FA_fp16_subtiled/fa_fwd_nows_subtiled.py":39:16)
#loc13 = loc("/projects/kzhou6/hwu27/triton-beta-3-paper-solver-wt/third_party/tlx/tools/sched2tlx/examples/case3_FA_fp16_subtiled/fa_fwd_nows_subtiled.py":41:10)
#loc14 = loc("/projects/kzhou6/hwu27/triton-beta-3-paper-solver-wt/third_party/tlx/tools/sched2tlx/examples/case3_FA_fp16_subtiled/fa_fwd_nows_subtiled.py":42:24)
#loc15 = loc("/projects/kzhou6/hwu27/triton-beta-3-paper-solver-wt/third_party/tlx/tools/sched2tlx/examples/case3_FA_fp16_subtiled/fa_fwd_nows_subtiled.py":42:10)
#loc16 = loc("/projects/kzhou6/hwu27/triton-beta-3-paper-solver-wt/python/triton/language/standard.py":129:12)
#loc17 = loc("/projects/kzhou6/hwu27/triton-beta-3-paper-solver-wt/third_party/tlx/tools/sched2tlx/examples/case3_FA_fp16_subtiled/fa_fwd_nows_subtiled.py":47:12)
#loc18 = loc("/projects/kzhou6/hwu27/triton-beta-3-paper-solver-wt/third_party/tlx/tools/sched2tlx/examples/case3_FA_fp16_subtiled/fa_fwd_nows_subtiled.py":48:12)
#loc19 = loc("/projects/kzhou6/hwu27/triton-beta-3-paper-solver-wt/third_party/tlx/tools/sched2tlx/examples/case3_FA_fp16_subtiled/fa_fwd_nows_subtiled.py":49:16)
#loc20 = loc("/projects/kzhou6/hwu27/triton-beta-3-paper-solver-wt/third_party/tlx/tools/sched2tlx/examples/case3_FA_fp16_subtiled/fa_fwd_nows_subtiled.py":50:21)
#loc21 = loc("/projects/kzhou6/hwu27/triton-beta-3-paper-solver-wt/third_party/tlx/tools/sched2tlx/examples/case3_FA_fp16_subtiled/fa_fwd_nows_subtiled.py":51:26)
#loc22 = loc("/projects/kzhou6/hwu27/triton-beta-3-paper-solver-wt/third_party/tlx/tools/sched2tlx/examples/case3_FA_fp16_subtiled/fa_fwd_nows_subtiled.py":51:16)
#loc23 = loc("/projects/kzhou6/hwu27/triton-beta-3-paper-solver-wt/third_party/tlx/tools/sched2tlx/examples/case3_FA_fp16_subtiled/fa_fwd_nows_subtiled.py":52:13)
#loc24 = loc("/projects/kzhou6/hwu27/triton-beta-3-paper-solver-wt/third_party/tlx/tools/sched2tlx/examples/case3_FA_fp16_subtiled/fa_fwd_nows_subtiled.py":53:13)
#loc25 = loc("/projects/kzhou6/hwu27/triton-beta-3-paper-solver-wt/third_party/tlx/tools/sched2tlx/examples/case3_FA_fp16_subtiled/fa_fwd_nows_subtiled.py":54:14)
#loc26 = loc("/projects/kzhou6/hwu27/triton-beta-3-paper-solver-wt/third_party/tlx/tools/sched2tlx/examples/case3_FA_fp16_subtiled/fa_fwd_nows_subtiled.py":55:15)
#loc27 = loc("/projects/kzhou6/hwu27/triton-beta-3-paper-solver-wt/python/triton/language/standard.py":194:16)
#loc29 = loc("/projects/kzhou6/hwu27/triton-beta-3-paper-solver-wt/python/triton/language/standard.py":170:12)
#loc30 = loc("/projects/kzhou6/hwu27/triton-beta-3-paper-solver-wt/third_party/tlx/tools/sched2tlx/examples/case3_FA_fp16_subtiled/fa_fwd_nows_subtiled.py":56:17)
#loc31 = loc("/projects/kzhou6/hwu27/triton-beta-3-paper-solver-wt/third_party/tlx/tools/sched2tlx/examples/case3_FA_fp16_subtiled/fa_fwd_nows_subtiled.py":57:31)
#loc32 = loc("/projects/kzhou6/hwu27/triton-beta-3-paper-solver-wt/third_party/tlx/tools/sched2tlx/examples/case3_FA_fp16_subtiled/fa_fwd_nows_subtiled.py":57:18)
#loc33 = loc("/projects/kzhou6/hwu27/triton-beta-3-paper-solver-wt/third_party/tlx/tools/sched2tlx/examples/case3_FA_fp16_subtiled/fa_fwd_nows_subtiled.py":58:27)
#loc34 = loc("/projects/kzhou6/hwu27/triton-beta-3-paper-solver-wt/third_party/tlx/tools/sched2tlx/examples/case3_FA_fp16_subtiled/fa_fwd_nows_subtiled.py":58:44)
#loc35 = loc("/projects/kzhou6/hwu27/triton-beta-3-paper-solver-wt/third_party/tlx/tools/sched2tlx/examples/case3_FA_fp16_subtiled/fa_fwd_nows_subtiled.py":58:14)
#loc36 = loc("/projects/kzhou6/hwu27/triton-beta-3-paper-solver-wt/python/triton/language/standard.py":313:12)
#loc38 = loc("/projects/kzhou6/hwu27/triton-beta-3-paper-solver-wt/python/triton/language/standard.py":273:12)
#loc39 = loc("/projects/kzhou6/hwu27/triton-beta-3-paper-solver-wt/third_party/tlx/tools/sched2tlx/examples/case3_FA_fp16_subtiled/fa_fwd_nows_subtiled.py":60:23)
#loc40 = loc("/projects/kzhou6/hwu27/triton-beta-3-paper-solver-wt/third_party/tlx/tools/sched2tlx/examples/case3_FA_fp16_subtiled/fa_fwd_nows_subtiled.py":60:52)
#loc41 = loc("/projects/kzhou6/hwu27/triton-beta-3-paper-solver-wt/third_party/tlx/tools/sched2tlx/examples/case3_FA_fp16_subtiled/fa_fwd_nows_subtiled.py":60:45)
#loc42 = loc("/projects/kzhou6/hwu27/triton-beta-3-paper-solver-wt/third_party/tlx/tools/sched2tlx/examples/case3_FA_fp16_subtiled/fa_fwd_nows_subtiled.py":60:16)
#loc43 = loc("/projects/kzhou6/hwu27/triton-beta-3-paper-solver-wt/third_party/tlx/tools/sched2tlx/examples/case3_FA_fp16_subtiled/fa_fwd_nows_subtiled.py":61:16)
#loc44 = loc("/projects/kzhou6/hwu27/triton-beta-3-paper-solver-wt/third_party/tlx/tools/sched2tlx/examples/case3_FA_fp16_subtiled/fa_fwd_nows_subtiled.py":63:15)
#loc46 = loc("/projects/kzhou6/hwu27/triton-beta-3-paper-solver-wt/third_party/tlx/tools/sched2tlx/examples/case3_FA_fp16_subtiled/fa_fwd_nows_subtiled.py":64:17)
#loc47 = loc("/projects/kzhou6/hwu27/triton-beta-3-paper-solver-wt/third_party/tlx/tools/sched2tlx/examples/case3_FA_fp16_subtiled/fa_fwd_nows_subtiled.py":65:31)
#loc48 = loc("/projects/kzhou6/hwu27/triton-beta-3-paper-solver-wt/third_party/tlx/tools/sched2tlx/examples/case3_FA_fp16_subtiled/fa_fwd_nows_subtiled.py":65:18)
#loc49 = loc("/projects/kzhou6/hwu27/triton-beta-3-paper-solver-wt/third_party/tlx/tools/sched2tlx/examples/case3_FA_fp16_subtiled/fa_fwd_nows_subtiled.py":66:27)
#loc50 = loc("/projects/kzhou6/hwu27/triton-beta-3-paper-solver-wt/third_party/tlx/tools/sched2tlx/examples/case3_FA_fp16_subtiled/fa_fwd_nows_subtiled.py":66:44)
#loc51 = loc("/projects/kzhou6/hwu27/triton-beta-3-paper-solver-wt/third_party/tlx/tools/sched2tlx/examples/case3_FA_fp16_subtiled/fa_fwd_nows_subtiled.py":66:14)
#loc53 = loc("/projects/kzhou6/hwu27/triton-beta-3-paper-solver-wt/third_party/tlx/tools/sched2tlx/examples/case3_FA_fp16_subtiled/fa_fwd_nows_subtiled.py":68:23)
#loc54 = loc("/projects/kzhou6/hwu27/triton-beta-3-paper-solver-wt/third_party/tlx/tools/sched2tlx/examples/case3_FA_fp16_subtiled/fa_fwd_nows_subtiled.py":68:52)
#loc55 = loc("/projects/kzhou6/hwu27/triton-beta-3-paper-solver-wt/third_party/tlx/tools/sched2tlx/examples/case3_FA_fp16_subtiled/fa_fwd_nows_subtiled.py":68:45)
#loc56 = loc("/projects/kzhou6/hwu27/triton-beta-3-paper-solver-wt/third_party/tlx/tools/sched2tlx/examples/case3_FA_fp16_subtiled/fa_fwd_nows_subtiled.py":68:16)
#loc57 = loc("/projects/kzhou6/hwu27/triton-beta-3-paper-solver-wt/third_party/tlx/tools/sched2tlx/examples/case3_FA_fp16_subtiled/fa_fwd_nows_subtiled.py":69:16)
#loc58 = loc("/projects/kzhou6/hwu27/triton-beta-3-paper-solver-wt/third_party/tlx/tools/sched2tlx/examples/case3_FA_fp16_subtiled/fa_fwd_nows_subtiled.py":71:19)
#loc59 = loc("/projects/kzhou6/hwu27/triton-beta-3-paper-solver-wt/third_party/tlx/tools/sched2tlx/examples/case3_FA_fp16_subtiled/fa_fwd_nows_subtiled.py":71:12)
#loc60 = loc("/projects/kzhou6/hwu27/triton-beta-3-paper-solver-wt/third_party/tlx/tools/sched2tlx/examples/case3_FA_fp16_subtiled/fa_fwd_nows_subtiled.py":72:19)
#loc61 = loc("/projects/kzhou6/hwu27/triton-beta-3-paper-solver-wt/third_party/tlx/tools/sched2tlx/examples/case3_FA_fp16_subtiled/fa_fwd_nows_subtiled.py":72:12)
#loc62 = loc("/projects/kzhou6/hwu27/triton-beta-3-paper-solver-wt/third_party/tlx/tools/sched2tlx/examples/case3_FA_fp16_subtiled/fa_fwd_nows_subtiled.py":73:36)
#loc63 = loc("/projects/kzhou6/hwu27/triton-beta-3-paper-solver-wt/third_party/tlx/tools/sched2tlx/examples/case3_FA_fp16_subtiled/fa_fwd_nows_subtiled.py":73:5)
#loc64 = loc("/projects/kzhou6/hwu27/triton-beta-3-paper-solver-wt/third_party/tlx/tools/sched2tlx/examples/case3_FA_fp16_subtiled/fa_fwd_nows_subtiled.py":74:21)
#loc65 = loc("/projects/kzhou6/hwu27/triton-beta-3-paper-solver-wt/third_party/tlx/tools/sched2tlx/examples/case3_FA_fp16_subtiled/fa_fwd_nows_subtiled.py":74:44)
#loc66 = loc("/projects/kzhou6/hwu27/triton-beta-3-paper-solver-wt/third_party/tlx/tools/sched2tlx/examples/case3_FA_fp16_subtiled/fa_fwd_nows_subtiled.py":74:5)
#loc67 = loc("/projects/kzhou6/hwu27/triton-beta-3-paper-solver-wt/third_party/tlx/tools/sched2tlx/examples/case3_FA_fp16_subtiled/fa_fwd_nows_subtiled.py":75:12)
#loc68 = loc("/projects/kzhou6/hwu27/triton-beta-3-paper-solver-wt/third_party/tlx/tools/sched2tlx/examples/case3_FA_fp16_subtiled/fa_fwd_nows_subtiled.py":76:14)
#loc69 = loc("/projects/kzhou6/hwu27/triton-beta-3-paper-solver-wt/third_party/tlx/tools/sched2tlx/examples/case3_FA_fp16_subtiled/fa_fwd_nows_subtiled.py":76:47)
#loc70 = loc("/projects/kzhou6/hwu27/triton-beta-3-paper-solver-wt/third_party/tlx/tools/sched2tlx/examples/case3_FA_fp16_subtiled/fa_fwd_nows_subtiled.py":76:40)
#loc71 = loc("/projects/kzhou6/hwu27/triton-beta-3-paper-solver-wt/third_party/tlx/tools/sched2tlx/examples/case3_FA_fp16_subtiled/fa_fwd_nows_subtiled.py":76:5)
#loc72 = loc("/projects/kzhou6/hwu27/triton-beta-3-paper-solver-wt/third_party/tlx/tools/sched2tlx/examples/case3_FA_fp16_subtiled/fa_fwd_nows_subtiled.py":77:14)
#loc73 = loc("/projects/kzhou6/hwu27/triton-beta-3-paper-solver-wt/third_party/tlx/tools/sched2tlx/examples/case3_FA_fp16_subtiled/fa_fwd_nows_subtiled.py":77:55)
#loc74 = loc("/projects/kzhou6/hwu27/triton-beta-3-paper-solver-wt/third_party/tlx/tools/sched2tlx/examples/case3_FA_fp16_subtiled/fa_fwd_nows_subtiled.py":77:48)
#loc75 = loc("/projects/kzhou6/hwu27/triton-beta-3-paper-solver-wt/third_party/tlx/tools/sched2tlx/examples/case3_FA_fp16_subtiled/fa_fwd_nows_subtiled.py":77:5)
#loc76 = loc("/projects/kzhou6/hwu27/triton-beta-3-paper-solver-wt/python/triton/language/standard.py":120:1)
#loc77 = loc("/projects/kzhou6/hwu27/triton-beta-3-paper-solver-wt/python/triton/language/standard.py":177:1)
#loc78 = loc("/projects/kzhou6/hwu27/triton-beta-3-paper-solver-wt/python/triton/language/standard.py":169:1)
#loc79 = loc("/projects/kzhou6/hwu27/triton-beta-3-paper-solver-wt/python/triton/language/standard.py":297:1)
#loc80 = loc("/projects/kzhou6/hwu27/triton-beta-3-paper-solver-wt/python/triton/language/standard.py":272:1)
#loc89 = loc("pid_m"(#loc3))
#loc90 = loc("pid_bh"(#loc4))
#loc91 = loc("kv_base"(#loc5))
#loc92 = loc("qo_offset"(#loc6))
#loc93 = loc("qo_offset"(#loc7))
#loc94 = loc("rows"(#loc8))
#loc95 = loc("qo_desc"(#loc9))
#loc96 = loc("k_desc"(#loc10))
#loc97 = loc("v_desc"(#loc11))
#loc98 = loc("out_desc"(#loc12))
#loc99 = loc("q0"(#loc13))
#loc100 = loc("q1"(#loc14))
#loc101 = loc("q1"(#loc15))
#loc102 = loc("acc0"(#loc17))
#loc103 = loc("acc1"(#loc18))
#loc104 = loc("qk_scale"(#loc19))
#loc105 = loc("m_i0"(#loc1))
#loc106 = loc("koff"(#loc21))
#loc107 = loc("koff"(#loc22))
#loc108 = loc("k"(#loc23))
#loc109 = loc("v"(#loc24))
#loc110 = loc("kt"(#loc25))
#loc111 = loc("qk0"(#loc26))
#loc113 = loc("m_ij0"(#loc30))
#loc114 = loc("alpha0"(#loc31))
#loc115 = loc("alpha0"(#loc32))
#loc116 = loc("p0"(#loc33))
#loc117 = loc("p0"(#loc34))
#loc118 = loc("p0"(#loc35))
#loc120 = loc("acc0"(#loc39))
#loc121 = loc("acc0"(#loc40))
#loc122 = loc("acc0"(#loc41))
#loc123 = loc("acc0"(#loc42))
#loc124 = loc("l_i0"(#loc43))
#loc125 = loc("qk1"(#loc44))
#loc127 = loc("m_ij1"(#loc46))
#loc128 = loc("alpha1"(#loc47))
#loc129 = loc("alpha1"(#loc48))
#loc130 = loc("p1"(#loc49))
#loc131 = loc("p1"(#loc50))
#loc132 = loc("p1"(#loc51))
#loc134 = loc("acc1"(#loc53))
#loc135 = loc("acc1"(#loc54))
#loc136 = loc("acc1"(#loc55))
#loc137 = loc("acc1"(#loc56))
#loc138 = loc("l_i1"(#loc57))
#loc139 = loc("acc0"(#loc58))
#loc140 = loc("acc0"(#loc59))
#loc141 = loc("acc1"(#loc60))
#loc142 = loc("acc1"(#loc61))
#loc143 = loc("offs"(#loc67))
#loc144 = loc(callsite(#loc16 at #loc102))
#loc145 = loc(callsite(#loc16 at #loc103))
#loc146 = loc("m_i1"(#loc105))
#loc147 = loc(callsite(#loc27 at #loc112))
#loc149 = loc(callsite(#loc36 at #loc119))
#loc151 = loc(callsite(#loc27 at #loc126))
#loc153 = loc(callsite(#loc36 at #loc133))
#loc155 = loc("l_i0"(#loc146))
#loc156 = loc(callsite(#loc29 at #loc147))
#loc157 = loc(callsite(#loc38 at #loc149))
#loc158 = loc(callsite(#loc29 at #loc151))
#loc159 = loc(callsite(#loc38 at #loc153))
#loc160 = loc("l_i1"(#loc155))
#loc161 = loc("acc0"(#loc160))
#loc162 = loc("acc1"(#loc161))


// -----// IR Dump Before CanonicalizerPass: canonicalize{cse-between-iterations=false    max-iterations=10 max-num-rewrites=-1 region-simplify=normal test-convergence=false top-down=true} ('builtin.module' operation) //----- //
#loc = loc("/projects/kzhou6/hwu27/triton-beta-3-paper-solver-wt/third_party/tlx/tools/sched2tlx/examples/case3_FA_fp16_subtiled/fa_fwd_nows_subtiled.py":25:1)
#loc1 = loc(unknown)
#loc25 = loc("/projects/kzhou6/hwu27/triton-beta-3-paper-solver-wt/third_party/tlx/tools/sched2tlx/examples/case3_FA_fp16_subtiled/fa_fwd_nows_subtiled.py":56:34)
#loc34 = loc("/projects/kzhou6/hwu27/triton-beta-3-paper-solver-wt/third_party/tlx/tools/sched2tlx/examples/case3_FA_fp16_subtiled/fa_fwd_nows_subtiled.py":59:17)
#loc42 = loc("/projects/kzhou6/hwu27/triton-beta-3-paper-solver-wt/third_party/tlx/tools/sched2tlx/examples/case3_FA_fp16_subtiled/fa_fwd_nows_subtiled.py":64:34)
#loc49 = loc("/projects/kzhou6/hwu27/triton-beta-3-paper-solver-wt/third_party/tlx/tools/sched2tlx/examples/case3_FA_fp16_subtiled/fa_fwd_nows_subtiled.py":67:17)
#loc73 = loc("Q"(#loc))
#loc74 = loc("K"(#loc))
#loc75 = loc("V"(#loc))
#loc76 = loc("Out"(#loc))
#loc77 = loc("M_lse"(#loc))
#loc78 = loc("sm_scale"(#loc))
#loc79 = loc("H"(#loc))
#loc80 = loc("N_CTX"(#loc))
#loc102 = loc("m_ij0"(#loc25))
#loc109 = loc("l_ij0"(#loc34))
#loc116 = loc("m_ij1"(#loc42))
#loc123 = loc("l_ij1"(#loc49))
#loc136 = loc(callsite(#loc1 at #loc102))
#loc138 = loc(callsite(#loc1 at #loc109))
#loc140 = loc(callsite(#loc1 at #loc116))
#loc142 = loc(callsite(#loc1 at #loc123))
module {
  tt.func public @fa_fwd_kernel_nows_subtiled(%Q: !tt.ptr<f16> {tt.divisibility = 16 : i32} loc("Q"(#loc)), %K: !tt.ptr<f16> {tt.divisibility = 16 : i32} loc("K"(#loc)), %V: !tt.ptr<f16> {tt.divisibility = 16 : i32} loc("V"(#loc)), %Out: !tt.ptr<f16> {tt.divisibility = 16 : i32} loc("Out"(#loc)), %M_lse: !tt.ptr<f32> {tt.divisibility = 16 : i32} loc("M_lse"(#loc)), %sm_scale: f32 loc("sm_scale"(#loc)), %H: i32 loc("H"(#loc)), %N_CTX: i32 {tt.divisibility = 16 : i32} loc("N_CTX"(#loc))) attributes {noinline = false} {
    %cst = arith.constant dense<0.000000e+00> : tensor<64x128xf32> loc(#loc1)
    %c1_i32 = arith.constant 1 : i32 loc(#loc2)
    %cst_0 = arith.constant dense<0.000000e+00> : tensor<64x64xf32> loc(#loc1)
    %cst_1 = arith.constant 1.44269502 : f32 loc(#loc1)
    %cst_2 = arith.constant dense<1.000000e+00> : tensor<64xf32> loc(#loc1)
    %cst_3 = arith.constant dense<0xFF800000> : tensor<64xf32> loc(#loc1)
    %c64_i32 = arith.constant 64 : i32 loc(#loc1)
    %c0_i32 = arith.constant 0 : i32 loc(#loc1)
    %c1_i64 = arith.constant 1 : i64 loc(#loc1)
    %c128_i64 = arith.constant 128 : i64 loc(#loc1)
    %c128_i32 = arith.constant 128 : i32 loc(#loc1)
    %pid_m = tt.get_program_id x : i32 loc(#loc81)
    %pid_bh = tt.get_program_id y : i32 loc(#loc82)
    %kv_base = arith.muli %pid_bh, %N_CTX : i32 loc(#loc83)
    %qo_offset = arith.muli %pid_m, %c128_i32 : i32 loc(#loc84)
    %qo_offset_4 = arith.addi %kv_base, %qo_offset : i32 loc(#loc85)
    %rows = arith.muli %H, %N_CTX : i32 loc(#loc86)
    %qo_desc = tt.make_tensor_descriptor %Q, [%rows, %c128_i32], [%c128_i64, %c1_i64] : !tt.ptr<f16>, !tt.tensordesc<64x128xf16> loc(#loc87)
    %k_desc = tt.make_tensor_descriptor %K, [%rows, %c128_i32], [%c128_i64, %c1_i64] : !tt.ptr<f16>, !tt.tensordesc<64x128xf16> loc(#loc88)
    %v_desc = tt.make_tensor_descriptor %V, [%rows, %c128_i32], [%c128_i64, %c1_i64] : !tt.ptr<f16>, !tt.tensordesc<64x128xf16> loc(#loc89)
    %out_desc = tt.make_tensor_descriptor %Out, [%rows, %c128_i32], [%c128_i64, %c1_i64] : !tt.ptr<f16>, !tt.tensordesc<64x128xf16> loc(#loc90)
    %q0 = tt.descriptor_load %qo_desc[%qo_offset_4, %c0_i32] : !tt.tensordesc<64x128xf16> -> tensor<64x128xf16> loc(#loc91)
    %q1 = arith.addi %qo_offset_4, %c64_i32 : i32 loc(#loc92)
    %q1_5 = tt.descriptor_load %qo_desc[%q1, %c0_i32] : !tt.tensordesc<64x128xf16> -> tensor<64x128xf16> loc(#loc93)
    %qk_scale = arith.mulf %sm_scale, %cst_1 : f32 loc(#loc94)
    %0 = arith.divsi %N_CTX, %c64_i32 : i32 loc(#loc17)
    %acc1:6 = scf.for %kv = %c0_i32 to %0 step %c1_i32 iter_args(%m_i0 = %cst_3, %m_i1 = %cst_3, %l_i0 = %cst_2, %l_i1 = %cst_2, %acc0_11 = %cst, %acc1_12 = %cst) -> (tensor<64xf32>, tensor<64xf32>, tensor<64xf32>, tensor<64xf32>, tensor<64x128xf32>, tensor<64x128xf32>)  : i32 {
      %koff = arith.muli %kv, %c64_i32 : i32 loc(#loc96)
      %koff_13 = arith.addi %kv_base, %koff : i32 loc(#loc97)
      %k = tt.descriptor_load %k_desc[%koff_13, %c0_i32] : !tt.tensordesc<64x128xf16> -> tensor<64x128xf16> loc(#loc98)
      %v = tt.descriptor_load %v_desc[%koff_13, %c0_i32] : !tt.tensordesc<64x128xf16> -> tensor<64x128xf16> loc(#loc99)
      %kt = tt.trans %k {order = array<i32: 1, 0>} : tensor<64x128xf16> -> tensor<128x64xf16> loc(#loc100)
      %qk0 = tt.dot %q0, %kt, %cst_0, inputPrecision = tf32 : tensor<64x128xf16> * tensor<128x64xf16> -> tensor<64x64xf32> loc(#loc101)
      %m_ij0 = "tt.reduce"(%qk0) <{axis = 1 : i32, reduction_ordering = "unordered"}> ({
      ^bb0(%m_ij0_46: f32 loc(callsite(#loc1 at #loc102)), %m_ij0_47: f32 loc(callsite(#loc1 at #loc102))):
        %m_ij0_48 = arith.maxnumf %m_ij0_46, %m_ij0_47 : f32 loc(#loc144)
        tt.reduce.return %m_ij0_48 : f32 loc(#loc135)
      }) : (tensor<64x64xf32>) -> tensor<64xf32> loc(#loc135)
      %m_ij0_14 = tt.splat %qk_scale : f32 -> tensor<64xf32> loc(#loc102)
      %m_ij0_15 = arith.mulf %m_ij0, %m_ij0_14 : tensor<64xf32> loc(#loc102)
      %m_ij0_16 = arith.maxnumf %m_i0, %m_ij0_15 : tensor<64xf32> loc(#loc103)
      %alpha0 = arith.subf %m_i0, %m_ij0_16 : tensor<64xf32> loc(#loc104)
      %alpha0_17 = math.exp2 %alpha0 : tensor<64xf32> loc(#loc105)
      %p0 = tt.splat %qk_scale : f32 -> tensor<64x64xf32> loc(#loc106)
      %p0_18 = arith.mulf %qk0, %p0 : tensor<64x64xf32> loc(#loc106)
      %p0_19 = tt.expand_dims %m_ij0_16 {axis = 1 : i32} : tensor<64xf32> -> tensor<64x1xf32> loc(#loc107)
      %p0_20 = tt.broadcast %p0_19 : tensor<64x1xf32> -> tensor<64x64xf32> loc(#loc106)
      %p0_21 = arith.subf %p0_18, %p0_20 : tensor<64x64xf32> loc(#loc106)
      %p0_22 = math.exp2 %p0_21 : tensor<64x64xf32> loc(#loc108)
      %l_ij0 = "tt.reduce"(%p0_22) <{axis = 1 : i32, reduction_ordering = "unordered"}> ({
      ^bb0(%l_ij0_46: f32 loc(callsite(#loc1 at #loc109)), %l_ij0_47: f32 loc(callsite(#loc1 at #loc109))):
        %l_ij0_48 = arith.addf %l_ij0_46, %l_ij0_47 : f32 loc(#loc145)
        tt.reduce.return %l_ij0_48 : f32 loc(#loc137)
      }) : (tensor<64x64xf32>) -> tensor<64xf32> loc(#loc137)
      %acc0_23 = arith.truncf %p0_22 : tensor<64x64xf32> to tensor<64x64xf16> loc(#loc110)
      %acc0_24 = tt.expand_dims %alpha0_17 {axis = 1 : i32} : tensor<64xf32> -> tensor<64x1xf32> loc(#loc111)
      %acc0_25 = tt.broadcast %acc0_24 : tensor<64x1xf32> -> tensor<64x128xf32> loc(#loc112)
      %acc0_26 = arith.mulf %acc0_11, %acc0_25 : tensor<64x128xf32> loc(#loc112)
      %acc0_27 = tt.dot %acc0_23, %v, %acc0_26, inputPrecision = tf32 : tensor<64x64xf16> * tensor<64x128xf16> -> tensor<64x128xf32> loc(#loc113)
      %l_i0_28 = arith.mulf %l_i0, %alpha0_17 : tensor<64xf32> loc(#loc114)
      %l_i0_29 = arith.addf %l_i0_28, %l_ij0 : tensor<64xf32> loc(#loc114)
      %qk1 = tt.dot %q1_5, %kt, %cst_0, inputPrecision = tf32 : tensor<64x128xf16> * tensor<128x64xf16> -> tensor<64x64xf32> loc(#loc115)
      %m_ij1 = "tt.reduce"(%qk1) <{axis = 1 : i32, reduction_ordering = "unordered"}> ({
      ^bb0(%m_ij1_46: f32 loc(callsite(#loc1 at #loc116)), %m_ij1_47: f32 loc(callsite(#loc1 at #loc116))):
        %m_ij1_48 = arith.maxnumf %m_ij1_46, %m_ij1_47 : f32 loc(#loc146)
        tt.reduce.return %m_ij1_48 : f32 loc(#loc139)
      }) : (tensor<64x64xf32>) -> tensor<64xf32> loc(#loc139)
      %m_ij1_30 = tt.splat %qk_scale : f32 -> tensor<64xf32> loc(#loc116)
      %m_ij1_31 = arith.mulf %m_ij1, %m_ij1_30 : tensor<64xf32> loc(#loc116)
      %m_ij1_32 = arith.maxnumf %m_i1, %m_ij1_31 : tensor<64xf32> loc(#loc117)
      %alpha1 = arith.subf %m_i1, %m_ij1_32 : tensor<64xf32> loc(#loc118)
      %alpha1_33 = math.exp2 %alpha1 : tensor<64xf32> loc(#loc119)
      %p1 = tt.splat %qk_scale : f32 -> tensor<64x64xf32> loc(#loc120)
      %p1_34 = arith.mulf %qk1, %p1 : tensor<64x64xf32> loc(#loc120)
      %p1_35 = tt.expand_dims %m_ij1_32 {axis = 1 : i32} : tensor<64xf32> -> tensor<64x1xf32> loc(#loc121)
      %p1_36 = tt.broadcast %p1_35 : tensor<64x1xf32> -> tensor<64x64xf32> loc(#loc120)
      %p1_37 = arith.subf %p1_34, %p1_36 : tensor<64x64xf32> loc(#loc120)
      %p1_38 = math.exp2 %p1_37 : tensor<64x64xf32> loc(#loc122)
      %l_ij1 = "tt.reduce"(%p1_38) <{axis = 1 : i32, reduction_ordering = "unordered"}> ({
      ^bb0(%l_ij1_46: f32 loc(callsite(#loc1 at #loc123)), %l_ij1_47: f32 loc(callsite(#loc1 at #loc123))):
        %l_ij1_48 = arith.addf %l_ij1_46, %l_ij1_47 : f32 loc(#loc147)
        tt.reduce.return %l_ij1_48 : f32 loc(#loc141)
      }) : (tensor<64x64xf32>) -> tensor<64xf32> loc(#loc141)
      %acc1_39 = arith.truncf %p1_38 : tensor<64x64xf32> to tensor<64x64xf16> loc(#loc124)
      %acc1_40 = tt.expand_dims %alpha1_33 {axis = 1 : i32} : tensor<64xf32> -> tensor<64x1xf32> loc(#loc125)
      %acc1_41 = tt.broadcast %acc1_40 : tensor<64x1xf32> -> tensor<64x128xf32> loc(#loc126)
      %acc1_42 = arith.mulf %acc1_12, %acc1_41 : tensor<64x128xf32> loc(#loc126)
      %acc1_43 = tt.dot %acc1_39, %v, %acc1_42, inputPrecision = tf32 : tensor<64x64xf16> * tensor<64x128xf16> -> tensor<64x128xf32> loc(#loc127)
      %l_i1_44 = arith.mulf %l_i1, %alpha1_33 : tensor<64xf32> loc(#loc128)
      %l_i1_45 = arith.addf %l_i1_44, %l_ij1 : tensor<64xf32> loc(#loc128)
      scf.yield %m_ij0_16, %m_ij1_32, %l_i0_29, %l_i1_45, %acc0_27, %acc1_43 : tensor<64xf32>, tensor<64xf32>, tensor<64xf32>, tensor<64xf32>, tensor<64x128xf32>, tensor<64x128xf32> loc(#loc2)
    } loc(#loc150)
    %acc0 = tt.expand_dims %acc1#2 {axis = 1 : i32} : tensor<64xf32> -> tensor<64x1xf32> loc(#loc129)
    %acc0_6 = tt.broadcast %acc0 : tensor<64x1xf32> -> tensor<64x128xf32> loc(#loc130)
    %acc0_7 = arith.divf %acc1#4, %acc0_6 : tensor<64x128xf32> loc(#loc130)
    %acc1_8 = tt.expand_dims %acc1#3 {axis = 1 : i32} : tensor<64xf32> -> tensor<64x1xf32> loc(#loc131)
    %acc1_9 = tt.broadcast %acc1_8 : tensor<64x1xf32> -> tensor<64x128xf32> loc(#loc132)
    %acc1_10 = arith.divf %acc1#5, %acc1_9 : tensor<64x128xf32> loc(#loc132)
    %1 = arith.truncf %acc0_7 : tensor<64x128xf32> to tensor<64x128xf16> loc(#loc59)
    tt.descriptor_store %out_desc[%qo_offset_4, %c0_i32], %1 : !tt.tensordesc<64x128xf16>, tensor<64x128xf16> loc(#loc60)
    %2 = arith.addi %qo_offset_4, %c64_i32 : i32 loc(#loc61)
    %3 = arith.truncf %acc1_10 : tensor<64x128xf32> to tensor<64x128xf16> loc(#loc62)
    tt.descriptor_store %out_desc[%2, %c0_i32], %3 : !tt.tensordesc<64x128xf16>, tensor<64x128xf16> loc(#loc63)
    %offs = tt.make_range {end = 64 : i32, start = 0 : i32} : tensor<64xi32> loc(#loc133)
    %4 = tt.addptr %M_lse, %qo_offset_4 : !tt.ptr<f32>, i32 loc(#loc65)
    %5 = tt.splat %4 : !tt.ptr<f32> -> tensor<64x!tt.ptr<f32>> loc(#loc65)
    %6 = tt.addptr %5, %offs : tensor<64x!tt.ptr<f32>>, tensor<64xi32> loc(#loc65)
    %7 = math.log2 %acc1#2 : tensor<64xf32> loc(#loc66)
    %8 = arith.addf %acc1#0, %7 : tensor<64xf32> loc(#loc67)
    tt.store %6, %8 : tensor<64x!tt.ptr<f32>> loc(#loc68)
    %9 = tt.addptr %M_lse, %qo_offset_4 : !tt.ptr<f32>, i32 loc(#loc69)
    %10 = tt.addptr %9, %c64_i32 : !tt.ptr<f32>, i32 loc(#loc69)
    %11 = tt.splat %10 : !tt.ptr<f32> -> tensor<64x!tt.ptr<f32>> loc(#loc69)
    %12 = tt.addptr %11, %offs : tensor<64x!tt.ptr<f32>>, tensor<64xi32> loc(#loc69)
    %13 = math.log2 %acc1#3 : tensor<64xf32> loc(#loc70)
    %14 = arith.addf %acc1#1, %13 : tensor<64xf32> loc(#loc71)
    tt.store %12, %14 : tensor<64x!tt.ptr<f32>> loc(#loc72)
    tt.return loc(#loc)
  } loc(#loc)
} loc(#loc)
#loc2 = loc("/projects/kzhou6/hwu27/triton-beta-3-paper-solver-wt/third_party/tlx/tools/sched2tlx/examples/case3_FA_fp16_subtiled/fa_fwd_nows_subtiled.py":50:5)
#loc3 = loc("/projects/kzhou6/hwu27/triton-beta-3-paper-solver-wt/third_party/tlx/tools/sched2tlx/examples/case3_FA_fp16_subtiled/fa_fwd_nows_subtiled.py":28:13)
#loc4 = loc("/projects/kzhou6/hwu27/triton-beta-3-paper-solver-wt/third_party/tlx/tools/sched2tlx/examples/case3_FA_fp16_subtiled/fa_fwd_nows_subtiled.py":29:14)
#loc5 = loc("/projects/kzhou6/hwu27/triton-beta-3-paper-solver-wt/third_party/tlx/tools/sched2tlx/examples/case3_FA_fp16_subtiled/fa_fwd_nows_subtiled.py":30:15)
#loc6 = loc("/projects/kzhou6/hwu27/triton-beta-3-paper-solver-wt/third_party/tlx/tools/sched2tlx/examples/case3_FA_fp16_subtiled/fa_fwd_nows_subtiled.py":31:27)
#loc7 = loc("/projects/kzhou6/hwu27/triton-beta-3-paper-solver-wt/third_party/tlx/tools/sched2tlx/examples/case3_FA_fp16_subtiled/fa_fwd_nows_subtiled.py":31:17)
#loc8 = loc("/projects/kzhou6/hwu27/triton-beta-3-paper-solver-wt/third_party/tlx/tools/sched2tlx/examples/case3_FA_fp16_subtiled/fa_fwd_nows_subtiled.py":32:12)
#loc9 = loc("/projects/kzhou6/hwu27/triton-beta-3-paper-solver-wt/third_party/tlx/tools/sched2tlx/examples/case3_FA_fp16_subtiled/fa_fwd_nows_subtiled.py":33:15)
#loc10 = loc("/projects/kzhou6/hwu27/triton-beta-3-paper-solver-wt/third_party/tlx/tools/sched2tlx/examples/case3_FA_fp16_subtiled/fa_fwd_nows_subtiled.py":35:14)
#loc11 = loc("/projects/kzhou6/hwu27/triton-beta-3-paper-solver-wt/third_party/tlx/tools/sched2tlx/examples/case3_FA_fp16_subtiled/fa_fwd_nows_subtiled.py":37:14)
#loc12 = loc("/projects/kzhou6/hwu27/triton-beta-3-paper-solver-wt/third_party/tlx/tools/sched2tlx/examples/case3_FA_fp16_subtiled/fa_fwd_nows_subtiled.py":39:16)
#loc13 = loc("/projects/kzhou6/hwu27/triton-beta-3-paper-solver-wt/third_party/tlx/tools/sched2tlx/examples/case3_FA_fp16_subtiled/fa_fwd_nows_subtiled.py":41:10)
#loc14 = loc("/projects/kzhou6/hwu27/triton-beta-3-paper-solver-wt/third_party/tlx/tools/sched2tlx/examples/case3_FA_fp16_subtiled/fa_fwd_nows_subtiled.py":42:24)
#loc15 = loc("/projects/kzhou6/hwu27/triton-beta-3-paper-solver-wt/third_party/tlx/tools/sched2tlx/examples/case3_FA_fp16_subtiled/fa_fwd_nows_subtiled.py":42:10)
#loc16 = loc("/projects/kzhou6/hwu27/triton-beta-3-paper-solver-wt/third_party/tlx/tools/sched2tlx/examples/case3_FA_fp16_subtiled/fa_fwd_nows_subtiled.py":49:16)
#loc17 = loc("/projects/kzhou6/hwu27/triton-beta-3-paper-solver-wt/third_party/tlx/tools/sched2tlx/examples/case3_FA_fp16_subtiled/fa_fwd_nows_subtiled.py":50:21)
#loc18 = loc("/projects/kzhou6/hwu27/triton-beta-3-paper-solver-wt/third_party/tlx/tools/sched2tlx/examples/case3_FA_fp16_subtiled/fa_fwd_nows_subtiled.py":51:26)
#loc19 = loc("/projects/kzhou6/hwu27/triton-beta-3-paper-solver-wt/third_party/tlx/tools/sched2tlx/examples/case3_FA_fp16_subtiled/fa_fwd_nows_subtiled.py":51:16)
#loc20 = loc("/projects/kzhou6/hwu27/triton-beta-3-paper-solver-wt/third_party/tlx/tools/sched2tlx/examples/case3_FA_fp16_subtiled/fa_fwd_nows_subtiled.py":52:13)
#loc21 = loc("/projects/kzhou6/hwu27/triton-beta-3-paper-solver-wt/third_party/tlx/tools/sched2tlx/examples/case3_FA_fp16_subtiled/fa_fwd_nows_subtiled.py":53:13)
#loc22 = loc("/projects/kzhou6/hwu27/triton-beta-3-paper-solver-wt/third_party/tlx/tools/sched2tlx/examples/case3_FA_fp16_subtiled/fa_fwd_nows_subtiled.py":54:14)
#loc23 = loc("/projects/kzhou6/hwu27/triton-beta-3-paper-solver-wt/third_party/tlx/tools/sched2tlx/examples/case3_FA_fp16_subtiled/fa_fwd_nows_subtiled.py":55:15)
#loc24 = loc("/projects/kzhou6/hwu27/triton-beta-3-paper-solver-wt/python/triton/language/standard.py":194:16)
#loc26 = loc("/projects/kzhou6/hwu27/triton-beta-3-paper-solver-wt/python/triton/language/standard.py":170:12)
#loc27 = loc("/projects/kzhou6/hwu27/triton-beta-3-paper-solver-wt/third_party/tlx/tools/sched2tlx/examples/case3_FA_fp16_subtiled/fa_fwd_nows_subtiled.py":56:17)
#loc28 = loc("/projects/kzhou6/hwu27/triton-beta-3-paper-solver-wt/third_party/tlx/tools/sched2tlx/examples/case3_FA_fp16_subtiled/fa_fwd_nows_subtiled.py":57:31)
#loc29 = loc("/projects/kzhou6/hwu27/triton-beta-3-paper-solver-wt/third_party/tlx/tools/sched2tlx/examples/case3_FA_fp16_subtiled/fa_fwd_nows_subtiled.py":57:18)
#loc30 = loc("/projects/kzhou6/hwu27/triton-beta-3-paper-solver-wt/third_party/tlx/tools/sched2tlx/examples/case3_FA_fp16_subtiled/fa_fwd_nows_subtiled.py":58:27)
#loc31 = loc("/projects/kzhou6/hwu27/triton-beta-3-paper-solver-wt/third_party/tlx/tools/sched2tlx/examples/case3_FA_fp16_subtiled/fa_fwd_nows_subtiled.py":58:44)
#loc32 = loc("/projects/kzhou6/hwu27/triton-beta-3-paper-solver-wt/third_party/tlx/tools/sched2tlx/examples/case3_FA_fp16_subtiled/fa_fwd_nows_subtiled.py":58:14)
#loc33 = loc("/projects/kzhou6/hwu27/triton-beta-3-paper-solver-wt/python/triton/language/standard.py":313:12)
#loc35 = loc("/projects/kzhou6/hwu27/triton-beta-3-paper-solver-wt/python/triton/language/standard.py":273:12)
#loc36 = loc("/projects/kzhou6/hwu27/triton-beta-3-paper-solver-wt/third_party/tlx/tools/sched2tlx/examples/case3_FA_fp16_subtiled/fa_fwd_nows_subtiled.py":60:23)
#loc37 = loc("/projects/kzhou6/hwu27/triton-beta-3-paper-solver-wt/third_party/tlx/tools/sched2tlx/examples/case3_FA_fp16_subtiled/fa_fwd_nows_subtiled.py":60:52)
#loc38 = loc("/projects/kzhou6/hwu27/triton-beta-3-paper-solver-wt/third_party/tlx/tools/sched2tlx/examples/case3_FA_fp16_subtiled/fa_fwd_nows_subtiled.py":60:45)
#loc39 = loc("/projects/kzhou6/hwu27/triton-beta-3-paper-solver-wt/third_party/tlx/tools/sched2tlx/examples/case3_FA_fp16_subtiled/fa_fwd_nows_subtiled.py":60:16)
#loc40 = loc("/projects/kzhou6/hwu27/triton-beta-3-paper-solver-wt/third_party/tlx/tools/sched2tlx/examples/case3_FA_fp16_subtiled/fa_fwd_nows_subtiled.py":61:16)
#loc41 = loc("/projects/kzhou6/hwu27/triton-beta-3-paper-solver-wt/third_party/tlx/tools/sched2tlx/examples/case3_FA_fp16_subtiled/fa_fwd_nows_subtiled.py":63:15)
#loc43 = loc("/projects/kzhou6/hwu27/triton-beta-3-paper-solver-wt/third_party/tlx/tools/sched2tlx/examples/case3_FA_fp16_subtiled/fa_fwd_nows_subtiled.py":64:17)
#loc44 = loc("/projects/kzhou6/hwu27/triton-beta-3-paper-solver-wt/third_party/tlx/tools/sched2tlx/examples/case3_FA_fp16_subtiled/fa_fwd_nows_subtiled.py":65:31)
#loc45 = loc("/projects/kzhou6/hwu27/triton-beta-3-paper-solver-wt/third_party/tlx/tools/sched2tlx/examples/case3_FA_fp16_subtiled/fa_fwd_nows_subtiled.py":65:18)
#loc46 = loc("/projects/kzhou6/hwu27/triton-beta-3-paper-solver-wt/third_party/tlx/tools/sched2tlx/examples/case3_FA_fp16_subtiled/fa_fwd_nows_subtiled.py":66:27)
#loc47 = loc("/projects/kzhou6/hwu27/triton-beta-3-paper-solver-wt/third_party/tlx/tools/sched2tlx/examples/case3_FA_fp16_subtiled/fa_fwd_nows_subtiled.py":66:44)
#loc48 = loc("/projects/kzhou6/hwu27/triton-beta-3-paper-solver-wt/third_party/tlx/tools/sched2tlx/examples/case3_FA_fp16_subtiled/fa_fwd_nows_subtiled.py":66:14)
#loc50 = loc("/projects/kzhou6/hwu27/triton-beta-3-paper-solver-wt/third_party/tlx/tools/sched2tlx/examples/case3_FA_fp16_subtiled/fa_fwd_nows_subtiled.py":68:23)
#loc51 = loc("/projects/kzhou6/hwu27/triton-beta-3-paper-solver-wt/third_party/tlx/tools/sched2tlx/examples/case3_FA_fp16_subtiled/fa_fwd_nows_subtiled.py":68:52)
#loc52 = loc("/projects/kzhou6/hwu27/triton-beta-3-paper-solver-wt/third_party/tlx/tools/sched2tlx/examples/case3_FA_fp16_subtiled/fa_fwd_nows_subtiled.py":68:45)
#loc53 = loc("/projects/kzhou6/hwu27/triton-beta-3-paper-solver-wt/third_party/tlx/tools/sched2tlx/examples/case3_FA_fp16_subtiled/fa_fwd_nows_subtiled.py":68:16)
#loc54 = loc("/projects/kzhou6/hwu27/triton-beta-3-paper-solver-wt/third_party/tlx/tools/sched2tlx/examples/case3_FA_fp16_subtiled/fa_fwd_nows_subtiled.py":69:16)
#loc55 = loc("/projects/kzhou6/hwu27/triton-beta-3-paper-solver-wt/third_party/tlx/tools/sched2tlx/examples/case3_FA_fp16_subtiled/fa_fwd_nows_subtiled.py":71:19)
#loc56 = loc("/projects/kzhou6/hwu27/triton-beta-3-paper-solver-wt/third_party/tlx/tools/sched2tlx/examples/case3_FA_fp16_subtiled/fa_fwd_nows_subtiled.py":71:12)
#loc57 = loc("/projects/kzhou6/hwu27/triton-beta-3-paper-solver-wt/third_party/tlx/tools/sched2tlx/examples/case3_FA_fp16_subtiled/fa_fwd_nows_subtiled.py":72:19)
#loc58 = loc("/projects/kzhou6/hwu27/triton-beta-3-paper-solver-wt/third_party/tlx/tools/sched2tlx/examples/case3_FA_fp16_subtiled/fa_fwd_nows_subtiled.py":72:12)
#loc59 = loc("/projects/kzhou6/hwu27/triton-beta-3-paper-solver-wt/third_party/tlx/tools/sched2tlx/examples/case3_FA_fp16_subtiled/fa_fwd_nows_subtiled.py":73:36)
#loc60 = loc("/projects/kzhou6/hwu27/triton-beta-3-paper-solver-wt/third_party/tlx/tools/sched2tlx/examples/case3_FA_fp16_subtiled/fa_fwd_nows_subtiled.py":73:5)
#loc61 = loc("/projects/kzhou6/hwu27/triton-beta-3-paper-solver-wt/third_party/tlx/tools/sched2tlx/examples/case3_FA_fp16_subtiled/fa_fwd_nows_subtiled.py":74:21)
#loc62 = loc("/projects/kzhou6/hwu27/triton-beta-3-paper-solver-wt/third_party/tlx/tools/sched2tlx/examples/case3_FA_fp16_subtiled/fa_fwd_nows_subtiled.py":74:44)
#loc63 = loc("/projects/kzhou6/hwu27/triton-beta-3-paper-solver-wt/third_party/tlx/tools/sched2tlx/examples/case3_FA_fp16_subtiled/fa_fwd_nows_subtiled.py":74:5)
#loc64 = loc("/projects/kzhou6/hwu27/triton-beta-3-paper-solver-wt/third_party/tlx/tools/sched2tlx/examples/case3_FA_fp16_subtiled/fa_fwd_nows_subtiled.py":75:12)
#loc65 = loc("/projects/kzhou6/hwu27/triton-beta-3-paper-solver-wt/third_party/tlx/tools/sched2tlx/examples/case3_FA_fp16_subtiled/fa_fwd_nows_subtiled.py":76:14)
#loc66 = loc("/projects/kzhou6/hwu27/triton-beta-3-paper-solver-wt/third_party/tlx/tools/sched2tlx/examples/case3_FA_fp16_subtiled/fa_fwd_nows_subtiled.py":76:47)
#loc67 = loc("/projects/kzhou6/hwu27/triton-beta-3-paper-solver-wt/third_party/tlx/tools/sched2tlx/examples/case3_FA_fp16_subtiled/fa_fwd_nows_subtiled.py":76:40)
#loc68 = loc("/projects/kzhou6/hwu27/triton-beta-3-paper-solver-wt/third_party/tlx/tools/sched2tlx/examples/case3_FA_fp16_subtiled/fa_fwd_nows_subtiled.py":76:5)
#loc69 = loc("/projects/kzhou6/hwu27/triton-beta-3-paper-solver-wt/third_party/tlx/tools/sched2tlx/examples/case3_FA_fp16_subtiled/fa_fwd_nows_subtiled.py":77:14)
#loc70 = loc("/projects/kzhou6/hwu27/triton-beta-3-paper-solver-wt/third_party/tlx/tools/sched2tlx/examples/case3_FA_fp16_subtiled/fa_fwd_nows_subtiled.py":77:55)
#loc71 = loc("/projects/kzhou6/hwu27/triton-beta-3-paper-solver-wt/third_party/tlx/tools/sched2tlx/examples/case3_FA_fp16_subtiled/fa_fwd_nows_subtiled.py":77:48)
#loc72 = loc("/projects/kzhou6/hwu27/triton-beta-3-paper-solver-wt/third_party/tlx/tools/sched2tlx/examples/case3_FA_fp16_subtiled/fa_fwd_nows_subtiled.py":77:5)
#loc81 = loc("pid_m"(#loc3))
#loc82 = loc("pid_bh"(#loc4))
#loc83 = loc("kv_base"(#loc5))
#loc84 = loc("qo_offset"(#loc6))
#loc85 = loc("qo_offset"(#loc7))
#loc86 = loc("rows"(#loc8))
#loc87 = loc("qo_desc"(#loc9))
#loc88 = loc("k_desc"(#loc10))
#loc89 = loc("v_desc"(#loc11))
#loc90 = loc("out_desc"(#loc12))
#loc91 = loc("q0"(#loc13))
#loc92 = loc("q1"(#loc14))
#loc93 = loc("q1"(#loc15))
#loc94 = loc("qk_scale"(#loc16))
#loc95 = loc("m_i0"(#loc2))
#loc96 = loc("koff"(#loc18))
#loc97 = loc("koff"(#loc19))
#loc98 = loc("k"(#loc20))
#loc99 = loc("v"(#loc21))
#loc100 = loc("kt"(#loc22))
#loc101 = loc("qk0"(#loc23))
#loc103 = loc("m_ij0"(#loc27))
#loc104 = loc("alpha0"(#loc28))
#loc105 = loc("alpha0"(#loc29))
#loc106 = loc("p0"(#loc30))
#loc107 = loc("p0"(#loc31))
#loc108 = loc("p0"(#loc32))
#loc110 = loc("acc0"(#loc36))
#loc111 = loc("acc0"(#loc37))
#loc112 = loc("acc0"(#loc38))
#loc113 = loc("acc0"(#loc39))
#loc114 = loc("l_i0"(#loc40))
#loc115 = loc("qk1"(#loc41))
#loc117 = loc("m_ij1"(#loc43))
#loc118 = loc("alpha1"(#loc44))
#loc119 = loc("alpha1"(#loc45))
#loc120 = loc("p1"(#loc46))
#loc121 = loc("p1"(#loc47))
#loc122 = loc("p1"(#loc48))
#loc124 = loc("acc1"(#loc50))
#loc125 = loc("acc1"(#loc51))
#loc126 = loc("acc1"(#loc52))
#loc127 = loc("acc1"(#loc53))
#loc128 = loc("l_i1"(#loc54))
#loc129 = loc("acc0"(#loc55))
#loc130 = loc("acc0"(#loc56))
#loc131 = loc("acc1"(#loc57))
#loc132 = loc("acc1"(#loc58))
#loc133 = loc("offs"(#loc64))
#loc134 = loc("m_i1"(#loc95))
#loc135 = loc(callsite(#loc24 at #loc102))
#loc137 = loc(callsite(#loc33 at #loc109))
#loc139 = loc(callsite(#loc24 at #loc116))
#loc141 = loc(callsite(#loc33 at #loc123))
#loc143 = loc("l_i0"(#loc134))
#loc144 = loc(callsite(#loc26 at #loc135))
#loc145 = loc(callsite(#loc35 at #loc137))
#loc146 = loc(callsite(#loc26 at #loc139))
#loc147 = loc(callsite(#loc35 at #loc141))
#loc148 = loc("l_i1"(#loc143))
#loc149 = loc("acc0"(#loc148))
#loc150 = loc("acc1"(#loc149))


// -----// IR Dump Before TritonSimplifySingleTripWhile: triton-simplify-single-trip-while ('builtin.module' operation) //----- //
#loc = loc("/projects/kzhou6/hwu27/triton-beta-3-paper-solver-wt/third_party/tlx/tools/sched2tlx/examples/case3_FA_fp16_subtiled/fa_fwd_nows_subtiled.py":25:1)
#loc1 = loc(unknown)
#loc25 = loc("/projects/kzhou6/hwu27/triton-beta-3-paper-solver-wt/third_party/tlx/tools/sched2tlx/examples/case3_FA_fp16_subtiled/fa_fwd_nows_subtiled.py":56:34)
#loc34 = loc("/projects/kzhou6/hwu27/triton-beta-3-paper-solver-wt/third_party/tlx/tools/sched2tlx/examples/case3_FA_fp16_subtiled/fa_fwd_nows_subtiled.py":59:17)
#loc42 = loc("/projects/kzhou6/hwu27/triton-beta-3-paper-solver-wt/third_party/tlx/tools/sched2tlx/examples/case3_FA_fp16_subtiled/fa_fwd_nows_subtiled.py":64:34)
#loc49 = loc("/projects/kzhou6/hwu27/triton-beta-3-paper-solver-wt/third_party/tlx/tools/sched2tlx/examples/case3_FA_fp16_subtiled/fa_fwd_nows_subtiled.py":67:17)
#loc73 = loc("Q"(#loc))
#loc74 = loc("K"(#loc))
#loc75 = loc("V"(#loc))
#loc76 = loc("Out"(#loc))
#loc77 = loc("M_lse"(#loc))
#loc78 = loc("sm_scale"(#loc))
#loc79 = loc("H"(#loc))
#loc80 = loc("N_CTX"(#loc))
#loc102 = loc("m_ij0"(#loc25))
#loc109 = loc("l_ij0"(#loc34))
#loc116 = loc("m_ij1"(#loc42))
#loc123 = loc("l_ij1"(#loc49))
#loc136 = loc(callsite(#loc1 at #loc102))
#loc138 = loc(callsite(#loc1 at #loc109))
#loc140 = loc(callsite(#loc1 at #loc116))
#loc142 = loc(callsite(#loc1 at #loc123))
module {
  tt.func public @fa_fwd_kernel_nows_subtiled(%Q: !tt.ptr<f16> {tt.divisibility = 16 : i32} loc("Q"(#loc)), %K: !tt.ptr<f16> {tt.divisibility = 16 : i32} loc("K"(#loc)), %V: !tt.ptr<f16> {tt.divisibility = 16 : i32} loc("V"(#loc)), %Out: !tt.ptr<f16> {tt.divisibility = 16 : i32} loc("Out"(#loc)), %M_lse: !tt.ptr<f32> {tt.divisibility = 16 : i32} loc("M_lse"(#loc)), %sm_scale: f32 loc("sm_scale"(#loc)), %H: i32 loc("H"(#loc)), %N_CTX: i32 {tt.divisibility = 16 : i32} loc("N_CTX"(#loc))) attributes {noinline = false} {
    %cst = arith.constant dense<0.000000e+00> : tensor<64x128xf32> loc(#loc1)
    %c1_i32 = arith.constant 1 : i32 loc(#loc2)
    %cst_0 = arith.constant dense<0.000000e+00> : tensor<64x64xf32> loc(#loc1)
    %cst_1 = arith.constant 1.44269502 : f32 loc(#loc1)
    %cst_2 = arith.constant dense<1.000000e+00> : tensor<64xf32> loc(#loc1)
    %cst_3 = arith.constant dense<0xFF800000> : tensor<64xf32> loc(#loc1)
    %c64_i32 = arith.constant 64 : i32 loc(#loc1)
    %c0_i32 = arith.constant 0 : i32 loc(#loc1)
    %c1_i64 = arith.constant 1 : i64 loc(#loc1)
    %c128_i64 = arith.constant 128 : i64 loc(#loc1)
    %c128_i32 = arith.constant 128 : i32 loc(#loc1)
    %pid_m = tt.get_program_id x : i32 loc(#loc81)
    %pid_bh = tt.get_program_id y : i32 loc(#loc82)
    %kv_base = arith.muli %pid_bh, %N_CTX : i32 loc(#loc83)
    %qo_offset = arith.muli %pid_m, %c128_i32 : i32 loc(#loc84)
    %qo_offset_4 = arith.addi %kv_base, %qo_offset : i32 loc(#loc85)
    %rows = arith.muli %H, %N_CTX : i32 loc(#loc86)
    %qo_desc = tt.make_tensor_descriptor %Q, [%rows, %c128_i32], [%c128_i64, %c1_i64] : !tt.ptr<f16>, !tt.tensordesc<64x128xf16> loc(#loc87)
    %k_desc = tt.make_tensor_descriptor %K, [%rows, %c128_i32], [%c128_i64, %c1_i64] : !tt.ptr<f16>, !tt.tensordesc<64x128xf16> loc(#loc88)
    %v_desc = tt.make_tensor_descriptor %V, [%rows, %c128_i32], [%c128_i64, %c1_i64] : !tt.ptr<f16>, !tt.tensordesc<64x128xf16> loc(#loc89)
    %out_desc = tt.make_tensor_descriptor %Out, [%rows, %c128_i32], [%c128_i64, %c1_i64] : !tt.ptr<f16>, !tt.tensordesc<64x128xf16> loc(#loc90)
    %q0 = tt.descriptor_load %qo_desc[%qo_offset_4, %c0_i32] : !tt.tensordesc<64x128xf16> -> tensor<64x128xf16> loc(#loc91)
    %q1 = arith.addi %qo_offset_4, %c64_i32 : i32 loc(#loc92)
    %q1_5 = tt.descriptor_load %qo_desc[%q1, %c0_i32] : !tt.tensordesc<64x128xf16> -> tensor<64x128xf16> loc(#loc93)
    %qk_scale = arith.mulf %sm_scale, %cst_1 : f32 loc(#loc94)
    %0 = arith.divsi %N_CTX, %c64_i32 : i32 loc(#loc17)
    %acc1:6 = scf.for %kv = %c0_i32 to %0 step %c1_i32 iter_args(%m_i0 = %cst_3, %m_i1 = %cst_3, %l_i0 = %cst_2, %l_i1 = %cst_2, %acc0_11 = %cst, %acc1_12 = %cst) -> (tensor<64xf32>, tensor<64xf32>, tensor<64xf32>, tensor<64xf32>, tensor<64x128xf32>, tensor<64x128xf32>)  : i32 {
      %koff = arith.muli %kv, %c64_i32 : i32 loc(#loc96)
      %koff_13 = arith.addi %kv_base, %koff : i32 loc(#loc97)
      %k = tt.descriptor_load %k_desc[%koff_13, %c0_i32] : !tt.tensordesc<64x128xf16> -> tensor<64x128xf16> loc(#loc98)
      %v = tt.descriptor_load %v_desc[%koff_13, %c0_i32] : !tt.tensordesc<64x128xf16> -> tensor<64x128xf16> loc(#loc99)
      %kt = tt.trans %k {order = array<i32: 1, 0>} : tensor<64x128xf16> -> tensor<128x64xf16> loc(#loc100)
      %qk0 = tt.dot %q0, %kt, %cst_0, inputPrecision = tf32 : tensor<64x128xf16> * tensor<128x64xf16> -> tensor<64x64xf32> loc(#loc101)
      %m_ij0 = "tt.reduce"(%qk0) <{axis = 1 : i32, reduction_ordering = "unordered"}> ({
…
#loc3 = loc("/projects/kzhou6/hwu27/triton-beta-3-paper-solver-wt/third_party/tlx/tools/sched2tlx/examples/case3_FA_fp16_subtiled/fa_fwd_nows_subtiled.py":29:14)
#loc4 = loc("/projects/kzhou6/hwu27/triton-beta-3-paper-solver-wt/third_party/tlx/tools/sched2tlx/examples/case3_FA_fp16_subtiled/fa_fwd_nows_subtiled.py":30:15)
#loc5 = loc("/projects/kzhou6/hwu27/triton-beta-3-paper-solver-wt/third_party/tlx/tools/sched2tlx/examples/case3_FA_fp16_subtiled/fa_fwd_nows_subtiled.py":31:27)
#loc6 = loc("/projects/kzhou6/hwu27/triton-beta-3-paper-solver-wt/third_party/tlx/tools/sched2tlx/examples/case3_FA_fp16_subtiled/fa_fwd_nows_subtiled.py":31:17)
#loc7 = loc("/projects/kzhou6/hwu27/triton-beta-3-paper-solver-wt/third_party/tlx/tools/sched2tlx/examples/case3_FA_fp16_subtiled/fa_fwd_nows_subtiled.py":32:12)
#loc8 = loc("/projects/kzhou6/hwu27/triton-beta-3-paper-solver-wt/third_party/tlx/tools/sched2tlx/examples/case3_FA_fp16_subtiled/fa_fwd_nows_subtiled.py":33:15)
#loc9 = loc("/projects/kzhou6/hwu27/triton-beta-3-paper-solver-wt/third_party/tlx/tools/sched2tlx/examples/case3_FA_fp16_subtiled/fa_fwd_nows_subtiled.py":35:14)
#loc10 = loc("/projects/kzhou6/hwu27/triton-beta-3-paper-solver-wt/third_party/tlx/tools/sched2tlx/examples/case3_FA_fp16_subtiled/fa_fwd_nows_subtiled.py":37:14)
#loc11 = loc("/projects/kzhou6/hwu27/triton-beta-3-paper-solver-wt/third_party/tlx/tools/sched2tlx/examples/case3_FA_fp16_subtiled/fa_fwd_nows_subtiled.py":39:16)
#loc12 = loc("/projects/kzhou6/hwu27/triton-beta-3-paper-solver-wt/third_party/tlx/tools/sched2tlx/examples/case3_FA_fp16_subtiled/fa_fwd_nows_subtiled.py":41:10)
#loc13 = loc("/projects/kzhou6/hwu27/triton-beta-3-paper-solver-wt/third_party/tlx/tools/sched2tlx/examples/case3_FA_fp16_subtiled/fa_fwd_nows_subtiled.py":42:24)
#loc14 = loc("/projects/kzhou6/hwu27/triton-beta-3-paper-solver-wt/third_party/tlx/tools/sched2tlx/examples/case3_FA_fp16_subtiled/fa_fwd_nows_subtiled.py":42:10)
#loc15 = loc("/projects/kzhou6/hwu27/triton-beta-3-paper-solver-wt/third_party/tlx/tools/sched2tlx/examples/case3_FA_fp16_subtiled/fa_fwd_nows_subtiled.py":49:16)
#loc16 = loc("/projects/kzhou6/hwu27/triton-beta-3-paper-solver-wt/third_party/tlx/tools/sched2tlx/examples/case3_FA_fp16_subtiled/fa_fwd_nows_subtiled.py":50:21)
#loc18 = loc("/projects/kzhou6/hwu27/triton-beta-3-paper-solver-wt/third_party/tlx/tools/sched2tlx/examples/case3_FA_fp16_subtiled/fa_fwd_nows_subtiled.py":58:27)
#loc19 = loc("/projects/kzhou6/hwu27/triton-beta-3-paper-solver-wt/third_party/tlx/tools/sched2tlx/examples/case3_FA_fp16_subtiled/fa_fwd_nows_subtiled.py":55:15)
#loc20 = loc("/projects/kzhou6/hwu27/triton-beta-3-paper-solver-wt/third_party/tlx/tools/sched2tlx/examples/case3_FA_fp16_subtiled/fa_fwd_nows_subtiled.py":60:16)
#loc21 = loc("/projects/kzhou6/hwu27/triton-beta-3-paper-solver-wt/third_party/tlx/tools/sched2tlx/examples/case3_FA_fp16_subtiled/fa_fwd_nows_subtiled.py":63:15)
#loc22 = loc("/projects/kzhou6/hwu27/triton-beta-3-paper-solver-wt/third_party/tlx/tools/sched2tlx/examples/case3_FA_fp16_subtiled/fa_fwd_nows_subtiled.py":68:16)
#loc23 = loc("/projects/kzhou6/hwu27/triton-beta-3-paper-solver-wt/third_party/tlx/tools/sched2tlx/examples/case3_FA_fp16_subtiled/fa_fwd_nows_subtiled.py":50:5)
#loc24 = loc("/projects/kzhou6/hwu27/triton-beta-3-paper-solver-wt/third_party/tlx/tools/sched2tlx/examples/case3_FA_fp16_subtiled/fa_fwd_nows_subtiled.py":51:26)
#loc25 = loc("/projects/kzhou6/hwu27/triton-beta-3-paper-solver-wt/third_party/tlx/tools/sched2tlx/examples/case3_FA_fp16_subtiled/fa_fwd_nows_subtiled.py":51:16)
#loc26 = loc("/projects/kzhou6/hwu27/triton-beta-3-paper-solver-wt/third_party/tlx/tools/sched2tlx/examples/case3_FA_fp16_subtiled/fa_fwd_nows_subtiled.py":52:13)
#loc27 = loc("/projects/kzhou6/hwu27/triton-beta-3-paper-solver-wt/third_party/tlx/tools/sched2tlx/examples/case3_FA_fp16_subtiled/fa_fwd_nows_subtiled.py":53:13)
#loc28 = loc("/projects/kzhou6/hwu27/triton-beta-3-paper-solver-wt/third_party/tlx/tools/sched2tlx/examples/case3_FA_fp16_subtiled/fa_fwd_nows_subtiled.py":54:14)
#loc29 = loc("/projects/kzhou6/hwu27/triton-beta-3-paper-solver-wt/python/triton/language/standard.py":194:16)
#loc30 = loc("/projects/kzhou6/hwu27/triton-beta-3-paper-solver-wt/python/triton/language/standard.py":170:12)
#loc31 = loc("/projects/kzhou6/hwu27/triton-beta-3-paper-solver-wt/third_party/tlx/tools/sched2tlx/examples/case3_FA_fp16_subtiled/fa_fwd_nows_subtiled.py":56:17)
#loc32 = loc("/projects/kzhou6/hwu27/triton-beta-3-paper-solver-wt/third_party/tlx/tools/sched2tlx/examples/case3_FA_fp16_subtiled/fa_fwd_nows_subtiled.py":57:31)
#loc33 = loc("/projects/kzhou6/hwu27/triton-beta-3-paper-solver-wt/third_party/tlx/tools/sched2tlx/examples/case3_FA_fp16_subtiled/fa_fwd_nows_subtiled.py":57:18)
#loc34 = loc("/projects/kzhou6/hwu27/triton-beta-3-paper-solver-wt/third_party/tlx/tools/sched2tlx/examples/case3_FA_fp16_subtiled/fa_fwd_nows_subtiled.py":58:44)
#loc35 = loc("/projects/kzhou6/hwu27/triton-beta-3-paper-solver-wt/third_party/tlx/tools/sched2tlx/examples/case3_FA_fp16_subtiled/fa_fwd_nows_subtiled.py":58:14)
#loc36 = loc("/projects/kzhou6/hwu27/triton-beta-3-paper-solver-wt/python/triton/language/standard.py":313:12)
#loc38 = loc("/projects/kzhou6/hwu27/triton-beta-3-paper-solver-wt/python/triton/language/standard.py":273:12)
#loc39 = loc("/projects/kzhou6/hwu27/triton-beta-3-paper-solver-wt/third_party/tlx/tools/sched2tlx/examples/case3_FA_fp16_subtiled/fa_fwd_nows_subtiled.py":60:23)
#loc40 = loc("/projects/kzhou6/hwu27/triton-beta-3-paper-solver-wt/third_party/tlx/tools/sched2tlx/examples/case3_FA_fp16_subtiled/fa_fwd_nows_subtiled.py":60:52)
#loc41 = loc("/projects/kzhou6/hwu27/triton-beta-3-paper-solver-wt/third_party/tlx/tools/sched2tlx/examples/case3_FA_fp16_subtiled/fa_fwd_nows_subtiled.py":60:45)
#loc42 = loc("/projects/kzhou6/hwu27/triton-beta-3-paper-solver-wt/third_party/tlx/tools/sched2tlx/examples/case3_FA_fp16_subtiled/fa_fwd_nows_subtiled.py":61:16)
#loc44 = loc("/projects/kzhou6/hwu27/triton-beta-3-paper-solver-wt/third_party/tlx/tools/sched2tlx/examples/case3_FA_fp16_subtiled/fa_fwd_nows_subtiled.py":64:17)
#loc45 = loc("/projects/kzhou6/hwu27/triton-beta-3-paper-solver-wt/third_party/tlx/tools/sched2tlx/examples/case3_FA_fp16_subtiled/fa_fwd_nows_subtiled.py":65:31)
#loc46 = loc("/projects/kzhou6/hwu27/triton-beta-3-paper-solver-wt/third_party/tlx/tools/sched2tlx/examples/case3_FA_fp16_subtiled/fa_fwd_nows_subtiled.py":65:18)
#loc47 = loc("/projects/kzhou6/hwu27/triton-beta-3-paper-solver-wt/third_party/tlx/tools/sched2tlx/examples/case3_FA_fp16_subtiled/fa_fwd_nows_subtiled.py":66:27)
#loc48 = loc("/projects/kzhou6/hwu27/triton-beta-3-paper-solver-wt/third_party/tlx/tools/sched2tlx/examples/case3_FA_fp16_subtiled/fa_fwd_nows_subtiled.py":66:44)
#loc49 = loc("/projects/kzhou6/hwu27/triton-beta-3-paper-solver-wt/third_party/tlx/tools/sched2tlx/examples/case3_FA_fp16_subtiled/fa_fwd_nows_subtiled.py":66:14)
#loc51 = loc("/projects/kzhou6/hwu27/triton-beta-3-paper-solver-wt/third_party/tlx/tools/sched2tlx/examples/case3_FA_fp16_subtiled/fa_fwd_nows_subtiled.py":68:23)
#loc52 = loc("/projects/kzhou6/hwu27/triton-beta-3-paper-solver-wt/third_party/tlx/tools/sched2tlx/examples/case3_FA_fp16_subtiled/fa_fwd_nows_subtiled.py":68:52)
#loc53 = loc("/projects/kzhou6/hwu27/triton-beta-3-paper-solver-wt/third_party/tlx/tools/sched2tlx/examples/case3_FA_fp16_subtiled/fa_fwd_nows_subtiled.py":68:45)
#loc54 = loc("/projects/kzhou6/hwu27/triton-beta-3-paper-solver-wt/third_party/tlx/tools/sched2tlx/examples/case3_FA_fp16_subtiled/fa_fwd_nows_subtiled.py":69:16)
#loc55 = loc("/projects/kzhou6/hwu27/triton-beta-3-paper-solver-wt/third_party/tlx/tools/sched2tlx/examples/case3_FA_fp16_subtiled/fa_fwd_nows_subtiled.py":71:19)
#loc56 = loc("/projects/kzhou6/hwu27/triton-beta-3-paper-solver-wt/third_party/tlx/tools/sched2tlx/examples/case3_FA_fp16_subtiled/fa_fwd_nows_subtiled.py":71:12)
#loc57 = loc("/projects/kzhou6/hwu27/triton-beta-3-paper-solver-wt/third_party/tlx/tools/sched2tlx/examples/case3_FA_fp16_subtiled/fa_fwd_nows_subtiled.py":72:19)
#loc58 = loc("/projects/kzhou6/hwu27/triton-beta-3-paper-solver-wt/third_party/tlx/tools/sched2tlx/examples/case3_FA_fp16_subtiled/fa_fwd_nows_subtiled.py":72:12)
#loc59 = loc("/projects/kzhou6/hwu27/triton-beta-3-paper-solver-wt/third_party/tlx/tools/sched2tlx/examples/case3_FA_fp16_subtiled/fa_fwd_nows_subtiled.py":73:36)
#loc60 = loc("/projects/kzhou6/hwu27/triton-beta-3-paper-solver-wt/third_party/tlx/tools/sched2tlx/examples/case3_FA_fp16_subtiled/fa_fwd_nows_subtiled.py":73:5)
#loc61 = loc("/projects/kzhou6/hwu27/triton-beta-3-paper-solver-wt/third_party/tlx/tools/sched2tlx/examples/case3_FA_fp16_subtiled/fa_fwd_nows_subtiled.py":74:44)
#loc62 = loc("/projects/kzhou6/hwu27/triton-beta-3-paper-solver-wt/third_party/tlx/tools/sched2tlx/examples/case3_FA_fp16_subtiled/fa_fwd_nows_subtiled.py":74:5)
#loc63 = loc("/projects/kzhou6/hwu27/triton-beta-3-paper-solver-wt/third_party/tlx/tools/sched2tlx/examples/case3_FA_fp16_subtiled/fa_fwd_nows_subtiled.py":75:12)
#loc64 = loc("/projects/kzhou6/hwu27/triton-beta-3-paper-solver-wt/third_party/tlx/tools/sched2tlx/examples/case3_FA_fp16_subtiled/fa_fwd_nows_subtiled.py":76:14)
#loc65 = loc("/projects/kzhou6/hwu27/triton-beta-3-paper-solver-wt/third_party/tlx/tools/sched2tlx/examples/case3_FA_fp16_subtiled/fa_fwd_nows_subtiled.py":76:47)
#loc66 = loc("/projects/kzhou6/hwu27/triton-beta-3-paper-solver-wt/third_party/tlx/tools/sched2tlx/examples/case3_FA_fp16_subtiled/fa_fwd_nows_subtiled.py":76:40)
#loc67 = loc("/projects/kzhou6/hwu27/triton-beta-3-paper-solver-wt/third_party/tlx/tools/sched2tlx/examples/case3_FA_fp16_subtiled/fa_fwd_nows_subtiled.py":76:5)
#loc68 = loc("/projects/kzhou6/hwu27/triton-beta-3-paper-solver-wt/third_party/tlx/tools/sched2tlx/examples/case3_FA_fp16_subtiled/fa_fwd_nows_subtiled.py":77:14)
#loc69 = loc("/projects/kzhou6/hwu27/triton-beta-3-paper-solver-wt/third_party/tlx/tools/sched2tlx/examples/case3_FA_fp16_subtiled/fa_fwd_nows_subtiled.py":77:55)
#loc70 = loc("/projects/kzhou6/hwu27/triton-beta-3-paper-solver-wt/third_party/tlx/tools/sched2tlx/examples/case3_FA_fp16_subtiled/fa_fwd_nows_subtiled.py":77:48)
#loc71 = loc("/projects/kzhou6/hwu27/triton-beta-3-paper-solver-wt/third_party/tlx/tools/sched2tlx/examples/case3_FA_fp16_subtiled/fa_fwd_nows_subtiled.py":77:5)
#loc80 = loc("pid_m"(#loc2))
#loc81 = loc("pid_bh"(#loc3))
#loc82 = loc("kv_base"(#loc4))
#loc83 = loc("qo_offset"(#loc5))
#loc84 = loc("qo_offset"(#loc6))
#loc85 = loc("rows"(#loc7))
#loc86 = loc("qo_desc"(#loc8))
#loc87 = loc("k_desc"(#loc9))
#loc88 = loc("v_desc"(#loc10))
#loc89 = loc("out_desc"(#loc11))
#loc90 = loc("q0"(#loc12))
#loc91 = loc("q1"(#loc13))
#loc92 = loc("q1"(#loc14))
#loc93 = loc("qk_scale"(#loc15))
#loc95 = loc("p0"(#loc18))
#loc96 = loc("qk0"(#loc19))
#loc97 = loc("acc0"(#loc20))
#loc98 = loc("qk1"(#loc21))
#loc99 = loc("acc1"(#loc22))
#loc100 = loc("m_i0"(#loc23))
#loc101 = loc("koff"(#loc24))
#loc102 = loc("koff"(#loc25))
#loc103 = loc("k"(#loc26))
#loc104 = loc("v"(#loc27))
#loc105 = loc("kt"(#loc28))
#loc106 = loc("m_ij0"(#loc31))
#loc107 = loc("alpha0"(#loc32))
#loc108 = loc("alpha0"(#loc33))
#loc109 = loc("p0"(#loc34))
#loc110 = loc("p0"(#loc35))
#loc112 = loc("acc0"(#loc39))
#loc113 = loc("acc0"(#loc40))
#loc114 = loc("acc0"(#loc41))
#loc115 = loc("l_i0"(#loc42))
#loc117 = loc("m_ij1"(#loc44))
#loc118 = loc("alpha1"(#loc45))
#loc119 = loc("alpha1"(#loc46))
#loc120 = loc("p1"(#loc47))
#loc121 = loc("p1"(#loc48))
#loc122 = loc("p1"(#loc49))
#loc124 = loc("acc1"(#loc51))
#loc125 = loc("acc1"(#loc52))
#loc126 = loc("acc1"(#loc53))
#loc127 = loc("l_i1"(#loc54))
#loc128 = loc("acc0"(#loc55))
#loc129 = loc("acc0"(#loc56))
#loc130 = loc("acc1"(#loc57))
#loc131 = loc("acc1"(#loc58))
#loc132 = loc("offs"(#loc63))
#loc133 = loc("m_i1"(#loc100))
#loc134 = loc(callsite(#loc29 at #loc94))
#loc136 = loc(callsite(#loc36 at #loc111))
#loc138 = loc(callsite(#loc29 at #loc116))
#loc140 = loc(callsite(#loc36 at #loc123))
#loc142 = loc("l_i0"(#loc133))
#loc143 = loc(callsite(#loc30 at #loc134))
#loc144 = loc(callsite(#loc38 at #loc136))
#loc145 = loc(callsite(#loc30 at #loc138))
#loc146 = loc(callsite(#loc38 at #loc140))
#loc147 = loc("l_i1"(#loc142))
#loc148 = loc("acc0"(#loc147))
#loc149 = loc("acc1"(#loc148))


// -----// IR Dump After TritonGPUAutomaticWarpSpecialization Failed: tritongpu-automatic-warp-specialization{num-stages=2} ('builtin.module' operation) //----- //
#blocked = #ttg.blocked<{sizePerThread = [1, 8], threadsPerWarp = [2, 16], warpsPerCTA = [4, 1], order = [1, 0]}>
#blocked1 = #ttg.blocked<{sizePerThread = [1], threadsPerWarp = [32], warpsPerCTA = [4], order = [0]}>
#linear = #ttg.linear<{register = [[0, 1], [0, 2], [0, 4], [0, 8], [0, 16]], lane = [[1, 0], [2, 0], [4, 0], [8, 0], [0, 32]], warp = [[16, 0], [32, 0]], block = []}>
#linear1 = #ttg.linear<{register = [[0, 1], [0, 2], [0, 4], [0, 8], [0, 16], [0, 32]], lane = [[1, 0], [2, 0], [4, 0], [8, 0], [0, 64]], warp = [[16, 0], [32, 0]], block = []}>
#loc = loc("/projects/kzhou6/hwu27/triton-beta-3-paper-solver-wt/third_party/tlx/tools/sched2tlx/examples/case3_FA_fp16_subtiled/fa_fwd_nows_subtiled.py":25:1)
#loc1 = loc(unknown)
#loc17 = loc("/projects/kzhou6/hwu27/triton-beta-3-paper-solver-wt/third_party/tlx/tools/sched2tlx/examples/case3_FA_fp16_subtiled/fa_fwd_nows_subtiled.py":56:34)
#loc37 = loc("/projects/kzhou6/hwu27/triton-beta-3-paper-solver-wt/third_party/tlx/tools/sched2tlx/examples/case3_FA_fp16_subtiled/fa_fwd_nows_subtiled.py":59:17)
#loc43 = loc("/projects/kzhou6/hwu27/triton-beta-3-paper-solver-wt/third_party/tlx/tools/sched2tlx/examples/case3_FA_fp16_subtiled/fa_fwd_nows_subtiled.py":64:34)
#loc50 = loc("/projects/kzhou6/hwu27/triton-beta-3-paper-solver-wt/third_party/tlx/tools/sched2tlx/examples/case3_FA_fp16_subtiled/fa_fwd_nows_subtiled.py":67:17)
#shared = #ttg.nvmma_shared<{swizzlingByteWidth = 128, transposed = false, elementBitWidth = 16}>
#shared1 = #ttg.nvmma_shared<{swizzlingByteWidth = 128, transposed = true, elementBitWidth = 16}>
#smem = #ttg.shared_memory
#tmem = #ttng.tensor_memory_encoding<blockM = 64, blockN = 64, colStride = 1>
#tmem1 = #ttng.tensor_memory_encoding<blockM = 64, blockN = 128, colStride = 1>
#loc72 = loc("Q"(#loc))
#loc73 = loc("K"(#loc))
#loc74 = loc("V"(#loc))
#loc75 = loc("Out"(#loc))
#loc76 = loc("M_lse"(#loc))
#loc77 = loc("sm_scale"(#loc))
#loc78 = loc("H"(#loc))
#loc79 = loc("N_CTX"(#loc))
#loc94 = loc("m_ij0"(#loc17))
#loc111 = loc("l_ij0"(#loc37))
#loc116 = loc("m_ij1"(#loc43))
#loc123 = loc("l_ij1"(#loc50))
#loc135 = loc(callsite(#loc1 at #loc94))
#loc137 = loc(callsite(#loc1 at #loc111))
#loc139 = loc(callsite(#loc1 at #loc116))
#loc141 = loc(callsite(#loc1 at #loc123))
module attributes {"ttg.cluster-dim-x" = 1 : i32, "ttg.cluster-dim-y" = 1 : i32, "ttg.cluster-dim-z" = 1 : i32, ttg.early_tma_store_lowering = true, ttg.max_reg_auto_ws = 152 : i32, ttg.min_reg_auto_ws = 24 : i32, "ttg.num-ctas" = 1 : i32, "ttg.num-warps" = 4 : i32, ttg.target = "cuda:100", "ttg.threads-per-warp" = 32 : i32} {
  tt.func public @fa_fwd_kernel_nows_subtiled(%Q: !tt.ptr<f16> {tt.divisibility = 16 : i32} loc("Q"(#loc)), %K: !tt.ptr<f16> {tt.divisibility = 16 : i32} loc("K"(#loc)), %V: !tt.ptr<f16> {tt.divisibility = 16 : i32} loc("V"(#loc)), %Out: !tt.ptr<f16> {tt.divisibility = 16 : i32} loc("Out"(#loc)), %M_lse: !tt.ptr<f32> {tt.divisibility = 16 : i32} loc("M_lse"(#loc)), %sm_scale: f32 loc("sm_scale"(#loc)), %H: i32 loc("H"(#loc)), %N_CTX: i32 {tt.divisibility = 16 : i32} loc("N_CTX"(#loc))) attributes {noinline = false} {
    %cst = arith.constant dense<0xFF800000> : tensor<64xf32, #ttg.slice<{dim = 1, parent = #linear}>> loc(#loc1)
    %cst_0 = arith.constant dense<1.000000e+00> : tensor<64xf32, #ttg.slice<{dim = 1, parent = #linear}>> loc(#loc1)
    %cst_1 = arith.constant dense<0.000000e+00> : tensor<64x128xf32, #linear1> loc(#loc1)
    %c1_i32 = arith.constant 1 : i32 loc(#loc1)
    %cst_2 = arith.constant 1.44269502 : f32 loc(#loc1)
    %c64_i32 = arith.constant 64 : i32 loc(#loc1)
    %c0_i32 = arith.constant 0 : i32 loc(#loc1)
    %c1_i64 = arith.constant 1 : i64 loc(#loc1)
    %c128_i64 = arith.constant 128 : i64 loc(#loc1)
    %c128_i32 = arith.constant 128 : i32 loc(#loc1)
    %true = arith.constant true loc(#loc1)
    %false = arith.constant false loc(#loc1)
    %pid_m = tt.get_program_id x : i32 loc(#loc80)
    %pid_bh = tt.get_program_id y : i32 loc(#loc81)
    %kv_base = arith.muli %pid_bh, %N_CTX : i32 loc(#loc82)
    %qo_offset = arith.muli %pid_m, %c128_i32 : i32 loc(#loc83)
    %qo_offset_3 = arith.addi %kv_base, %qo_offset : i32 loc(#loc84)
    %rows = arith.muli %H, %N_CTX : i32 loc(#loc85)
    %qo_desc = tt.make_tensor_descriptor %Q, [%rows, %c128_i32], [%c128_i64, %c1_i64] : !tt.ptr<f16>, !tt.tensordesc<64x128xf16, #shared> loc(#loc86)
    %k_desc = tt.make_tensor_descriptor %K, [%rows, %c128_i32], [%c128_i64, %c1_i64] : !tt.ptr<f16>, !tt.tensordesc<64x128xf16, #shared> loc(#loc87)
    %v_desc = tt.make_tensor_descriptor %V, [%rows, %c128_i32], [%c128_i64, %c1_i64] : !tt.ptr<f16>, !tt.tensordesc<64x128xf16, #shared> loc(#loc88)
    %out_desc = tt.make_tensor_descriptor %Out, [%rows, %c128_i32], [%c128_i64, %c1_i64] : !tt.ptr<f16>, !tt.tensordesc<64x128xf16, #shared> loc(#loc89)
    %q0 = tt.descriptor_load %qo_desc[%qo_offset_3, %c0_i32] : !tt.tensordesc<64x128xf16, #shared> -> tensor<64x128xf16, #blocked> loc(#loc90)
    %q0_4 = ttg.local_alloc %q0 : (tensor<64x128xf16, #blocked>) -> !ttg.memdesc<64x128xf16, #shared, #smem> loc(#loc90)
    %q1 = arith.addi %qo_offset_3, %c64_i32 : i32 loc(#loc91)
    %q1_5 = tt.descriptor_load %qo_desc[%q1, %c0_i32] : !tt.tensordesc<64x128xf16, #shared> -> tensor<64x128xf16, #blocked> loc(#loc92)
    %q1_6 = ttg.local_alloc %q1_5 : (tensor<64x128xf16, #blocked>) -> !ttg.memdesc<64x128xf16, #shared, #smem> loc(#loc92)
    %qk_scale = arith.mulf %sm_scale, %cst_2 : f32 loc(#loc93)
    %0 = arith.divsi %N_CTX, %c64_i32 : i32 loc(#loc16)
    %m_ij0 = tt.splat %qk_scale : f32 -> tensor<64xf32, #ttg.slice<{dim = 1, parent = #linear}>> loc(#loc94)
    %p0 = tt.splat %qk_scale : f32 -> tensor<64x64xf32, #linear> loc(#loc95)
    %qk0, %qk0_7 = ttng.tmem_alloc : () -> (!ttg.memdesc<64x64xf32, #tmem, #ttng.tensor_memory, mutable>, !ttg.async.token) loc(#loc96)
    %acc0, %acc0_8 = ttng.tmem_alloc : () -> (!ttg.memdesc<64x128xf32, #tmem1, #ttng.tensor_memory, mutable>, !ttg.async.token) loc(#loc97)
    %qk1, %qk1_9 = ttng.tmem_alloc : () -> (!ttg.memdesc<64x64xf32, #tmem, #ttng.tensor_memory, mutable>, !ttg.async.token) loc(#loc98)
    %acc1, %acc1_10 = ttng.tmem_alloc : () -> (!ttg.memdesc<64x128xf32, #tmem1, #ttng.tensor_memory, mutable>, !ttg.async.token) loc(#loc99)
    %acc1_11 = ttng.tmem_store %cst_1, %acc1[%acc1_10], %true : tensor<64x128xf32, #linear1> -> !ttg.memdesc<64x128xf32, #tmem1, #ttng.tensor_memory, mutable> loc(#loc99)
    %acc0_12 = ttng.tmem_store %cst_1, %acc0[%acc0_8], %true : tensor<64x128xf32, #linear1> -> !ttg.memdesc<64x128xf32, #tmem1, #ttng.tensor_memory, mutable> loc(#loc97)
    %acc1_13:9 = scf.for %kv = %c0_i32 to %0 step %c1_i32 iter_args(%m_i0 = %cst, %m_i1 = %cst, %l_i0 = %cst_0, %l_i1 = %cst_0, %acc0_26 = %false, %qk0_27 = %qk0_7, %acc0_28 = %acc0_12, %qk1_29 = %qk1_9, %acc1_30 = %acc1_11) -> (tensor<64xf32, #ttg.slice<{dim = 1, parent = #linear}>>, tensor<64xf32, #ttg.slice<{dim = 1, parent = #linear}>>, tensor<64xf32, #ttg.slice<{dim = 1, parent = #linear}>>, tensor<64xf32, #ttg.slice<{dim = 1, parent = #linear}>>, i1, !ttg.async.token, !ttg.async.token, !ttg.async.token, !ttg.async.token)  : i32 {
      %koff = arith.muli %kv, %c64_i32 {loop.cluster = 0 : i32, loop.stage = 0 : i32} : i32 loc(#loc101)
      %koff_31 = arith.addi %kv_base, %koff {loop.cluster = 1 : i32, loop.stage = 0 : i32, ttg.partition = array<i32: 1>} : i32 loc(#loc102)
      %k = tt.descriptor_load %k_desc[%koff_31, %c0_i32] {loop.cluster = 2 : i32, loop.stage = 0 : i32, ttg.partition = array<i32: 1>} : !tt.tensordesc<64x128xf16, #shared> -> tensor<64x128xf16, #blocked> loc(#loc103)
      %v = tt.descriptor_load %v_desc[%koff_31, %c0_i32] {loop.cluster = 3 : i32, loop.stage = 0 : i32, ttg.partition = array<i32: 2>} : !tt.tensordesc<64x128xf16, #shared> -> tensor<64x128xf16, #blocked> loc(#loc104)
      %v_32 = ttg.local_alloc %v {buffer.id = 0 : i32, buffer.merge_group_id = 0 : i32, loop.cluster = 5 : i32, loop.stage = 0 : i32, tt.num_buffers = 3 : i32, ttg.partition = array<i32: 2>} : (tensor<64x128xf16, #blocked>) -> !ttg.memdesc<64x128xf16, #shared, #smem> loc(#loc104)
      %kt = ttg.local_alloc %k {buffer.id = 1 : i32, buffer.merge_group_id = 1 : i32, loop.cluster = 4 : i32, loop.stage = 0 : i32, tt.num_buffers = 1 : i32, ttg.partition = array<i32: 1>} : (tensor<64x128xf16, #blocked>) -> !ttg.memdesc<64x128xf16, #shared, #smem> loc(#loc105)
      %kt_33 = ttg.memdesc_trans %kt {loop.cluster = 4 : i32, loop.stage = 0 : i32, order = array<i32: 1, 0>, ttg.partition = array<i32: 3>} : !ttg.memdesc<64x128xf16, #shared, #smem> -> !ttg.memdesc<128x64xf16, #shared1, #smem> loc(#loc105)
      %qk0_34 = ttng.tc_gen5_mma %q0_4, %kt_33, %qk0[%qk0_27], %false, %true {loop.cluster = 4 : i32, loop.stage = 0 : i32, ttg.partition = array<i32: 3>} : !ttg.memdesc<64x128xf16, #shared, #smem>, !ttg.memdesc<128x64xf16, #shared1, #smem>, !ttg.memdesc<64x64xf32, #tmem, #ttng.tensor_memory, mutable> loc(#loc96)
      %qk0_35, %qk0_36 = ttng.tmem_load %qk0[%qk0_34] {loop.cluster = 0 : i32, loop.stage = 1 : i32, ttg.partition = array<i32: 4>} : !ttg.memdesc<64x64xf32, #tmem, #ttng.tensor_memory, mutable> -> tensor<64x64xf32, #linear> loc(#loc96)
      %m_ij0_37 = "tt.reduce"(%qk0_35) <{axis = 1 : i32, reduction_ordering = "unordered"}> ({
      ^bb0(%m_ij0_80: f32 loc(callsite(#loc1 at #loc94)), %m_ij0_81: f32 loc(callsite(#loc1 at #loc94))):
        %m_ij0_82 = arith.maxnumf %m_ij0_80, %m_ij0_81 : f32 loc(#loc143)
        tt.reduce.return %m_ij0_82 : f32 loc(#loc134)
      }) {loop.cluster = 2 : i32, loop.stage = 1 : i32, ttg.partition = array<i32: 4>} : (tensor<64x64xf32, #linear>) -> tensor<64xf32, #ttg.slice<{dim = 1, parent = #linear}>> loc(#loc134)
      %m_ij0_38 = arith.mulf %m_ij0_37, %m_ij0 {loop.cluster = 6 : i32, loop.stage = 1 : i32, ttg.partition = array<i32: 4>} : tensor<64xf32, #ttg.slice<{dim = 1, parent = #linear}>> loc(#loc94)
      %m_ij0_39 = arith.maxnumf %m_i0, %m_ij0_38 {loop.cluster = 7 : i32, loop.stage = 1 : i32, ttg.partition = array<i32: 4>} : tensor<64xf32, #ttg.slice<{dim = 1, parent = #linear}>> loc(#loc106)
      %alpha0 = arith.subf %m_i0, %m_ij0_39 {loop.cluster = 13 : i32, loop.stage = 1 : i32, ttg.partition = array<i32: 4>} : tensor<64xf32, #ttg.slice<{dim = 1, parent = #linear}>> loc(#loc107)
      %alpha0_40 = math.exp2 %alpha0 {loop.cluster = 13 : i32, loop.stage = 1 : i32, ttg.partition = array<i32: 4>} : tensor<64xf32, #ttg.slice<{dim = 1, parent = #linear}>> loc(#loc108)
      %p0_41 = arith.mulf %qk0_35, %p0 {loop.cluster = 4 : i32, loop.stage = 1 : i32, ttg.partition = array<i32: 4>} : tensor<64x64xf32, #linear> loc(#loc95)
      %p0_42 = tt.expand_dims %m_ij0_39 {axis = 1 : i32, loop.cluster = 7 : i32, loop.stage = 1 : i32, ttg.partition = array<i32: 4>} : tensor<64xf32, #ttg.slice<{dim = 1, parent = #linear}>> -> tensor<64x1xf32, #linear> loc(#loc109)
      %p0_43 = tt.broadcast %p0_42 {loop.cluster = 7 : i32, loop.stage = 1 : i32, ttg.partition = array<i32: 4>} : tensor<64x1xf32, #linear> -> tensor<64x64xf32, #linear> loc(#loc95)
      %p0_44 = arith.subf %p0_41, %p0_43 {loop.cluster = 8 : i32, loop.stage = 1 : i32, ttg.partition = array<i32: 4>} : tensor<64x64xf32, #linear> loc(#loc95)
      %p0_45 = math.exp2 %p0_44 {loop.cluster = 9 : i32, loop.stage = 1 : i32, ttg.partition = array<i32: 4>} : tensor<64x64xf32, #linear> loc(#loc110)
      %l_ij0 = "tt.reduce"(%p0_45) <{axis = 1 : i32, reduction_ordering = "unordered"}> ({
      ^bb0(%l_ij0_80: f32 loc(callsite(#loc1 at #loc111)), %l_ij0_81: f32 loc(callsite(#loc1 at #loc111))):
        %l_ij0_82 = arith.addf %l_ij0_80, %l_ij0_81 : f32 loc(#loc144)
        tt.reduce.return %l_ij0_82 : f32 loc(#loc136)
      }) {loop.cluster = 21 : i32, loop.stage = 1 : i32, ttg.partition = array<i32: 4>} : (tensor<64x64xf32, #linear>) -> tensor<64xf32, #ttg.slice<{dim = 1, parent = #linear}>> loc(#loc136)
      %acc0_46 = arith.truncf %p0_45 {loop.cluster = 22 : i32, loop.stage = 1 : i32, ttg.partition = array<i32: 4>} : tensor<64x64xf32, #linear> to tensor<64x64xf16, #linear> loc(#loc112)
      %acc0_47 = ttng.tmem_alloc %acc0_46 {buffer.id = 2 : i32, buffer.merge_group_id = 2 : i32, loop.cluster = 1 : i32, loop.stage = 2 : i32, tt.num_buffers = 1 : i32, ttg.partition = array<i32: 6>} : (tensor<64x64xf16, #linear>) -> !ttg.memdesc<64x64xf16, #tmem, #ttng.tensor_memory> loc(#loc97)
      %acc0_48 = tt.expand_dims %alpha0_40 {axis = 1 : i32, loop.cluster = 15 : i32, loop.stage = 1 : i32, ttg.partition = array<i32: 5>} : tensor<64xf32, #ttg.slice<{dim = 1, parent = #linear}>> -> tensor<64x1xf32, #linear> loc(#loc113)
      %acc0_49 = ttg.convert_layout %acc0_48 {loop.cluster = 15 : i32, loop.stage = 1 : i32, ttg.partition = array<i32: 5>} : tensor<64x1xf32, #linear> -> tensor<64x1xf32, #linear1> loc(#loc114)
      %acc0_50 = tt.broadcast %acc0_49 {loop.cluster = 15 : i32, loop.stage = 1 : i32, ttg.partition = array<i32: 5>} : tensor<64x1xf32, #linear1> -> tensor<64x128xf32, #linear1> loc(#loc114)
      %acc0_51, %acc0_52 = ttng.tmem_load %acc0[%acc0_28] {loop.cluster = 6 : i32, loop.stage = 0 : i32, ttg.partition = array<i32: 5>} : !ttg.memdesc<64x128xf32, #tmem1, #ttng.tensor_memory, mutable> -> tensor<64x128xf32, #linear1> loc(#loc97)
      %acc0_53 = arith.mulf %acc0_51, %acc0_50 {loop.cluster = 16 : i32, loop.stage = 1 : i32, ttg.partition = array<i32: 5>} : tensor<64x128xf32, #linear1> loc(#loc114)
      %acc0_54 = ttng.tmem_store %acc0_53, %acc0[%acc0_52], %true {loop.cluster = 20 : i32, loop.stage = 1 : i32, ttg.partition = array<i32: 5>} : tensor<64x128xf32, #linear1> -> !ttg.memdesc<64x128xf32, #tmem1, #ttng.tensor_memory, mutable> loc(#loc97)
      %acc0_55 = ttng.tc_gen5_mma %acc0_47, %v_32, %acc0[%acc0_54], %acc0_26, %true {loop.cluster = 1 : i32, loop.stage = 2 : i32, ttg.partition = array<i32: 6>} : !ttg.memdesc<64x64xf16, #tmem, #ttng.tensor_memory>, !ttg.memdesc<64x128xf16, #shared, #smem>, !ttg.memdesc<64x128xf32, #tmem1, #ttng.tensor_memory, mutable> loc(#loc97)
      %l_i0_56 = arith.mulf %l_i0, %alpha0_40 {loop.cluster = 18 : i32, loop.stage = 1 : i32, ttg.partition = array<i32: 4>} : tensor<64xf32, #ttg.slice<{dim = 1, parent = #linear}>> loc(#loc115)
      %l_i0_57 = arith.addf %l_i0_56, %l_ij0 {loop.cluster = 4 : i32, loop.stage = 2 : i32, ttg.partition = array<i32: 4>} : tensor<64xf32, #ttg.slice<{dim = 1, parent = #linear}>> loc(#loc115)
      %qk1_58 = ttng.tc_gen5_mma %q1_6, %kt_33, %qk1[%qk1_29], %false, %true {loop.cluster = 5 : i32, loop.stage = 0 : i32, ttg.partition = array<i32: 3>} : !ttg.memdesc<64x128xf16, #shared, #smem>, !ttg.memdesc<128x64xf16, #shared1, #smem>, !ttg.memdesc<64x64xf32, #tmem, #ttng.tensor_memory, mutable> loc(#loc98)
      %qk1_59, %qk1_60 = ttng.tmem_load %qk1[%qk1_58] {loop.cluster = 1 : i32, loop.stage = 1 : i32, ttg.partition = array<i32: 4>} : !ttg.memdesc<64x64xf32, #tmem, #ttng.tensor_memory, mutable> -> tensor<64x64xf32, #linear> loc(#loc98)
      %m_ij1 = "tt.reduce"(%qk1_59) <{axis = 1 : i32, reduction_ordering = "unordered"}> ({
      ^bb0(%m_ij1_80: f32 loc(callsite(#loc1 at #loc116)), %m_ij1_81: f32 loc(callsite(#loc1 at #loc116))):
        %m_ij1_82 = arith.maxnumf %m_ij1_80, %m_ij1_81 : f32 loc(#loc145)
        tt.reduce.return %m_ij1_82 : f32 loc(#loc138)
      }) {loop.cluster = 3 : i32, loop.stage = 1 : i32, ttg.partition = array<i32: 4>} : (tensor<64x64xf32, #linear>) -> tensor<64xf32, #ttg.slice<{dim = 1, parent = #linear}>> loc(#loc138)
      %m_ij1_61 = arith.mulf %m_ij1, %m_ij0 {loop.cluster = 9 : i32, loop.stage = 1 : i32, ttg.partition = array<i32: 4>} : tensor<64xf32, #ttg.slice<{dim = 1, parent = #linear}>> loc(#loc116)
      %m_ij1_62 = arith.maxnumf %m_i1, %m_ij1_61 {loop.cluster = 10 : i32, loop.stage = 1 : i32, ttg.partition = array<i32: 4>} : tensor<64xf32, #ttg.slice<{dim = 1, parent = #linear}>> loc(#loc117)
      %alpha1 = arith.subf %m_i1, %m_ij1_62 {loop.cluster = 14 : i32, loop.stage = 1 : i32, ttg.partition = array<i32: 4>} : tensor<64xf32, #ttg.slice<{dim = 1, parent = #linear}>> loc(#loc118)
      %alpha1_63 = math.exp2 %alpha1 {loop.cluster = 14 : i32, loop.stage = 1 : i32, ttg.partition = array<i32: 4>} : tensor<64xf32, #ttg.slice<{dim = 1, parent = #linear}>> loc(#loc119)
      %p1 = arith.mulf %qk1_59, %p0 {loop.cluster = 5 : i32, loop.stage = 1 : i32, ttg.partition = array<i32: 4>} : tensor<64x64xf32, #linear> loc(#loc120)
      %p1_64 = tt.expand_dims %m_ij1_62 {axis = 1 : i32, loop.cluster = 10 : i32, loop.stage = 1 : i32, ttg.partition = array<i32: 4>} : tensor<64xf32, #ttg.slice<{dim = 1, parent = #linear}>> -> tensor<64x1xf32, #linear> loc(#loc121)
      %p1_65 = tt.broadcast %p1_64 {loop.cluster = 10 : i32, loop.stage = 1 : i32, ttg.partition = array<i32: 4>} : tensor<64x1xf32, #linear> -> tensor<64x64xf32, #linear> loc(#loc120)
      %p1_66 = arith.subf %p1, %p1_65 {loop.cluster = 11 : i32, loop.stage = 1 : i32, ttg.partition = array<i32: 4>} : tensor<64x64xf32, #linear> loc(#loc120)
      %p1_67 = math.exp2 %p1_66 {loop.cluster = 12 : i32, loop.stage = 1 : i32, ttg.partition = array<i32: 4>} : tensor<64x64xf32, #linear> loc(#loc122)
      %l_ij1 = "tt.reduce"(%p1_67) <{axis = 1 : i32, reduction_ordering = "unordered"}> ({
      ^bb0(%l_ij1_80: f32 loc(callsite(#loc1 at #loc123)), %l_ij1_81: f32 loc(callsite(#loc1 at #loc123))):
        %l_ij1_82 = arith.addf %l_ij1_80, %l_ij1_81 : f32 loc(#loc146)
        tt.reduce.return %l_ij1_82 : f32 loc(#loc140)
      }) {loop.cluster = 0 : i32, loop.stage = 2 : i32, ttg.partition = array<i32: 4>} : (tensor<64x64xf32, #linear>) -> tensor<64xf32, #ttg.slice<{dim = 1, parent = #linear}>> loc(#loc140)
      %acc1_68 = arith.truncf %p1_67 {loop.cluster = 3 : i32, loop.stage = 2 : i32, ttg.partition = array<i32: 4>} : tensor<64x64xf32, #linear> to tensor<64x64xf16, #linear> loc(#loc124)
      %acc1_69 = ttng.tmem_alloc %acc1_68 {buffer.id = 3 : i32, buffer.merge_group_id = 3 : i32, loop.cluster = 5 : i32, loop.stage = 2 : i32, tt.num_buffers = 2 : i32, ttg.partition = array<i32: 6>} : (tensor<64x64xf16, #linear>) -> !ttg.memdesc<64x64xf16, #tmem, #ttng.tensor_memory> loc(#loc99)
      %acc1_70 = tt.expand_dims %alpha1_63 {axis = 1 : i32, loop.cluster = 16 : i32, loop.stage = 1 : i32, ttg.partition = array<i32: 5>} : tensor<64xf32, #ttg.slice<{dim = 1, parent = #linear}>> -> tensor<64x1xf32, #linear> loc(#loc125)
      %acc1_71 = ttg.convert_layout %acc1_70 {loop.cluster = 17 : i32, loop.stage = 1 : i32, ttg.partition = array<i32: 5>} : tensor<64x1xf32, #linear> -> tensor<64x1xf32, #linear1> loc(#loc126)
      %acc1_72 = tt.broadcast %acc1_71 {loop.cluster = 17 : i32, loop.stage = 1 : i32, ttg.partition = array<i32: 5>} : tensor<64x1xf32, #linear1> -> tensor<64x128xf32, #linear1> loc(#loc126)
      %acc1_73, %acc1_74 = ttng.tmem_load %acc1[%acc1_30] {loop.cluster = 7 : i32, loop.stage = 0 : i32, ttg.partition = array<i32: 5>} : !ttg.memdesc<64x128xf32, #tmem1, #ttng.tensor_memory, mutable> -> tensor<64x128xf32, #linear1> loc(#loc99)
      %acc1_75 = arith.mulf %acc1_73, %acc1_72 {loop.cluster = 2 : i32, loop.stage = 2 : i32, ttg.partition = array<i32: 5>} : tensor<64x128xf32, #linear1> loc(#loc126)
      %acc1_76 = ttng.tmem_store %acc1_75, %acc1[%acc1_74], %true {loop.cluster = 7 : i32, loop.stage = 2 : i32, ttg.partition = array<i32: 5>} : tensor<64x128xf32, #linear1> -> !ttg.memdesc<64x128xf32, #tmem1, #ttng.tensor_memory, mutable> loc(#loc99)
      %acc1_77 = ttng.tc_gen5_mma %acc1_69, %v_32, %acc1[%acc1_76], %acc0_26, %true {loop.cluster = 8 : i32, loop.stage = 2 : i32, ttg.partition = array<i32: 6>} : !ttg.memdesc<64x64xf16, #tmem, #ttng.tensor_memory>, !ttg.memdesc<64x128xf16, #shared, #smem>, !ttg.memdesc<64x128xf32, #tmem1, #ttng.tensor_memory, mutable> loc(#loc99)
      %l_i1_78 = arith.mulf %l_i1, %alpha1_63 {loop.cluster = 19 : i32, loop.stage = 1 : i32, ttg.partition = array<i32: 4>} : tensor<64xf32, #ttg.slice<{dim = 1, parent = #linear}>> loc(#loc127)
      %l_i1_79 = arith.addf %l_i1_78, %l_ij1 {loop.cluster = 6 : i32, loop.stage = 2 : i32, ttg.partition = array<i32: 4>} : tensor<64xf32, #ttg.slice<{dim = 1, parent = #linear}>> loc(#loc127)
      scf.yield %m_ij0_39, %m_ij1_62, %l_i0_57, %l_i1_79, %true, %qk0_36, %acc0_55, %qk1_60, %acc1_77 : tensor<64xf32, #ttg.slice<{dim = 1, parent = #linear}>>, tensor<64xf32, #ttg.slice<{dim = 1, parent = #linear}>>, tensor<64xf32, #ttg.slice<{dim = 1, parent = #linear}>>, tensor<64xf32, #ttg.slice<{dim = 1, parent = #linear}>>, i1, !ttg.async.token, !ttg.async.token, !ttg.async.token, !ttg.async.token loc(#loc23)
    } {tt.modulo_ii = 1215 : i32, tt.num_stages = 3 : i32, tt.scheduled_max_stage = 2 : i32, ttg.partition.stages = [0 : i32, 0 : i32, 0 : i32, 0 : i32, 2 : i32, 2 : i32, 2 : i32], ttg.partition_num_warps = array<i32: 4, 1, 1, 1, 4, 4, 1>, ttg.warp_specialize.tag = 0 : i32} loc(#loc149)
    %acc0_14, %acc0_15 = ttng.tmem_load %acc0[%acc1_13#6] {ttg.partition = array<i32: 0>} : !ttg.memdesc<64x128xf32, #tmem1, #ttng.tensor_memory, mutable> -> tensor<64x128xf32, #linear1> loc(#loc97)
    %acc1_16, %acc1_17 = ttng.tmem_load %acc1[%acc1_13#8] {ttg.partition = array<i32: 0>} : !ttg.memdesc<64x128xf32, #tmem1, #ttng.tensor_memory, mutable> -> tensor<64x128xf32, #linear1> loc(#loc99)
    %acc0_18 = tt.expand_dims %acc1_13#2 {axis = 1 : i32, ttg.partition = array<i32: 0>} : tensor<64xf32, #ttg.slice<{dim = 1, parent = #linear}>> -> tensor<64x1xf32, #linear> loc(#loc128)
    %acc0_19 = ttg.convert_layout %acc0_18 {ttg.partition = array<i32: 0>} : tensor<64x1xf32, #linear> -> tensor<64x1xf32, #linear1> loc(#loc129)
    %acc0_20 = tt.broadcast %acc0_19 {ttg.partition = array<i32: 0>} : tensor<64x1xf32, #linear1> -> tensor<64x128xf32, #linear1> loc(#loc129)
    %acc0_21 = arith.divf %acc0_14, %acc0_20 {ttg.partition = array<i32: 0>} : tensor<64x128xf32, #linear1> loc(#loc129)
    %acc1_22 = tt.expand_dims %acc1_13#3 {axis = 1 : i32, ttg.partition = array<i32: 0>} : tensor<64xf32, #ttg.slice<{dim = 1, parent = #linear}>> -> tensor<64x1xf32, #linear> loc(#loc130)
    %acc1_23 = ttg.convert_layout %acc1_22 {ttg.partition = array<i32: 0>} : tensor<64x1xf32, #linear> -> tensor<64x1xf32, #linear1> loc(#loc131)
    %acc1_24 = tt.broadcast %acc1_23 {ttg.partition = array<i32: 0>} : tensor<64x1xf32, #linear1> -> tensor<64x128xf32, #linear1> loc(#loc131)
    %acc1_25 = arith.divf %acc1_16, %acc1_24 {ttg.partition = array<i32: 0>} : tensor<64x128xf32, #linear1> loc(#loc131)
    %1 = arith.truncf %acc0_21 {ttg.partition = array<i32: 0>} : tensor<64x128xf32, #linear1> to tensor<64x128xf16, #linear1> loc(#loc59)
    %2 = ttg.convert_layout %1 {ttg.partition = array<i32: 0>} : tensor<64x128xf16, #linear1> -> tensor<64x128xf16, #blocked> loc(#loc60)
    tt.descriptor_store %out_desc[%qo_offset_3, %c0_i32], %2 {ttg.partition = array<i32: 0>} : !tt.tensordesc<64x128xf16, #shared>, tensor<64x128xf16, #blocked> loc(#loc60)
    %3 = arith.truncf %acc1_25 {ttg.partition = array<i32: 0>} : tensor<64x128xf32, #linear1> to tensor<64x128xf16, #linear1> loc(#loc61)
    %4 = ttg.convert_layout %3 {ttg.partition = array<i32: 0>} : tensor<64x128xf16, #linear1> -> tensor<64x128xf16, #blocked> loc(#loc62)
    tt.descriptor_store %out_desc[%q1, %c0_i32], %4 {ttg.partition = array<i32: 0>} : !tt.tensordesc<64x128xf16, #shared>, tensor<64x128xf16, #blocked> loc(#loc62)
    %offs = tt.make_range {end = 64 : i32, start = 0 : i32} : tensor<64xi32, #blocked1> loc(#loc132)
    %5 = tt.addptr %M_lse, %qo_offset_3 : !tt.ptr<f32>, i32 loc(#loc64)
    %6 = tt.splat %5 : !tt.ptr<f32> -> tensor<64x!tt.ptr<f32>, #blocked1> loc(#loc64)
    %7 = tt.addptr %6, %offs : tensor<64x!tt.ptr<f32>, #blocked1>, tensor<64xi32, #blocked1> loc(#loc64)
    %8 = math.log2 %acc1_13#2 {ttg.partition = array<i32: 0>} : tensor<64xf32, #ttg.slice<{dim = 1, parent = #linear}>> loc(#loc65)
    %9 = arith.addf %acc1_13#0, %8 {ttg.partition = array<i32: 0>} : tensor<64xf32, #ttg.slice<{dim = 1, parent = #linear}>> loc(#loc66)
    %10 = ttg.convert_layout %9 {ttg.partition = array<i32: 0>} : tensor<64xf32, #ttg.slice<{dim = 1, parent = #linear}>> -> tensor<64xf32, #blocked1> loc(#loc67)
    tt.store %7, %10 {ttg.partition = array<i32: 0>} : tensor<64x!tt.ptr<f32>, #blocked1> loc(#loc67)
    %11 = tt.addptr %5, %c64_i32 : !tt.ptr<f32>, i32 loc(#loc68)
    %12 = tt.splat %11 : !tt.ptr<f32> -> tensor<64x!tt.ptr<f32>, #blocked1> loc(#loc68)
    %13 = tt.addptr %12, %offs : tensor<64x!tt.ptr<f32>, #blocked1>, tensor<64xi32, #blocked1> loc(#loc68)
    %14 = math.log2 %acc1_13#3 {ttg.partition = array<i32: 0>} : tensor<64xf32, #ttg.slice<{dim = 1, parent = #linear}>> loc(#loc69)
    %15 = arith.addf %acc1_13#1, %14 {ttg.partition = array<i32: 0>} : tensor<64xf32, #ttg.slice<{dim = 1, parent = #linear}>> loc(#loc70)
    %16 = ttg.convert_layout %15 {ttg.partition = array<i32: 0>} : tensor<64xf32, #ttg.slice<{dim = 1, parent = #linear}>> -> tensor<64xf32, #blocked1> loc(#loc71)
    tt.store %13, %16 {ttg.partition = array<i32: 0>} : tensor<64x!tt.ptr<f32>, #blocked1> loc(#loc71)
    tt.return loc(#loc)
  } loc(#loc)
} loc(#loc)
#loc2 = loc("/projects/kzhou6/hwu27/triton-beta-3-paper-solver-wt/third_party/tlx/tools/sched2tlx/examples/case3_FA_fp16_subtiled/fa_fwd_nows_subtiled.py":28:13)
#loc3 = loc("/projects/kzhou6/hwu27/triton-beta-3-paper-solver-wt/third_party/tlx/tools/sched2tlx/examples/case3_FA_fp16_subtiled/fa_fwd_nows_subtiled.py":29:14)
#loc4 = loc("/projects/kzhou6/hwu27/triton-beta-3-paper-solver-wt/third_party/tlx/tools/sched2tlx/examples/case3_FA_fp16_subtiled/fa_fwd_nows_subtiled.py":30:15)
#loc5 = loc("/projects/kzhou6/hwu27/triton-beta-3-paper-solver-wt/third_party/tlx/tools/sched2tlx/examples/case3_FA_fp16_subtiled/fa_fwd_nows_subtiled.py":31:27)
#loc6 = loc("/projects/kzhou6/hwu27/triton-beta-3-paper-solver-wt/third_party/tlx/tools/sched2tlx/examples/case3_FA_fp16_subtiled/fa_fwd_nows_subtiled.py":31:17)
#loc7 = loc("/projects/kzhou6/hwu27/triton-beta-3-paper-solver-wt/third_party/tlx/tools/sched2tlx/examples/case3_FA_fp16_subtiled/fa_fwd_nows_subtiled.py":32:12)
#loc8 = loc("/projects/kzhou6/hwu27/triton-beta-3-paper-solver-wt/third_party/tlx/tools/sched2tlx/examples/case3_FA_fp16_subtiled/fa_fwd_nows_subtiled.py":33:15)
#loc9 = loc("/projects/kzhou6/hwu27/triton-beta-3-paper-solver-wt/third_party/tlx/tools/sched2tlx/examples/case3_FA_fp16_subtiled/fa_fwd_nows_subtiled.py":35:14)
#loc10 = loc("/projects/kzhou6/hwu27/triton-beta-3-paper-solver-wt/third_party/tlx/tools/sched2tlx/examples/case3_FA_fp16_subtiled/fa_fwd_nows_subtiled.py":37:14)
#loc11 = loc("/projects/kzhou6/hwu27/triton-beta-3-paper-solver-wt/third_party/tlx/tools/sched2tlx/examples/case3_FA_fp16_subtiled/fa_fwd_nows_subtiled.py":39:16)
#loc12 = loc("/projects/kzhou6/hwu27/triton-beta-3-paper-solver-wt/third_party/tlx/tools/sched2tlx/examples/case3_FA_fp16_subtiled/fa_fwd_nows_subtiled.py":41:10)
#loc13 = loc("/projects/kzhou6/hwu27/triton-beta-3-paper-solver-wt/third_party/tlx/tools/sched2tlx/examples/case3_FA_fp16_subtiled/fa_fwd_nows_subtiled.py":42:24)
#loc14 = loc("/projects/kzhou6/hwu27/triton-beta-3-paper-solver-wt/third_party/tlx/tools/sched2tlx/examples/case3_FA_fp16_subtiled/fa_fwd_nows_subtiled.py":42:10)
#loc15 = loc("/projects/kzhou6/hwu27/triton-beta-3-paper-solver-wt/third_party/tlx/tools/sched2tlx/examples/case3_FA_fp16_subtiled/fa_fwd_nows_subtiled.py":49:16)
#loc16 = loc("/projects/kzhou6/hwu27/triton-beta-3-paper-solver-wt/third_party/tlx/tools/sched2tlx/examples/case3_FA_fp16_subtiled/fa_fwd_nows_subtiled.py":50:21)
#loc18 = loc("/projects/kzhou6/hwu27/triton-beta-3-paper-solver-wt/third_party/tlx/tools/sched2tlx/examples/case3_FA_fp16_subtiled/fa_fwd_nows_subtiled.py":58:27)
#loc19 = loc("/projects/kzhou6/hwu27/triton-beta-3-paper-solver-wt/third_party/tlx/tools/sched2tlx/examples/case3_FA_fp16_subtiled/fa_fwd_nows_subtiled.py":55:15)
#loc20 = loc("/projects/kzhou6/hwu27/triton-beta-3-paper-solver-wt/third_party/tlx/tools/sched2tlx/examples/case3_FA_fp16_subtiled/fa_fwd_nows_subtiled.py":60:16)
#loc21 = loc("/projects/kzhou6/hwu27/triton-beta-3-paper-solver-wt/third_party/tlx/tools/sched2tlx/examples/case3_FA_fp16_subtiled/fa_fwd_nows_subtiled.py":63:15)
#loc22 = loc("/projects/kzhou6/hwu27/triton-beta-3-paper-solver-wt/third_party/tlx/tools/sched2tlx/examples/case3_FA_fp16_subtiled/fa_fwd_nows_subtiled.py":68:16)
#loc23 = loc("/projects/kzhou6/hwu27/triton-beta-3-paper-solver-wt/third_party/tlx/tools/sched2tlx/examples/case3_FA_fp16_subtiled/fa_fwd_nows_subtiled.py":50:5)
#loc24 = loc("/projects/kzhou6/hwu27/triton-beta-3-paper-solver-wt/third_party/tlx/tools/sched2tlx/examples/case3_FA_fp16_subtiled/fa_fwd_nows_subtiled.py":51:26)
#loc25 = loc("/projects/kzhou6/hwu27/triton-beta-3-paper-solver-wt/third_party/tlx/tools/sched2tlx/examples/case3_FA_fp16_subtiled/fa_fwd_nows_subtiled.py":51:16)
#loc26 = loc("/projects/kzhou6/hwu27/triton-beta-3-paper-solver-wt/third_party/tlx/tools/sched2tlx/examples/case3_FA_fp16_subtiled/fa_fwd_nows_subtiled.py":52:13)
#loc27 = loc("/projects/kzhou6/hwu27/triton-beta-3-paper-solver-wt/third_party/tlx/tools/sched2tlx/examples/case3_FA_fp16_subtiled/fa_fwd_nows_subtiled.py":53:13)
#loc28 = loc("/projects/kzhou6/hwu27/triton-beta-3-paper-solver-wt/third_party/tlx/tools/sched2tlx/examples/case3_FA_fp16_subtiled/fa_fwd_nows_subtiled.py":54:14)
#loc29 = loc("/projects/kzhou6/hwu27/triton-beta-3-paper-solver-wt/python/triton/language/standard.py":194:16)
#loc30 = loc("/projects/kzhou6/hwu27/triton-beta-3-paper-solver-wt/python/triton/language/standard.py":170:12)
#loc31 = loc("/projects/kzhou6/hwu27/triton-beta-3-paper-solver-wt/third_party/tlx/tools/sched2tlx/examples/case3_FA_fp16_subtiled/fa_fwd_nows_subtiled.py":56:17)
#loc32 = loc("/projects/kzhou6/hwu27/triton-beta-3-paper-solver-wt/third_party/tlx/tools/sched2tlx/examples/case3_FA_fp16_subtiled/fa_fwd_nows_subtiled.py":57:31)
#loc33 = loc("/projects/kzhou6/hwu27/triton-beta-3-paper-solver-wt/third_party/tlx/tools/sched2tlx/examples/case3_FA_fp16_subtiled/fa_fwd_nows_subtiled.py":57:18)
#loc34 = loc("/projects/kzhou6/hwu27/triton-beta-3-paper-solver-wt/third_party/tlx/tools/sched2tlx/examples/case3_FA_fp16_subtiled/fa_fwd_nows_subtiled.py":58:44)
#loc35 = loc("/projects/kzhou6/hwu27/triton-beta-3-paper-solver-wt/third_party/tlx/tools/sched2tlx/examples/case3_FA_fp16_subtiled/fa_fwd_nows_subtiled.py":58:14)
#loc36 = loc("/projects/kzhou6/hwu27/triton-beta-3-paper-solver-wt/python/triton/language/standard.py":313:12)
#loc38 = loc("/projects/kzhou6/hwu27/triton-beta-3-paper-solver-wt/python/triton/language/standard.py":273:12)
#loc39 = loc("/projects/kzhou6/hwu27/triton-beta-3-paper-solver-wt/third_party/tlx/tools/sched2tlx/examples/case3_FA_fp16_subtiled/fa_fwd_nows_subtiled.py":60:23)
#loc40 = loc("/projects/kzhou6/hwu27/triton-beta-3-paper-solver-wt/third_party/tlx/tools/sched2tlx/examples/case3_FA_fp16_subtiled/fa_fwd_nows_subtiled.py":60:52)
#loc41 = loc("/projects/kzhou6/hwu27/triton-beta-3-paper-solver-wt/third_party/tlx/tools/sched2tlx/examples/case3_FA_fp16_subtiled/fa_fwd_nows_subtiled.py":60:45)
#loc42 = loc("/projects/kzhou6/hwu27/triton-beta-3-paper-solver-wt/third_party/tlx/tools/sched2tlx/examples/case3_FA_fp16_subtiled/fa_fwd_nows_subtiled.py":61:16)
#loc44 = loc("/projects/kzhou6/hwu27/triton-beta-3-paper-solver-wt/third_party/tlx/tools/sched2tlx/examples/case3_FA_fp16_subtiled/fa_fwd_nows_subtiled.py":64:17)
#loc45 = loc("/projects/kzhou6/hwu27/triton-beta-3-paper-solver-wt/third_party/tlx/tools/sched2tlx/examples/case3_FA_fp16_subtiled/fa_fwd_nows_subtiled.py":65:31)
#loc46 = loc("/projects/kzhou6/hwu27/triton-beta-3-paper-solver-wt/third_party/tlx/tools/sched2tlx/examples/case3_FA_fp16_subtiled/fa_fwd_nows_subtiled.py":65:18)
#loc47 = loc("/projects/kzhou6/hwu27/triton-beta-3-paper-solver-wt/third_party/tlx/tools/sched2tlx/examples/case3_FA_fp16_subtiled/fa_fwd_nows_subtiled.py":66:27)
#loc48 = loc("/projects/kzhou6/hwu27/triton-beta-3-paper-solver-wt/third_party/tlx/tools/sched2tlx/examples/case3_FA_fp16_subtiled/fa_fwd_nows_subtiled.py":66:44)
#loc49 = loc("/projects/kzhou6/hwu27/triton-beta-3-paper-solver-wt/third_party/tlx/tools/sched2tlx/examples/case3_FA_fp16_subtiled/fa_fwd_nows_subtiled.py":66:14)
#loc51 = loc("/projects/kzhou6/hwu27/triton-beta-3-paper-solver-wt/third_party/tlx/tools/sched2tlx/examples/case3_FA_fp16_subtiled/fa_fwd_nows_subtiled.py":68:23)
#loc52 = loc("/projects/kzhou6/hwu27/triton-beta-3-paper-solver-wt/third_party/tlx/tools/sched2tlx/examples/case3_FA_fp16_subtiled/fa_fwd_nows_subtiled.py":68:52)
#loc53 = loc("/projects/kzhou6/hwu27/triton-beta-3-paper-solver-wt/third_party/tlx/tools/sched2tlx/examples/case3_FA_fp16_subtiled/fa_fwd_nows_subtiled.py":68:45)
#loc54 = loc("/projects/kzhou6/hwu27/triton-beta-3-paper-solver-wt/third_party/tlx/tools/sched2tlx/examples/case3_FA_fp16_subtiled/fa_fwd_nows_subtiled.py":69:16)
#loc55 = loc("/projects/kzhou6/hwu27/triton-beta-3-paper-solver-wt/third_party/tlx/tools/sched2tlx/examples/case3_FA_fp16_subtiled/fa_fwd_nows_subtiled.py":71:19)
#loc56 = loc("/projects/kzhou6/hwu27/triton-beta-3-paper-solver-wt/third_party/tlx/tools/sched2tlx/examples/case3_FA_fp16_subtiled/fa_fwd_nows_subtiled.py":71:12)
#loc57 = loc("/projects/kzhou6/hwu27/triton-beta-3-paper-solver-wt/third_party/tlx/tools/sched2tlx/examples/case3_FA_fp16_subtiled/fa_fwd_nows_subtiled.py":72:19)
#loc58 = loc("/projects/kzhou6/hwu27/triton-beta-3-paper-solver-wt/third_party/tlx/tools/sched2tlx/examples/case3_FA_fp16_subtiled/fa_fwd_nows_subtiled.py":72:12)
#loc59 = loc("/projects/kzhou6/hwu27/triton-beta-3-paper-solver-wt/third_party/tlx/tools/sched2tlx/examples/case3_FA_fp16_subtiled/fa_fwd_nows_subtiled.py":73:36)
#loc60 = loc("/projects/kzhou6/hwu27/triton-beta-3-paper-solver-wt/third_party/tlx/tools/sched2tlx/examples/case3_FA_fp16_subtiled/fa_fwd_nows_subtiled.py":73:5)
#loc61 = loc("/projects/kzhou6/hwu27/triton-beta-3-paper-solver-wt/third_party/tlx/tools/sched2tlx/examples/case3_FA_fp16_subtiled/fa_fwd_nows_subtiled.py":74:44)
#loc62 = loc("/projects/kzhou6/hwu27/triton-beta-3-paper-solver-wt/third_party/tlx/tools/sched2tlx/examples/case3_FA_fp16_subtiled/fa_fwd_nows_subtiled.py":74:5)
#loc63 = loc("/projects/kzhou6/hwu27/triton-beta-3-paper-solver-wt/third_party/tlx/tools/sched2tlx/examples/case3_FA_fp16_subtiled/fa_fwd_nows_subtiled.py":75:12)
#loc64 = loc("/projects/kzhou6/hwu27/triton-beta-3-paper-solver-wt/third_party/tlx/tools/sched2tlx/examples/case3_FA_fp16_subtiled/fa_fwd_nows_subtiled.py":76:14)
#loc65 = loc("/projects/kzhou6/hwu27/triton-beta-3-paper-solver-wt/third_party/tlx/tools/sched2tlx/examples/case3_FA_fp16_subtiled/fa_fwd_nows_subtiled.py":76:47)
#loc66 = loc("/projects/kzhou6/hwu27/triton-beta-3-paper-solver-wt/third_party/tlx/tools/sched2tlx/examples/case3_FA_fp16_subtiled/fa_fwd_nows_subtiled.py":76:40)
#loc67 = loc("/projects/kzhou6/hwu27/triton-beta-3-paper-solver-wt/third_party/tlx/tools/sched2tlx/examples/case3_FA_fp16_subtiled/fa_fwd_nows_subtiled.py":76:5)
#loc68 = loc("/projects/kzhou6/hwu27/triton-beta-3-paper-solver-wt/third_party/tlx/tools/sched2tlx/examples/case3_FA_fp16_subtiled/fa_fwd_nows_subtiled.py":77:14)
#loc69 = loc("/projects/kzhou6/hwu27/triton-beta-3-paper-solver-wt/third_party/tlx/tools/sched2tlx/examples/case3_FA_fp16_subtiled/fa_fwd_nows_subtiled.py":77:55)
#loc70 = loc("/projects/kzhou6/hwu27/triton-beta-3-paper-solver-wt/third_party/tlx/tools/sched2tlx/examples/case3_FA_fp16_subtiled/fa_fwd_nows_subtiled.py":77:48)
#loc71 = loc("/projects/kzhou6/hwu27/triton-beta-3-paper-solver-wt/third_party/tlx/tools/sched2tlx/examples/case3_FA_fp16_subtiled/fa_fwd_nows_subtiled.py":77:5)
#loc80 = loc("pid_m"(#loc2))
#loc81 = loc("pid_bh"(#loc3))
#loc82 = loc("kv_base"(#loc4))
#loc83 = loc("qo_offset"(#loc5))
#loc84 = loc("qo_offset"(#loc6))
#loc85 = loc("rows"(#loc7))
#loc86 = loc("qo_desc"(#loc8))
#loc87 = loc("k_desc"(#loc9))
#loc88 = loc("v_desc"(#loc10))
#loc89 = loc("out_desc"(#loc11))
#loc90 = loc("q0"(#loc12))
#loc91 = loc("q1"(#loc13))
#loc92 = loc("q1"(#loc14))
#loc93 = loc("qk_scale"(#loc15))
#loc95 = loc("p0"(#loc18))
#loc96 = loc("qk0"(#loc19))
#loc97 = loc("acc0"(#loc20))
#loc98 = loc("qk1"(#loc21))
#loc99 = loc("acc1"(#loc22))
#loc100 = loc("m_i0"(#loc23))
#loc101 = loc("koff"(#loc24))
#loc102 = loc("koff"(#loc25))
#loc103 = loc("k"(#loc26))
#loc104 = loc("v"(#loc27))
#loc105 = loc("kt"(#loc28))
#loc106 = loc("m_ij0"(#loc31))
#loc107 = loc("alpha0"(#loc32))
#loc108 = loc("alpha0"(#loc33))
#loc109 = loc("p0"(#loc34))
#loc110 = loc("p0"(#loc35))
#loc112 = loc("acc0"(#loc39))
#loc113 = loc("acc0"(#loc40))
#loc114 = loc("acc0"(#loc41))
#loc115 = loc("l_i0"(#loc42))
#loc117 = loc("m_ij1"(#loc44))
#loc118 = loc("alpha1"(#loc45))
#loc119 = loc("alpha1"(#loc46))
#loc120 = loc("p1"(#loc47))
#loc121 = loc("p1"(#loc48))
#loc122 = loc("p1"(#loc49))
#loc124 = loc("acc1"(#loc51))
#loc125 = loc("acc1"(#loc52))
#loc126 = loc("acc1"(#loc53))
#loc127 = loc("l_i1"(#loc54))
#loc128 = loc("acc0"(#loc55))
#loc129 = loc("acc0"(#loc56))
#loc130 = loc("acc1"(#loc57))
#loc131 = loc("acc1"(#loc58))
#loc132 = loc("offs"(#loc63))
#loc133 = loc("m_i1"(#loc100))
#loc134 = loc(callsite(#loc29 at #loc94))
#loc136 = loc(callsite(#loc36 at #loc111))
#loc138 = loc(callsite(#loc29 at #loc116))
#loc140 = loc(callsite(#loc36 at #loc123))
#loc142 = loc("l_i0"(#loc133))
#loc143 = loc(callsite(#loc30 at #loc134))
#loc144 = loc(callsite(#loc38 at #loc136))
#loc145 = loc(callsite(#loc30 at #loc138))
#loc146 = loc(callsite(#loc38 at #loc140))
#loc147 = loc("l_i1"(#loc142))
#loc148 = loc("acc0"(#loc147))
#loc149 = loc("acc1"(#loc148))


